{"format": "graph-model", "generatedBy": "2.19.0", "convertedBy": "TensorFlow.js Converter v4.22.0", "signature": {"inputs": {"input_layer_1": {"name": "input_layer_1:0", "dtype": "DT_FLOAT", "tensorShape": {"dim": [{"size": "-1"}, {"size": "224"}, {"size": "224"}, {"size": "3"}]}}}, "outputs": {"output_0": {"name": "Identity:0", "dtype": "DT_FLOAT", "tensorShape": {"dim": [{"size": "-1"}, {"size": "9"}]}}}}, "modelTopology": {"node": [{"name": "StatefulPartitionedCall/food_classifier_inference_1/mobilenetv2_0.35_224_1/block_15_project_BN_1/batchnorm/sub", "op": "Const", "attr": {"value": {"tensor": {"dtype": "DT_FLOAT", "tensorShape": {"dim": [{"size": "56"}]}}}, "dtype": {"type": "DT_FLOAT"}}}, {"name": "StatefulPartitionedCall/food_classifier_inference_1/mobilenetv2_0.35_224_1/block_14_project_BN_1/batchnorm/sub", "op": "Const", "attr": {"value": {"tensor": {"dtype": "DT_FLOAT", "tensorShape": {"dim": [{"size": "56"}]}}}, "dtype": {"type": "DT_FLOAT"}}}, {"name": "StatefulPartitionedCall/food_classifier_inference_1/mobilenetv2_0.35_224_1/block_12_project_BN_1/batchnorm/sub", "op": "Const", "attr": {"value": {"tensor": {"dtype": "DT_FLOAT", "tensorShape": {"dim": [{"size": "32"}]}}}, "dtype": {"type": "DT_FLOAT"}}}, {"name": "StatefulPartitionedCall/food_classifier_inference_1/mobilenetv2_0.35_224_1/block_11_project_BN_1/batchnorm/sub", "op": "Const", "attr": {"value": {"tensor": {"dtype": "DT_FLOAT", "tensorShape": {"dim": [{"size": "32"}]}}}, "dtype": {"type": "DT_FLOAT"}}}, {"name": "StatefulPartitionedCall/food_classifier_inference_1/mobilenetv2_0.35_224_1/block_9_project_BN_1/batchnorm/sub", "op": "Const", "attr": {"value": {"tensor": {"dtype": "DT_FLOAT", "tensorShape": {"dim": [{"size": "24"}]}}}, "dtype": {"type": "DT_FLOAT"}}}, {"name": "StatefulPartitionedCall/food_classifier_inference_1/mobilenetv2_0.35_224_1/block_8_project_BN_1/batchnorm/sub", "op": "Const", "attr": {"value": {"tensor": {"dtype": "DT_FLOAT", "tensorShape": {"dim": [{"size": "24"}]}}}, "dtype": {"type": "DT_FLOAT"}}}, {"name": "StatefulPartitionedCall/food_classifier_inference_1/mobilenetv2_0.35_224_1/block_7_project_BN_1/batchnorm/sub", "op": "Const", "attr": {"value": {"tensor": {"dtype": "DT_FLOAT", "tensorShape": {"dim": [{"size": "24"}]}}}, "dtype": {"type": "DT_FLOAT"}}}, {"name": "StatefulPartitionedCall/food_classifier_inference_1/mobilenetv2_0.35_224_1/block_5_project_BN_1/batchnorm/sub", "op": "Const", "attr": {"value": {"tensor": {"dtype": "DT_FLOAT", "tensorShape": {"dim": [{"size": "16"}]}}}, "dtype": {"type": "DT_FLOAT"}}}, {"name": "StatefulPartitionedCall/food_classifier_inference_1/mobilenetv2_0.35_224_1/block_4_project_BN_1/batchnorm/sub", "op": "Const", "attr": {"value": {"tensor": {"dtype": "DT_FLOAT", "tensorShape": {"dim": [{"size": "16"}]}}}, "dtype": {"type": "DT_FLOAT"}}}, {"name": "StatefulPartitionedCall/food_classifier_inference_1/mobilenetv2_0.35_224_1/block_2_project_BN_1/batchnorm/sub", "op": "Const", "attr": {"value": {"tensor": {"dtype": "DT_FLOAT", "tensorShape": {"dim": [{"size": "8"}]}}}, "dtype": {"type": "DT_FLOAT"}}}, {"name": "ConstantFolding/StatefulPartitionedCall/food_classifier_inference_1/backbone_preprocess_1/truediv_recip", "op": "Const", "attr": {"value": {"tensor": {"dtype": "DT_FLOAT", "tensorShape": {}}}, "dtype": {"type": "DT_FLOAT"}}}, {"name": "StatefulPartitionedCall/food_classifier_inference_1/backbone_preprocess_1/sub/y", "op": "Const", "attr": {"value": {"tensor": {"dtype": "DT_FLOAT", "tensorShape": {}}}, "dtype": {"type": "DT_FLOAT"}}}, {"name": "StatefulPartitionedCall/food_classifier_inference_1/mobilenetv2_0.35_224_1/Conv1_1/convolution/merged_input", "op": "Const", "attr": {"value": {"tensor": {"dtype": "DT_FLOAT", "tensorShape": {"dim": [{"size": "3"}, {"size": "3"}, {"size": "3"}, {"size": "16"}]}}}, "dtype": {"type": "DT_FLOAT"}}}, {"name": "StatefulPartitionedCall/food_classifier_inference_1/mobilenetv2_0.35_224_1/bn_Conv1_1/batchnorm/sub", "op": "Const", "attr": {"value": {"tensor": {"dtype": "DT_FLOAT", "tensorShape": {"dim": [{"size": "16"}]}}}, "dtype": {"type": "DT_FLOAT"}}}, {"name": "StatefulPartitionedCall/food_classifier_inference_1/mobilenetv2_0.35_224_1/expanded_conv_depthwise_1/depthwise/ReadVariableOp", "op": "Const", "attr": {"value": {"tensor": {"dtype": "DT_FLOAT", "tensorShape": {"dim": [{"size": "3"}, {"size": "3"}, {"size": "16"}, {"size": "1"}]}}}, "dtype": {"type": "DT_FLOAT"}}}, {"name": "StatefulPartitionedCall/food_classifier_inference_1/mobilenetv2_0.35_224_1/expanded_conv_depthwise_BN_1/batchnorm/mul", "op": "Const", "attr": {"value": {"tensor": {"dtype": "DT_FLOAT", "tensorShape": {"dim": [{"size": "16"}]}}}, "dtype": {"type": "DT_FLOAT"}}}, {"name": "StatefulPartitionedCall/food_classifier_inference_1/mobilenetv2_0.35_224_1/expanded_conv_depthwise_BN_1/batchnorm/sub", "op": "Const", "attr": {"value": {"tensor": {"dtype": "DT_FLOAT", "tensorShape": {"dim": [{"size": "16"}]}}}, "dtype": {"type": "DT_FLOAT"}}}, {"name": "StatefulPartitionedCall/food_classifier_inference_1/mobilenetv2_0.35_224_1/expanded_conv_project_1/convolution/merged_input", "op": "Const", "attr": {"value": {"tensor": {"dtype": "DT_FLOAT", "tensorShape": {"dim": [{"size": "1"}, {"size": "1"}, {"size": "16"}, {"size": "8"}]}}}, "dtype": {"type": "DT_FLOAT"}}}, {"name": "StatefulPartitionedCall/food_classifier_inference_1/mobilenetv2_0.35_224_1/expanded_conv_project_BN_1/batchnorm/sub", "op": "Const", "attr": {"value": {"tensor": {"dtype": "DT_FLOAT", "tensorShape": {"dim": [{"size": "8"}]}}}, "dtype": {"type": "DT_FLOAT"}}}, {"name": "StatefulPartitionedCall/food_classifier_inference_1/mobilenetv2_0.35_224_1/block_1_expand_1/convolution/merged_input", "op": "Const", "attr": {"value": {"tensor": {"dtype": "DT_FLOAT", "tensorShape": {"dim": [{"size": "1"}, {"size": "1"}, {"size": "8"}, {"size": "48"}]}}}, "dtype": {"type": "DT_FLOAT"}}}, {"name": "StatefulPartitionedCall/food_classifier_inference_1/mobilenetv2_0.35_224_1/block_1_expand_BN_1/batchnorm/sub", "op": "Const", "attr": {"value": {"tensor": {"dtype": "DT_FLOAT", "tensorShape": {"dim": [{"size": "48"}]}}}, "dtype": {"type": "DT_FLOAT"}}}, {"name": "StatefulPartitionedCall/food_classifier_inference_1/mobilenetv2_0.35_224_1/block_1_pad_1/Const", "op": "Const", "attr": {"value": {"tensor": {"dtype": "DT_INT32", "tensorShape": {"dim": [{"size": "4"}, {"size": "2"}]}}}, "dtype": {"type": "DT_INT32"}}}, {"name": "StatefulPartitionedCall/food_classifier_inference_1/mobilenetv2_0.35_224_1/block_1_depthwise_1/depthwise/ReadVariableOp", "op": "Const", "attr": {"value": {"tensor": {"dtype": "DT_FLOAT", "tensorShape": {"dim": [{"size": "3"}, {"size": "3"}, {"size": "48"}, {"size": "1"}]}}}, "dtype": {"type": "DT_FLOAT"}}}, {"name": "StatefulPartitionedCall/food_classifier_inference_1/mobilenetv2_0.35_224_1/block_1_depthwise_BN_1/batchnorm/mul", "op": "Const", "attr": {"value": {"tensor": {"dtype": "DT_FLOAT", "tensorShape": {"dim": [{"size": "48"}]}}}, "dtype": {"type": "DT_FLOAT"}}}, {"name": "StatefulPartitionedCall/food_classifier_inference_1/mobilenetv2_0.35_224_1/block_1_depthwise_BN_1/batchnorm/sub", "op": "Const", "attr": {"value": {"tensor": {"dtype": "DT_FLOAT", "tensorShape": {"dim": [{"size": "48"}]}}}, "dtype": {"type": "DT_FLOAT"}}}, {"name": "StatefulPartitionedCall/food_classifier_inference_1/mobilenetv2_0.35_224_1/block_1_project_1/convolution/merged_input", "op": "Const", "attr": {"value": {"tensor": {"dtype": "DT_FLOAT", "tensorShape": {"dim": [{"size": "1"}, {"size": "1"}, {"size": "48"}, {"size": "8"}]}}}, "dtype": {"type": "DT_FLOAT"}}}, {"name": "StatefulPartitionedCall/food_classifier_inference_1/mobilenetv2_0.35_224_1/block_1_project_BN_1/batchnorm/sub", "op": "Const", "attr": {"value": {"tensor": {"dtype": "DT_FLOAT", "tensorShape": {"dim": [{"size": "8"}]}}}, "dtype": {"type": "DT_FLOAT"}}}, {"name": "StatefulPartitionedCall/food_classifier_inference_1/mobilenetv2_0.35_224_1/block_2_expand_1/convolution/merged_input", "op": "Const", "attr": {"value": {"tensor": {"dtype": "DT_FLOAT", "tensorShape": {"dim": [{"size": "1"}, {"size": "1"}, {"size": "8"}, {"size": "48"}]}}}, "dtype": {"type": "DT_FLOAT"}}}, {"name": "StatefulPartitionedCall/food_classifier_inference_1/mobilenetv2_0.35_224_1/block_2_expand_BN_1/batchnorm/sub", "op": "Const", "attr": {"value": {"tensor": {"dtype": "DT_FLOAT", "tensorShape": {"dim": [{"size": "48"}]}}}, "dtype": {"type": "DT_FLOAT"}}}, {"name": "StatefulPartitionedCall/food_classifier_inference_1/mobilenetv2_0.35_224_1/block_2_depthwise_1/depthwise/ReadVariableOp", "op": "Const", "attr": {"value": {"tensor": {"dtype": "DT_FLOAT", "tensorShape": {"dim": [{"size": "3"}, {"size": "3"}, {"size": "48"}, {"size": "1"}]}}}, "dtype": {"type": "DT_FLOAT"}}}, {"name": "StatefulPartitionedCall/food_classifier_inference_1/mobilenetv2_0.35_224_1/block_2_depthwise_BN_1/batchnorm/mul", "op": "Const", "attr": {"value": {"tensor": {"dtype": "DT_FLOAT", "tensorShape": {"dim": [{"size": "48"}]}}}, "dtype": {"type": "DT_FLOAT"}}}, {"name": "StatefulPartitionedCall/food_classifier_inference_1/mobilenetv2_0.35_224_1/block_2_depthwise_BN_1/batchnorm/sub", "op": "Const", "attr": {"value": {"tensor": {"dtype": "DT_FLOAT", "tensorShape": {"dim": [{"size": "48"}]}}}, "dtype": {"type": "DT_FLOAT"}}}, {"name": "StatefulPartitionedCall/food_classifier_inference_1/mobilenetv2_0.35_224_1/block_2_project_1/convolution/merged_input", "op": "Const", "attr": {"value": {"tensor": {"dtype": "DT_FLOAT", "tensorShape": {"dim": [{"size": "1"}, {"size": "1"}, {"size": "48"}, {"size": "8"}]}}}, "dtype": {"type": "DT_FLOAT"}}}, {"name": "StatefulPartitionedCall/food_classifier_inference_1/mobilenetv2_0.35_224_1/block_3_expand_1/convolution/merged_input", "op": "Const", "attr": {"value": {"tensor": {"dtype": "DT_FLOAT", "tensorShape": {"dim": [{"size": "1"}, {"size": "1"}, {"size": "8"}, {"size": "48"}]}}}, "dtype": {"type": "DT_FLOAT"}}}, {"name": "StatefulPartitionedCall/food_classifier_inference_1/mobilenetv2_0.35_224_1/block_3_expand_BN_1/batchnorm/sub", "op": "Const", "attr": {"value": {"tensor": {"dtype": "DT_FLOAT", "tensorShape": {"dim": [{"size": "48"}]}}}, "dtype": {"type": "DT_FLOAT"}}}, {"name": "StatefulPartitionedCall/food_classifier_inference_1/mobilenetv2_0.35_224_1/block_3_pad_1/Const", "op": "Const", "attr": {"value": {"tensor": {"dtype": "DT_INT32", "tensorShape": {"dim": [{"size": "4"}, {"size": "2"}]}}}, "dtype": {"type": "DT_INT32"}}}, {"name": "StatefulPartitionedCall/food_classifier_inference_1/mobilenetv2_0.35_224_1/block_3_depthwise_1/depthwise/ReadVariableOp", "op": "Const", "attr": {"value": {"tensor": {"dtype": "DT_FLOAT", "tensorShape": {"dim": [{"size": "3"}, {"size": "3"}, {"size": "48"}, {"size": "1"}]}}}, "dtype": {"type": "DT_FLOAT"}}}, {"name": "StatefulPartitionedCall/food_classifier_inference_1/mobilenetv2_0.35_224_1/block_3_depthwise_BN_1/batchnorm/mul", "op": "Const", "attr": {"value": {"tensor": {"dtype": "DT_FLOAT", "tensorShape": {"dim": [{"size": "48"}]}}}, "dtype": {"type": "DT_FLOAT"}}}, {"name": "StatefulPartitionedCall/food_classifier_inference_1/mobilenetv2_0.35_224_1/block_3_depthwise_BN_1/batchnorm/sub", "op": "Const", "attr": {"value": {"tensor": {"dtype": "DT_FLOAT", "tensorShape": {"dim": [{"size": "48"}]}}}, "dtype": {"type": "DT_FLOAT"}}}, {"name": "StatefulPartitionedCall/food_classifier_inference_1/mobilenetv2_0.35_224_1/block_3_project_1/convolution/merged_input", "op": "Const", "attr": {"value": {"tensor": {"dtype": "DT_FLOAT", "tensorShape": {"dim": [{"size": "1"}, {"size": "1"}, {"size": "48"}, {"size": "16"}]}}}, "dtype": {"type": "DT_FLOAT"}}}, {"name": "StatefulPartitionedCall/food_classifier_inference_1/mobilenetv2_0.35_224_1/block_3_project_BN_1/batchnorm/sub", "op": "Const", "attr": {"value": {"tensor": {"dtype": "DT_FLOAT", "tensorShape": {"dim": [{"size": "16"}]}}}, "dtype": {"type": "DT_FLOAT"}}}, {"name": "StatefulPartitionedCall/food_classifier_inference_1/mobilenetv2_0.35_224_1/block_4_expand_1/convolution/merged_input", "op": "Const", "attr": {"value": {"tensor": {"dtype": "DT_FLOAT", "tensorShape": {"dim": [{"size": "1"}, {"size": "1"}, {"size": "16"}, {"size": "96"}]}}}, "dtype": {"type": "DT_FLOAT"}}}, {"name": "StatefulPartitionedCall/food_classifier_inference_1/mobilenetv2_0.35_224_1/block_4_expand_BN_1/batchnorm/sub", "op": "Const", "attr": {"value": {"tensor": {"dtype": "DT_FLOAT", "tensorShape": {"dim": [{"size": "96"}]}}}, "dtype": {"type": "DT_FLOAT"}}}, {"name": "StatefulPartitionedCall/food_classifier_inference_1/mobilenetv2_0.35_224_1/block_4_depthwise_1/depthwise/ReadVariableOp", "op": "Const", "attr": {"value": {"tensor": {"dtype": "DT_FLOAT", "tensorShape": {"dim": [{"size": "3"}, {"size": "3"}, {"size": "96"}, {"size": "1"}]}}}, "dtype": {"type": "DT_FLOAT"}}}, {"name": "StatefulPartitionedCall/food_classifier_inference_1/mobilenetv2_0.35_224_1/block_4_depthwise_BN_1/batchnorm/mul", "op": "Const", "attr": {"value": {"tensor": {"dtype": "DT_FLOAT", "tensorShape": {"dim": [{"size": "96"}]}}}, "dtype": {"type": "DT_FLOAT"}}}, {"name": "StatefulPartitionedCall/food_classifier_inference_1/mobilenetv2_0.35_224_1/block_4_depthwise_BN_1/batchnorm/sub", "op": "Const", "attr": {"value": {"tensor": {"dtype": "DT_FLOAT", "tensorShape": {"dim": [{"size": "96"}]}}}, "dtype": {"type": "DT_FLOAT"}}}, {"name": "StatefulPartitionedCall/food_classifier_inference_1/mobilenetv2_0.35_224_1/block_4_project_1/convolution/merged_input", "op": "Const", "attr": {"value": {"tensor": {"dtype": "DT_FLOAT", "tensorShape": {"dim": [{"size": "1"}, {"size": "1"}, {"size": "96"}, {"size": "16"}]}}}, "dtype": {"type": "DT_FLOAT"}}}, {"name": "StatefulPartitionedCall/food_classifier_inference_1/mobilenetv2_0.35_224_1/block_5_expand_1/convolution/merged_input", "op": "Const", "attr": {"value": {"tensor": {"dtype": "DT_FLOAT", "tensorShape": {"dim": [{"size": "1"}, {"size": "1"}, {"size": "16"}, {"size": "96"}]}}}, "dtype": {"type": "DT_FLOAT"}}}, {"name": "StatefulPartitionedCall/food_classifier_inference_1/mobilenetv2_0.35_224_1/block_5_expand_BN_1/batchnorm/sub", "op": "Const", "attr": {"value": {"tensor": {"dtype": "DT_FLOAT", "tensorShape": {"dim": [{"size": "96"}]}}}, "dtype": {"type": "DT_FLOAT"}}}, {"name": "StatefulPartitionedCall/food_classifier_inference_1/mobilenetv2_0.35_224_1/block_5_depthwise_1/depthwise/ReadVariableOp", "op": "Const", "attr": {"value": {"tensor": {"dtype": "DT_FLOAT", "tensorShape": {"dim": [{"size": "3"}, {"size": "3"}, {"size": "96"}, {"size": "1"}]}}}, "dtype": {"type": "DT_FLOAT"}}}, {"name": "StatefulPartitionedCall/food_classifier_inference_1/mobilenetv2_0.35_224_1/block_5_depthwise_BN_1/batchnorm/mul", "op": "Const", "attr": {"value": {"tensor": {"dtype": "DT_FLOAT", "tensorShape": {"dim": [{"size": "96"}]}}}, "dtype": {"type": "DT_FLOAT"}}}, {"name": "StatefulPartitionedCall/food_classifier_inference_1/mobilenetv2_0.35_224_1/block_5_depthwise_BN_1/batchnorm/sub", "op": "Const", "attr": {"value": {"tensor": {"dtype": "DT_FLOAT", "tensorShape": {"dim": [{"size": "96"}]}}}, "dtype": {"type": "DT_FLOAT"}}}, {"name": "StatefulPartitionedCall/food_classifier_inference_1/mobilenetv2_0.35_224_1/block_5_project_1/convolution/merged_input", "op": "Const", "attr": {"value": {"tensor": {"dtype": "DT_FLOAT", "tensorShape": {"dim": [{"size": "1"}, {"size": "1"}, {"size": "96"}, {"size": "16"}]}}}, "dtype": {"type": "DT_FLOAT"}}}, {"name": "StatefulPartitionedCall/food_classifier_inference_1/mobilenetv2_0.35_224_1/block_6_expand_1/convolution/merged_input", "op": "Const", "attr": {"value": {"tensor": {"dtype": "DT_FLOAT", "tensorShape": {"dim": [{"size": "1"}, {"size": "1"}, {"size": "16"}, {"size": "96"}]}}}, "dtype": {"type": "DT_FLOAT"}}}, {"name": "StatefulPartitionedCall/food_classifier_inference_1/mobilenetv2_0.35_224_1/block_6_expand_BN_1/batchnorm/sub", "op": "Const", "attr": {"value": {"tensor": {"dtype": "DT_FLOAT", "tensorShape": {"dim": [{"size": "96"}]}}}, "dtype": {"type": "DT_FLOAT"}}}, {"name": "StatefulPartitionedCall/food_classifier_inference_1/mobilenetv2_0.35_224_1/block_6_pad_1/Const", "op": "Const", "attr": {"value": {"tensor": {"dtype": "DT_INT32", "tensorShape": {"dim": [{"size": "4"}, {"size": "2"}]}}}, "dtype": {"type": "DT_INT32"}}}, {"name": "StatefulPartitionedCall/food_classifier_inference_1/mobilenetv2_0.35_224_1/block_6_depthwise_1/depthwise/ReadVariableOp", "op": "Const", "attr": {"value": {"tensor": {"dtype": "DT_FLOAT", "tensorShape": {"dim": [{"size": "3"}, {"size": "3"}, {"size": "96"}, {"size": "1"}]}}}, "dtype": {"type": "DT_FLOAT"}}}, {"name": "StatefulPartitionedCall/food_classifier_inference_1/mobilenetv2_0.35_224_1/block_6_depthwise_BN_1/batchnorm/mul", "op": "Const", "attr": {"value": {"tensor": {"dtype": "DT_FLOAT", "tensorShape": {"dim": [{"size": "96"}]}}}, "dtype": {"type": "DT_FLOAT"}}}, {"name": "StatefulPartitionedCall/food_classifier_inference_1/mobilenetv2_0.35_224_1/block_6_depthwise_BN_1/batchnorm/sub", "op": "Const", "attr": {"value": {"tensor": {"dtype": "DT_FLOAT", "tensorShape": {"dim": [{"size": "96"}]}}}, "dtype": {"type": "DT_FLOAT"}}}, {"name": "StatefulPartitionedCall/food_classifier_inference_1/mobilenetv2_0.35_224_1/block_6_project_1/convolution/merged_input", "op": "Const", "attr": {"value": {"tensor": {"dtype": "DT_FLOAT", "tensorShape": {"dim": [{"size": "1"}, {"size": "1"}, {"size": "96"}, {"size": "24"}]}}}, "dtype": {"type": "DT_FLOAT"}}}, {"name": "StatefulPartitionedCall/food_classifier_inference_1/mobilenetv2_0.35_224_1/block_6_project_BN_1/batchnorm/sub", "op": "Const", "attr": {"value": {"tensor": {"dtype": "DT_FLOAT", "tensorShape": {"dim": [{"size": "24"}]}}}, "dtype": {"type": "DT_FLOAT"}}}, {"name": "StatefulPartitionedCall/food_classifier_inference_1/mobilenetv2_0.35_224_1/block_7_expand_1/convolution/merged_input", "op": "Const", "attr": {"value": {"tensor": {"dtype": "DT_FLOAT", "tensorShape": {"dim": [{"size": "1"}, {"size": "1"}, {"size": "24"}, {"size": "144"}]}}}, "dtype": {"type": "DT_FLOAT"}}}, {"name": "StatefulPartitionedCall/food_classifier_inference_1/mobilenetv2_0.35_224_1/block_7_expand_BN_1/batchnorm/sub", "op": "Const", "attr": {"value": {"tensor": {"dtype": "DT_FLOAT", "tensorShape": {"dim": [{"size": "144"}]}}}, "dtype": {"type": "DT_FLOAT"}}}, {"name": "StatefulPartitionedCall/food_classifier_inference_1/mobilenetv2_0.35_224_1/block_7_depthwise_1/depthwise/ReadVariableOp", "op": "Const", "attr": {"value": {"tensor": {"dtype": "DT_FLOAT", "tensorShape": {"dim": [{"size": "3"}, {"size": "3"}, {"size": "144"}, {"size": "1"}]}}}, "dtype": {"type": "DT_FLOAT"}}}, {"name": "StatefulPartitionedCall/food_classifier_inference_1/mobilenetv2_0.35_224_1/block_7_depthwise_BN_1/batchnorm/mul", "op": "Const", "attr": {"value": {"tensor": {"dtype": "DT_FLOAT", "tensorShape": {"dim": [{"size": "144"}]}}}, "dtype": {"type": "DT_FLOAT"}}}, {"name": "StatefulPartitionedCall/food_classifier_inference_1/mobilenetv2_0.35_224_1/block_7_depthwise_BN_1/batchnorm/sub", "op": "Const", "attr": {"value": {"tensor": {"dtype": "DT_FLOAT", "tensorShape": {"dim": [{"size": "144"}]}}}, "dtype": {"type": "DT_FLOAT"}}}, {"name": "StatefulPartitionedCall/food_classifier_inference_1/mobilenetv2_0.35_224_1/block_7_project_1/convolution/merged_input", "op": "Const", "attr": {"value": {"tensor": {"dtype": "DT_FLOAT", "tensorShape": {"dim": [{"size": "1"}, {"size": "1"}, {"size": "144"}, {"size": "24"}]}}}, "dtype": {"type": "DT_FLOAT"}}}, {"name": "StatefulPartitionedCall/food_classifier_inference_1/mobilenetv2_0.35_224_1/block_8_expand_1/convolution/merged_input", "op": "Const", "attr": {"value": {"tensor": {"dtype": "DT_FLOAT", "tensorShape": {"dim": [{"size": "1"}, {"size": "1"}, {"size": "24"}, {"size": "144"}]}}}, "dtype": {"type": "DT_FLOAT"}}}, {"name": "StatefulPartitionedCall/food_classifier_inference_1/mobilenetv2_0.35_224_1/block_8_expand_BN_1/batchnorm/sub", "op": "Const", "attr": {"value": {"tensor": {"dtype": "DT_FLOAT", "tensorShape": {"dim": [{"size": "144"}]}}}, "dtype": {"type": "DT_FLOAT"}}}, {"name": "StatefulPartitionedCall/food_classifier_inference_1/mobilenetv2_0.35_224_1/block_8_depthwise_1/depthwise/ReadVariableOp", "op": "Const", "attr": {"value": {"tensor": {"dtype": "DT_FLOAT", "tensorShape": {"dim": [{"size": "3"}, {"size": "3"}, {"size": "144"}, {"size": "1"}]}}}, "dtype": {"type": "DT_FLOAT"}}}, {"name": "StatefulPartitionedCall/food_classifier_inference_1/mobilenetv2_0.35_224_1/block_8_depthwise_BN_1/batchnorm/mul", "op": "Const", "attr": {"value": {"tensor": {"dtype": "DT_FLOAT", "tensorShape": {"dim": [{"size": "144"}]}}}, "dtype": {"type": "DT_FLOAT"}}}, {"name": "StatefulPartitionedCall/food_classifier_inference_1/mobilenetv2_0.35_224_1/block_8_depthwise_BN_1/batchnorm/sub", "op": "Const", "attr": {"value": {"tensor": {"dtype": "DT_FLOAT", "tensorShape": {"dim": [{"size": "144"}]}}}, "dtype": {"type": "DT_FLOAT"}}}, {"name": "StatefulPartitionedCall/food_classifier_inference_1/mobilenetv2_0.35_224_1/block_8_project_1/convolution/merged_input", "op": "Const", "attr": {"value": {"tensor": {"dtype": "DT_FLOAT", "tensorShape": {"dim": [{"size": "1"}, {"size": "1"}, {"size": "144"}, {"size": "24"}]}}}, "dtype": {"type": "DT_FLOAT"}}}, {"name": "StatefulPartitionedCall/food_classifier_inference_1/mobilenetv2_0.35_224_1/block_9_expand_1/convolution/merged_input", "op": "Const", "attr": {"value": {"tensor": {"dtype": "DT_FLOAT", "tensorShape": {"dim": [{"size": "1"}, {"size": "1"}, {"size": "24"}, {"size": "144"}]}}}, "dtype": {"type": "DT_FLOAT"}}}, {"name": "StatefulPartitionedCall/food_classifier_inference_1/mobilenetv2_0.35_224_1/block_9_expand_BN_1/batchnorm/sub", "op": "Const", "attr": {"value": {"tensor": {"dtype": "DT_FLOAT", "tensorShape": {"dim": [{"size": "144"}]}}}, "dtype": {"type": "DT_FLOAT"}}}, {"name": "StatefulPartitionedCall/food_classifier_inference_1/mobilenetv2_0.35_224_1/block_9_depthwise_1/depthwise/ReadVariableOp", "op": "Const", "attr": {"value": {"tensor": {"dtype": "DT_FLOAT", "tensorShape": {"dim": [{"size": "3"}, {"size": "3"}, {"size": "144"}, {"size": "1"}]}}}, "dtype": {"type": "DT_FLOAT"}}}, {"name": "StatefulPartitionedCall/food_classifier_inference_1/mobilenetv2_0.35_224_1/block_9_depthwise_BN_1/batchnorm/mul", "op": "Const", "attr": {"value": {"tensor": {"dtype": "DT_FLOAT", "tensorShape": {"dim": [{"size": "144"}]}}}, "dtype": {"type": "DT_FLOAT"}}}, {"name": "StatefulPartitionedCall/food_classifier_inference_1/mobilenetv2_0.35_224_1/block_9_depthwise_BN_1/batchnorm/sub", "op": "Const", "attr": {"value": {"tensor": {"dtype": "DT_FLOAT", "tensorShape": {"dim": [{"size": "144"}]}}}, "dtype": {"type": "DT_FLOAT"}}}, {"name": "StatefulPartitionedCall/food_classifier_inference_1/mobilenetv2_0.35_224_1/block_9_project_1/convolution/merged_input", "op": "Const", "attr": {"value": {"tensor": {"dtype": "DT_FLOAT", "tensorShape": {"dim": [{"size": "1"}, {"size": "1"}, {"size": "144"}, {"size": "24"}]}}}, "dtype": {"type": "DT_FLOAT"}}}, {"name": "StatefulPartitionedCall/food_classifier_inference_1/mobilenetv2_0.35_224_1/block_10_expand_1/convolution/merged_input", "op": "Const", "attr": {"value": {"tensor": {"dtype": "DT_FLOAT", "tensorShape": {"dim": [{"size": "1"}, {"size": "1"}, {"size": "24"}, {"size": "144"}]}}}, "dtype": {"type": "DT_FLOAT"}}}, {"name": "StatefulPartitionedCall/food_classifier_inference_1/mobilenetv2_0.35_224_1/block_10_expand_BN_1/batchnorm/sub", "op": "Const", "attr": {"value": {"tensor": {"dtype": "DT_FLOAT", "tensorShape": {"dim": [{"size": "144"}]}}}, "dtype": {"type": "DT_FLOAT"}}}, {"name": "StatefulPartitionedCall/food_classifier_inference_1/mobilenetv2_0.35_224_1/block_10_depthwise_1/depthwise/ReadVariableOp", "op": "Const", "attr": {"value": {"tensor": {"dtype": "DT_FLOAT", "tensorShape": {"dim": [{"size": "3"}, {"size": "3"}, {"size": "144"}, {"size": "1"}]}}}, "dtype": {"type": "DT_FLOAT"}}}, {"name": "StatefulPartitionedCall/food_classifier_inference_1/mobilenetv2_0.35_224_1/block_10_depthwise_BN_1/batchnorm/mul", "op": "Const", "attr": {"value": {"tensor": {"dtype": "DT_FLOAT", "tensorShape": {"dim": [{"size": "144"}]}}}, "dtype": {"type": "DT_FLOAT"}}}, {"name": "StatefulPartitionedCall/food_classifier_inference_1/mobilenetv2_0.35_224_1/block_10_depthwise_BN_1/batchnorm/sub", "op": "Const", "attr": {"value": {"tensor": {"dtype": "DT_FLOAT", "tensorShape": {"dim": [{"size": "144"}]}}}, "dtype": {"type": "DT_FLOAT"}}}, {"name": "StatefulPartitionedCall/food_classifier_inference_1/mobilenetv2_0.35_224_1/block_10_project_1/convolution/merged_input", "op": "Const", "attr": {"value": {"tensor": {"dtype": "DT_FLOAT", "tensorShape": {"dim": [{"size": "1"}, {"size": "1"}, {"size": "144"}, {"size": "32"}]}}}, "dtype": {"type": "DT_FLOAT"}}}, {"name": "StatefulPartitionedCall/food_classifier_inference_1/mobilenetv2_0.35_224_1/block_10_project_BN_1/batchnorm/sub", "op": "Const", "attr": {"value": {"tensor": {"dtype": "DT_FLOAT", "tensorShape": {"dim": [{"size": "32"}]}}}, "dtype": {"type": "DT_FLOAT"}}}, {"name": "StatefulPartitionedCall/food_classifier_inference_1/mobilenetv2_0.35_224_1/block_11_expand_1/convolution/merged_input", "op": "Const", "attr": {"value": {"tensor": {"dtype": "DT_FLOAT", "tensorShape": {"dim": [{"size": "1"}, {"size": "1"}, {"size": "32"}, {"size": "192"}]}}}, "dtype": {"type": "DT_FLOAT"}}}, {"name": "StatefulPartitionedCall/food_classifier_inference_1/mobilenetv2_0.35_224_1/block_11_expand_BN_1/batchnorm/sub", "op": "Const", "attr": {"value": {"tensor": {"dtype": "DT_FLOAT", "tensorShape": {"dim": [{"size": "192"}]}}}, "dtype": {"type": "DT_FLOAT"}}}, {"name": "StatefulPartitionedCall/food_classifier_inference_1/mobilenetv2_0.35_224_1/block_11_depthwise_1/depthwise/ReadVariableOp", "op": "Const", "attr": {"value": {"tensor": {"dtype": "DT_FLOAT", "tensorShape": {"dim": [{"size": "3"}, {"size": "3"}, {"size": "192"}, {"size": "1"}]}}}, "dtype": {"type": "DT_FLOAT"}}}, {"name": "StatefulPartitionedCall/food_classifier_inference_1/mobilenetv2_0.35_224_1/block_11_depthwise_BN_1/batchnorm/mul", "op": "Const", "attr": {"value": {"tensor": {"dtype": "DT_FLOAT", "tensorShape": {"dim": [{"size": "192"}]}}}, "dtype": {"type": "DT_FLOAT"}}}, {"name": "StatefulPartitionedCall/food_classifier_inference_1/mobilenetv2_0.35_224_1/block_11_depthwise_BN_1/batchnorm/sub", "op": "Const", "attr": {"value": {"tensor": {"dtype": "DT_FLOAT", "tensorShape": {"dim": [{"size": "192"}]}}}, "dtype": {"type": "DT_FLOAT"}}}, {"name": "StatefulPartitionedCall/food_classifier_inference_1/mobilenetv2_0.35_224_1/block_11_project_1/convolution/merged_input", "op": "Const", "attr": {"value": {"tensor": {"dtype": "DT_FLOAT", "tensorShape": {"dim": [{"size": "1"}, {"size": "1"}, {"size": "192"}, {"size": "32"}]}}}, "dtype": {"type": "DT_FLOAT"}}}, {"name": "StatefulPartitionedCall/food_classifier_inference_1/mobilenetv2_0.35_224_1/block_12_expand_1/convolution/merged_input", "op": "Const", "attr": {"value": {"tensor": {"dtype": "DT_FLOAT", "tensorShape": {"dim": [{"size": "1"}, {"size": "1"}, {"size": "32"}, {"size": "192"}]}}}, "dtype": {"type": "DT_FLOAT"}}}, {"name": "StatefulPartitionedCall/food_classifier_inference_1/mobilenetv2_0.35_224_1/block_12_expand_BN_1/batchnorm/sub", "op": "Const", "attr": {"value": {"tensor": {"dtype": "DT_FLOAT", "tensorShape": {"dim": [{"size": "192"}]}}}, "dtype": {"type": "DT_FLOAT"}}}, {"name": "StatefulPartitionedCall/food_classifier_inference_1/mobilenetv2_0.35_224_1/block_12_depthwise_1/depthwise/ReadVariableOp", "op": "Const", "attr": {"value": {"tensor": {"dtype": "DT_FLOAT", "tensorShape": {"dim": [{"size": "3"}, {"size": "3"}, {"size": "192"}, {"size": "1"}]}}}, "dtype": {"type": "DT_FLOAT"}}}, {"name": "StatefulPartitionedCall/food_classifier_inference_1/mobilenetv2_0.35_224_1/block_12_depthwise_BN_1/batchnorm/mul", "op": "Const", "attr": {"value": {"tensor": {"dtype": "DT_FLOAT", "tensorShape": {"dim": [{"size": "192"}]}}}, "dtype": {"type": "DT_FLOAT"}}}, {"name": "StatefulPartitionedCall/food_classifier_inference_1/mobilenetv2_0.35_224_1/block_12_depthwise_BN_1/batchnorm/sub", "op": "Const", "attr": {"value": {"tensor": {"dtype": "DT_FLOAT", "tensorShape": {"dim": [{"size": "192"}]}}}, "dtype": {"type": "DT_FLOAT"}}}, {"name": "StatefulPartitionedCall/food_classifier_inference_1/mobilenetv2_0.35_224_1/block_12_project_1/convolution/merged_input", "op": "Const", "attr": {"value": {"tensor": {"dtype": "DT_FLOAT", "tensorShape": {"dim": [{"size": "1"}, {"size": "1"}, {"size": "192"}, {"size": "32"}]}}}, "dtype": {"type": "DT_FLOAT"}}}, {"name": "StatefulPartitionedCall/food_classifier_inference_1/mobilenetv2_0.35_224_1/block_13_expand_1/convolution/merged_input", "op": "Const", "attr": {"value": {"tensor": {"dtype": "DT_FLOAT", "tensorShape": {"dim": [{"size": "1"}, {"size": "1"}, {"size": "32"}, {"size": "192"}]}}}, "dtype": {"type": "DT_FLOAT"}}}, {"name": "StatefulPartitionedCall/food_classifier_inference_1/mobilenetv2_0.35_224_1/block_13_expand_BN_1/batchnorm/sub", "op": "Const", "attr": {"value": {"tensor": {"dtype": "DT_FLOAT", "tensorShape": {"dim": [{"size": "192"}]}}}, "dtype": {"type": "DT_FLOAT"}}}, {"name": "StatefulPartitionedCall/food_classifier_inference_1/mobilenetv2_0.35_224_1/block_13_pad_1/Const", "op": "Const", "attr": {"value": {"tensor": {"dtype": "DT_INT32", "tensorShape": {"dim": [{"size": "4"}, {"size": "2"}]}}}, "dtype": {"type": "DT_INT32"}}}, {"name": "StatefulPartitionedCall/food_classifier_inference_1/mobilenetv2_0.35_224_1/block_13_depthwise_1/depthwise/ReadVariableOp", "op": "Const", "attr": {"value": {"tensor": {"dtype": "DT_FLOAT", "tensorShape": {"dim": [{"size": "3"}, {"size": "3"}, {"size": "192"}, {"size": "1"}]}}}, "dtype": {"type": "DT_FLOAT"}}}, {"name": "StatefulPartitionedCall/food_classifier_inference_1/mobilenetv2_0.35_224_1/block_13_depthwise_BN_1/batchnorm/mul", "op": "Const", "attr": {"value": {"tensor": {"dtype": "DT_FLOAT", "tensorShape": {"dim": [{"size": "192"}]}}}, "dtype": {"type": "DT_FLOAT"}}}, {"name": "StatefulPartitionedCall/food_classifier_inference_1/mobilenetv2_0.35_224_1/block_13_depthwise_BN_1/batchnorm/sub", "op": "Const", "attr": {"value": {"tensor": {"dtype": "DT_FLOAT", "tensorShape": {"dim": [{"size": "192"}]}}}, "dtype": {"type": "DT_FLOAT"}}}, {"name": "StatefulPartitionedCall/food_classifier_inference_1/mobilenetv2_0.35_224_1/block_13_project_1/convolution/merged_input", "op": "Const", "attr": {"value": {"tensor": {"dtype": "DT_FLOAT", "tensorShape": {"dim": [{"size": "1"}, {"size": "1"}, {"size": "192"}, {"size": "56"}]}}}, "dtype": {"type": "DT_FLOAT"}}}, {"name": "StatefulPartitionedCall/food_classifier_inference_1/mobilenetv2_0.35_224_1/block_13_project_BN_1/batchnorm/sub", "op": "Const", "attr": {"value": {"tensor": {"dtype": "DT_FLOAT", "tensorShape": {"dim": [{"size": "56"}]}}}, "dtype": {"type": "DT_FLOAT"}}}, {"name": "StatefulPartitionedCall/food_classifier_inference_1/mobilenetv2_0.35_224_1/block_14_expand_1/convolution/merged_input", "op": "Const", "attr": {"value": {"tensor": {"dtype": "DT_FLOAT", "tensorShape": {"dim": [{"size": "1"}, {"size": "1"}, {"size": "56"}, {"size": "336"}]}}}, "dtype": {"type": "DT_FLOAT"}}}, {"name": "StatefulPartitionedCall/food_classifier_inference_1/mobilenetv2_0.35_224_1/block_14_expand_BN_1/batchnorm/sub", "op": "Const", "attr": {"value": {"tensor": {"dtype": "DT_FLOAT", "tensorShape": {"dim": [{"size": "336"}]}}}, "dtype": {"type": "DT_FLOAT"}}}, {"name": "StatefulPartitionedCall/food_classifier_inference_1/mobilenetv2_0.35_224_1/block_14_depthwise_1/depthwise/ReadVariableOp", "op": "Const", "attr": {"value": {"tensor": {"dtype": "DT_FLOAT", "tensorShape": {"dim": [{"size": "3"}, {"size": "3"}, {"size": "336"}, {"size": "1"}]}}}, "dtype": {"type": "DT_FLOAT"}}}, {"name": "StatefulPartitionedCall/food_classifier_inference_1/mobilenetv2_0.35_224_1/block_14_depthwise_BN_1/batchnorm/mul", "op": "Const", "attr": {"value": {"tensor": {"dtype": "DT_FLOAT", "tensorShape": {"dim": [{"size": "336"}]}}}, "dtype": {"type": "DT_FLOAT"}}}, {"name": "StatefulPartitionedCall/food_classifier_inference_1/mobilenetv2_0.35_224_1/block_14_depthwise_BN_1/batchnorm/sub", "op": "Const", "attr": {"value": {"tensor": {"dtype": "DT_FLOAT", "tensorShape": {"dim": [{"size": "336"}]}}}, "dtype": {"type": "DT_FLOAT"}}}, {"name": "StatefulPartitionedCall/food_classifier_inference_1/mobilenetv2_0.35_224_1/block_14_project_1/convolution/merged_input", "op": "Const", "attr": {"value": {"tensor": {"dtype": "DT_FLOAT", "tensorShape": {"dim": [{"size": "1"}, {"size": "1"}, {"size": "336"}, {"size": "56"}]}}}, "dtype": {"type": "DT_FLOAT"}}}, {"name": "StatefulPartitionedCall/food_classifier_inference_1/mobilenetv2_0.35_224_1/block_15_expand_1/convolution/merged_input", "op": "Const", "attr": {"value": {"tensor": {"dtype": "DT_FLOAT", "tensorShape": {"dim": [{"size": "1"}, {"size": "1"}, {"size": "56"}, {"size": "336"}]}}}, "dtype": {"type": "DT_FLOAT"}}}, {"name": "StatefulPartitionedCall/food_classifier_inference_1/mobilenetv2_0.35_224_1/block_15_expand_BN_1/batchnorm/sub", "op": "Const", "attr": {"value": {"tensor": {"dtype": "DT_FLOAT", "tensorShape": {"dim": [{"size": "336"}]}}}, "dtype": {"type": "DT_FLOAT"}}}, {"name": "StatefulPartitionedCall/food_classifier_inference_1/mobilenetv2_0.35_224_1/block_15_depthwise_1/depthwise/ReadVariableOp", "op": "Const", "attr": {"value": {"tensor": {"dtype": "DT_FLOAT", "tensorShape": {"dim": [{"size": "3"}, {"size": "3"}, {"size": "336"}, {"size": "1"}]}}}, "dtype": {"type": "DT_FLOAT"}}}, {"name": "StatefulPartitionedCall/food_classifier_inference_1/mobilenetv2_0.35_224_1/block_15_depthwise_BN_1/batchnorm/mul", "op": "Const", "attr": {"value": {"tensor": {"dtype": "DT_FLOAT", "tensorShape": {"dim": [{"size": "336"}]}}}, "dtype": {"type": "DT_FLOAT"}}}, {"name": "StatefulPartitionedCall/food_classifier_inference_1/mobilenetv2_0.35_224_1/block_15_depthwise_BN_1/batchnorm/sub", "op": "Const", "attr": {"value": {"tensor": {"dtype": "DT_FLOAT", "tensorShape": {"dim": [{"size": "336"}]}}}, "dtype": {"type": "DT_FLOAT"}}}, {"name": "StatefulPartitionedCall/food_classifier_inference_1/mobilenetv2_0.35_224_1/block_15_project_1/convolution/merged_input", "op": "Const", "attr": {"value": {"tensor": {"dtype": "DT_FLOAT", "tensorShape": {"dim": [{"size": "1"}, {"size": "1"}, {"size": "336"}, {"size": "56"}]}}}, "dtype": {"type": "DT_FLOAT"}}}, {"name": "StatefulPartitionedCall/food_classifier_inference_1/mobilenetv2_0.35_224_1/block_16_expand_1/convolution/merged_input", "op": "Const", "attr": {"value": {"tensor": {"dtype": "DT_FLOAT", "tensorShape": {"dim": [{"size": "1"}, {"size": "1"}, {"size": "56"}, {"size": "336"}]}}}, "dtype": {"type": "DT_FLOAT"}}}, {"name": "StatefulPartitionedCall/food_classifier_inference_1/mobilenetv2_0.35_224_1/block_16_expand_BN_1/batchnorm/sub", "op": "Const", "attr": {"value": {"tensor": {"dtype": "DT_FLOAT", "tensorShape": {"dim": [{"size": "336"}]}}}, "dtype": {"type": "DT_FLOAT"}}}, {"name": "StatefulPartitionedCall/food_classifier_inference_1/mobilenetv2_0.35_224_1/block_16_depthwise_1/depthwise/ReadVariableOp", "op": "Const", "attr": {"value": {"tensor": {"dtype": "DT_FLOAT", "tensorShape": {"dim": [{"size": "3"}, {"size": "3"}, {"size": "336"}, {"size": "1"}]}}}, "dtype": {"type": "DT_FLOAT"}}}, {"name": "StatefulPartitionedCall/food_classifier_inference_1/mobilenetv2_0.35_224_1/block_16_depthwise_BN_1/batchnorm/mul", "op": "Const", "attr": {"value": {"tensor": {"dtype": "DT_FLOAT", "tensorShape": {"dim": [{"size": "336"}]}}}, "dtype": {"type": "DT_FLOAT"}}}, {"name": "StatefulPartitionedCall/food_classifier_inference_1/mobilenetv2_0.35_224_1/block_16_depthwise_BN_1/batchnorm/sub", "op": "Const", "attr": {"value": {"tensor": {"dtype": "DT_FLOAT", "tensorShape": {"dim": [{"size": "336"}]}}}, "dtype": {"type": "DT_FLOAT"}}}, {"name": "StatefulPartitionedCall/food_classifier_inference_1/mobilenetv2_0.35_224_1/block_16_project_1/convolution/merged_input", "op": "Const", "attr": {"value": {"tensor": {"dtype": "DT_FLOAT", "tensorShape": {"dim": [{"size": "1"}, {"size": "1"}, {"size": "336"}, {"size": "112"}]}}}, "dtype": {"type": "DT_FLOAT"}}}, {"name": "StatefulPartitionedCall/food_classifier_inference_1/mobilenetv2_0.35_224_1/block_16_project_BN_1/batchnorm/sub", "op": "Const", "attr": {"value": {"tensor": {"dtype": "DT_FLOAT", "tensorShape": {"dim": [{"size": "112"}]}}}, "dtype": {"type": "DT_FLOAT"}}}, {"name": "StatefulPartitionedCall/food_classifier_inference_1/mobilenetv2_0.35_224_1/Conv_1_1/convolution/merged_input", "op": "Const", "attr": {"value": {"tensor": {"dtype": "DT_FLOAT", "tensorShape": {"dim": [{"size": "1"}, {"size": "1"}, {"size": "112"}, {"size": "1280"}]}}}, "dtype": {"type": "DT_FLOAT"}}}, {"name": "StatefulPartitionedCall/food_classifier_inference_1/mobilenetv2_0.35_224_1/Conv_1_bn_1/batchnorm/sub", "op": "Const", "attr": {"value": {"tensor": {"dtype": "DT_FLOAT", "tensorShape": {"dim": [{"size": "1280"}]}}}, "dtype": {"type": "DT_FLOAT"}}}, {"name": "StatefulPartitionedCall/food_classifier_inference_1/avg_pool_1/Mean/reduction_indices", "op": "Const", "attr": {"value": {"tensor": {"dtype": "DT_INT32", "tensorShape": {"dim": [{"size": "2"}]}}}, "dtype": {"type": "DT_INT32"}}}, {"name": "StatefulPartitionedCall/food_classifier_inference_1/batch_normalization_1/batchnorm/mul", "op": "Const", "attr": {"value": {"tensor": {"dtype": "DT_FLOAT", "tensorShape": {"dim": [{"size": "1280"}]}}}, "dtype": {"type": "DT_FLOAT"}}}, {"name": "StatefulPartitionedCall/food_classifier_inference_1/batch_normalization_1/batchnorm/sub", "op": "Const", "attr": {"value": {"tensor": {"dtype": "DT_FLOAT", "tensorShape": {"dim": [{"size": "1280"}]}}}, "dtype": {"type": "DT_FLOAT"}}}, {"name": "StatefulPartitionedCall/food_classifier_inference_1/dense_1/Cast/ReadVariableOp", "op": "Const", "attr": {"value": {"tensor": {"dtype": "DT_FLOAT", "tensorShape": {"dim": [{"size": "1280"}, {"size": "9"}]}}}, "dtype": {"type": "DT_FLOAT"}}}, {"name": "StatefulPartitionedCall/food_classifier_inference_1/dense_1/BiasAdd/ReadVariableOp", "op": "Const", "attr": {"value": {"tensor": {"dtype": "DT_FLOAT", "tensorShape": {"dim": [{"size": "9"}]}}}, "dtype": {"type": "DT_FLOAT"}}}, {"name": "input_layer_1", "op": "Placeholder", "attr": {"shape": {"shape": {"dim": [{"size": "-1"}, {"size": "224"}, {"size": "224"}, {"size": "3"}]}}, "dtype": {"type": "DT_FLOAT"}}}, {"name": "StatefulPartitionedCall/food_classifier_inference_1/backbone_preprocess_1/truediv", "op": "Mul", "input": ["input_layer_1", "ConstantFolding/StatefulPartitionedCall/food_classifier_inference_1/backbone_preprocess_1/truediv_recip"], "attr": {"T": {"type": "DT_FLOAT"}}}, {"name": "StatefulPartitionedCall/food_classifier_inference_1/backbone_preprocess_1/sub", "op": "Sub", "input": ["StatefulPartitionedCall/food_classifier_inference_1/backbone_preprocess_1/truediv", "StatefulPartitionedCall/food_classifier_inference_1/backbone_preprocess_1/sub/y"], "attr": {"T": {"type": "DT_FLOAT"}}}, {"name": "StatefulPartitionedCall/food_classifier_inference_1/mobilenetv2_0.35_224_1/Conv1_relu_1/Relu6", "op": "_FusedConv2D", "input": ["StatefulPartitionedCall/food_classifier_inference_1/backbone_preprocess_1/sub", "StatefulPartitionedCall/food_classifier_inference_1/mobilenetv2_0.35_224_1/Conv1_1/convolution/merged_input", "StatefulPartitionedCall/food_classifier_inference_1/mobilenetv2_0.35_224_1/bn_Conv1_1/batchnorm/sub"], "device": "/device:CPU:0", "attr": {"num_host_args": {"i": "0"}, "data_format": {"s": "TkhXQw=="}, "filter_format": {"s": "SFdJTw=="}, "fused_ops": {"list": {"s": ["Qmlhc0FkZA==", "UmVsdTY="]}}, "num_args": {"i": "1"}, "strides": {"list": {"i": ["1", "2", "2", "1"]}}, "TArgs": {"list": {"type": ["DT_FLOAT"]}}, "padding": {"s": "U0FNRQ=="}, "use_cudnn_on_gpu": {"b": true}, "leakyrelu_alpha": {"f": 0.2}, "epsilon": {"f": 0.0}, "T": {"type": "DT_FLOAT"}, "explicit_paddings": {"list": {}}, "dilations": {"list": {"i": ["1", "1", "1", "1"]}}}}, {"name": "StatefulPartitionedCall/food_classifier_inference_1/mobilenetv2_0.35_224_1/expanded_conv_depthwise_1/depthwise", "op": "DepthwiseConv2dNative", "input": ["StatefulPartitionedCall/food_classifier_inference_1/mobilenetv2_0.35_224_1/Conv1_relu_1/Relu6", "StatefulPartitionedCall/food_classifier_inference_1/mobilenetv2_0.35_224_1/expanded_conv_depthwise_1/depthwise/ReadVariableOp"], "attr": {"padding": {"s": "U0FNRQ=="}, "data_format": {"s": "TkhXQw=="}, "T": {"type": "DT_FLOAT"}, "explicit_paddings": {"list": {}}, "dilations": {"list": {"i": ["1", "1", "1", "1"]}}, "strides": {"list": {"i": ["1", "1", "1", "1"]}}}}, {"name": "StatefulPartitionedCall/food_classifier_inference_1/mobilenetv2_0.35_224_1/expanded_conv_depthwise_BN_1/batchnorm/mul_1", "op": "Mul", "input": ["StatefulPartitionedCall/food_classifier_inference_1/mobilenetv2_0.35_224_1/expanded_conv_depthwise_1/depthwise", "StatefulPartitionedCall/food_classifier_inference_1/mobilenetv2_0.35_224_1/expanded_conv_depthwise_BN_1/batchnorm/mul"], "attr": {"T": {"type": "DT_FLOAT"}}}, {"name": "StatefulPartitionedCall/food_classifier_inference_1/mobilenetv2_0.35_224_1/expanded_conv_depthwise_BN_1/batchnorm/add_1", "op": "AddV2", "input": ["StatefulPartitionedCall/food_classifier_inference_1/mobilenetv2_0.35_224_1/expanded_conv_depthwise_BN_1/batchnorm/mul_1", "StatefulPartitionedCall/food_classifier_inference_1/mobilenetv2_0.35_224_1/expanded_conv_depthwise_BN_1/batchnorm/sub"], "attr": {"T": {"type": "DT_FLOAT"}}}, {"name": "StatefulPartitionedCall/food_classifier_inference_1/mobilenetv2_0.35_224_1/expanded_conv_depthwise_relu_1/Relu6", "op": "Relu6", "input": ["StatefulPartitionedCall/food_classifier_inference_1/mobilenetv2_0.35_224_1/expanded_conv_depthwise_BN_1/batchnorm/add_1"], "attr": {"T": {"type": "DT_FLOAT"}}}, {"name": "StatefulPartitionedCall/food_classifier_inference_1/mobilenetv2_0.35_224_1/expanded_conv_project_BN_1/batchnorm/add_1", "op": "_FusedConv2D", "input": ["StatefulPartitionedCall/food_classifier_inference_1/mobilenetv2_0.35_224_1/expanded_conv_depthwise_relu_1/Relu6", "StatefulPartitionedCall/food_classifier_inference_1/mobilenetv2_0.35_224_1/expanded_conv_project_1/convolution/merged_input", "StatefulPartitionedCall/food_classifier_inference_1/mobilenetv2_0.35_224_1/expanded_conv_project_BN_1/batchnorm/sub"], "device": "/device:CPU:0", "attr": {"num_host_args": {"i": "0"}, "data_format": {"s": "TkhXQw=="}, "filter_format": {"s": "SFdJTw=="}, "fused_ops": {"list": {"s": ["Qmlhc0FkZA=="]}}, "num_args": {"i": "1"}, "strides": {"list": {"i": ["1", "1", "1", "1"]}}, "TArgs": {"list": {"type": ["DT_FLOAT"]}}, "padding": {"s": "U0FNRQ=="}, "use_cudnn_on_gpu": {"b": true}, "leakyrelu_alpha": {"f": 0.2}, "epsilon": {"f": 0.0}, "T": {"type": "DT_FLOAT"}, "explicit_paddings": {"list": {}}, "dilations": {"list": {"i": ["1", "1", "1", "1"]}}}}, {"name": "StatefulPartitionedCall/food_classifier_inference_1/mobilenetv2_0.35_224_1/block_1_expand_relu_1/Relu6", "op": "_FusedConv2D", "input": ["StatefulPartitionedCall/food_classifier_inference_1/mobilenetv2_0.35_224_1/expanded_conv_project_BN_1/batchnorm/add_1", "StatefulPartitionedCall/food_classifier_inference_1/mobilenetv2_0.35_224_1/block_1_expand_1/convolution/merged_input", "StatefulPartitionedCall/food_classifier_inference_1/mobilenetv2_0.35_224_1/block_1_expand_BN_1/batchnorm/sub"], "device": "/device:CPU:0", "attr": {"num_host_args": {"i": "0"}, "data_format": {"s": "TkhXQw=="}, "filter_format": {"s": "SFdJTw=="}, "strides": {"list": {"i": ["1", "1", "1", "1"]}}, "num_args": {"i": "1"}, "fused_ops": {"list": {"s": ["Qmlhc0FkZA==", "UmVsdTY="]}}, "TArgs": {"list": {"type": ["DT_FLOAT"]}}, "padding": {"s": "U0FNRQ=="}, "use_cudnn_on_gpu": {"b": true}, "leakyrelu_alpha": {"f": 0.2}, "epsilon": {"f": 0.0}, "T": {"type": "DT_FLOAT"}, "explicit_paddings": {"list": {}}, "dilations": {"list": {"i": ["1", "1", "1", "1"]}}}}, {"name": "StatefulPartitionedCall/food_classifier_inference_1/mobilenetv2_0.35_224_1/block_1_pad_1/Pad", "op": "Pad", "input": ["StatefulPartitionedCall/food_classifier_inference_1/mobilenetv2_0.35_224_1/block_1_expand_relu_1/Relu6", "StatefulPartitionedCall/food_classifier_inference_1/mobilenetv2_0.35_224_1/block_1_pad_1/Const"], "attr": {"Tpaddings": {"type": "DT_INT32"}, "T": {"type": "DT_FLOAT"}}}, {"name": "StatefulPartitionedCall/food_classifier_inference_1/mobilenetv2_0.35_224_1/block_1_depthwise_1/depthwise", "op": "DepthwiseConv2dNative", "input": ["StatefulPartitionedCall/food_classifier_inference_1/mobilenetv2_0.35_224_1/block_1_pad_1/Pad", "StatefulPartitionedCall/food_classifier_inference_1/mobilenetv2_0.35_224_1/block_1_depthwise_1/depthwise/ReadVariableOp"], "attr": {"padding": {"s": "VkFMSUQ="}, "data_format": {"s": "TkhXQw=="}, "T": {"type": "DT_FLOAT"}, "explicit_paddings": {"list": {}}, "dilations": {"list": {"i": ["1", "1", "1", "1"]}}, "strides": {"list": {"i": ["1", "2", "2", "1"]}}}}, {"name": "StatefulPartitionedCall/food_classifier_inference_1/mobilenetv2_0.35_224_1/block_1_depthwise_BN_1/batchnorm/mul_1", "op": "Mul", "input": ["StatefulPartitionedCall/food_classifier_inference_1/mobilenetv2_0.35_224_1/block_1_depthwise_1/depthwise", "StatefulPartitionedCall/food_classifier_inference_1/mobilenetv2_0.35_224_1/block_1_depthwise_BN_1/batchnorm/mul"], "attr": {"T": {"type": "DT_FLOAT"}}}, {"name": "StatefulPartitionedCall/food_classifier_inference_1/mobilenetv2_0.35_224_1/block_1_depthwise_BN_1/batchnorm/add_1", "op": "AddV2", "input": ["StatefulPartitionedCall/food_classifier_inference_1/mobilenetv2_0.35_224_1/block_1_depthwise_BN_1/batchnorm/mul_1", "StatefulPartitionedCall/food_classifier_inference_1/mobilenetv2_0.35_224_1/block_1_depthwise_BN_1/batchnorm/sub"], "attr": {"T": {"type": "DT_FLOAT"}}}, {"name": "StatefulPartitionedCall/food_classifier_inference_1/mobilenetv2_0.35_224_1/block_1_depthwise_relu_1/Relu6", "op": "Relu6", "input": ["StatefulPartitionedCall/food_classifier_inference_1/mobilenetv2_0.35_224_1/block_1_depthwise_BN_1/batchnorm/add_1"], "attr": {"T": {"type": "DT_FLOAT"}}}, {"name": "StatefulPartitionedCall/food_classifier_inference_1/mobilenetv2_0.35_224_1/block_1_project_BN_1/batchnorm/add_1", "op": "_FusedConv2D", "input": ["StatefulPartitionedCall/food_classifier_inference_1/mobilenetv2_0.35_224_1/block_1_depthwise_relu_1/Relu6", "StatefulPartitionedCall/food_classifier_inference_1/mobilenetv2_0.35_224_1/block_1_project_1/convolution/merged_input", "StatefulPartitionedCall/food_classifier_inference_1/mobilenetv2_0.35_224_1/block_1_project_BN_1/batchnorm/sub"], "device": "/device:CPU:0", "attr": {"num_host_args": {"i": "0"}, "data_format": {"s": "TkhXQw=="}, "filter_format": {"s": "SFdJTw=="}, "fused_ops": {"list": {"s": ["Qmlhc0FkZA=="]}}, "num_args": {"i": "1"}, "strides": {"list": {"i": ["1", "1", "1", "1"]}}, "TArgs": {"list": {"type": ["DT_FLOAT"]}}, "padding": {"s": "U0FNRQ=="}, "use_cudnn_on_gpu": {"b": true}, "leakyrelu_alpha": {"f": 0.2}, "epsilon": {"f": 0.0}, "T": {"type": "DT_FLOAT"}, "explicit_paddings": {"list": {}}, "dilations": {"list": {"i": ["1", "1", "1", "1"]}}}}, {"name": "StatefulPartitionedCall/food_classifier_inference_1/mobilenetv2_0.35_224_1/block_2_expand_relu_1/Relu6", "op": "_FusedConv2D", "input": ["StatefulPartitionedCall/food_classifier_inference_1/mobilenetv2_0.35_224_1/block_1_project_BN_1/batchnorm/add_1", "StatefulPartitionedCall/food_classifier_inference_1/mobilenetv2_0.35_224_1/block_2_expand_1/convolution/merged_input", "StatefulPartitionedCall/food_classifier_inference_1/mobilenetv2_0.35_224_1/block_2_expand_BN_1/batchnorm/sub"], "device": "/device:CPU:0", "attr": {"num_host_args": {"i": "0"}, "data_format": {"s": "TkhXQw=="}, "filter_format": {"s": "SFdJTw=="}, "fused_ops": {"list": {"s": ["Qmlhc0FkZA==", "UmVsdTY="]}}, "num_args": {"i": "1"}, "strides": {"list": {"i": ["1", "1", "1", "1"]}}, "TArgs": {"list": {"type": ["DT_FLOAT"]}}, "padding": {"s": "U0FNRQ=="}, "use_cudnn_on_gpu": {"b": true}, "leakyrelu_alpha": {"f": 0.2}, "epsilon": {"f": 0.0}, "T": {"type": "DT_FLOAT"}, "explicit_paddings": {"list": {}}, "dilations": {"list": {"i": ["1", "1", "1", "1"]}}}}, {"name": "StatefulPartitionedCall/food_classifier_inference_1/mobilenetv2_0.35_224_1/block_2_depthwise_1/depthwise", "op": "DepthwiseConv2dNative", "input": ["StatefulPartitionedCall/food_classifier_inference_1/mobilenetv2_0.35_224_1/block_2_expand_relu_1/Relu6", "StatefulPartitionedCall/food_classifier_inference_1/mobilenetv2_0.35_224_1/block_2_depthwise_1/depthwise/ReadVariableOp"], "attr": {"padding": {"s": "U0FNRQ=="}, "data_format": {"s": "TkhXQw=="}, "T": {"type": "DT_FLOAT"}, "explicit_paddings": {"list": {}}, "dilations": {"list": {"i": ["1", "1", "1", "1"]}}, "strides": {"list": {"i": ["1", "1", "1", "1"]}}}}, {"name": "StatefulPartitionedCall/food_classifier_inference_1/mobilenetv2_0.35_224_1/block_2_depthwise_BN_1/batchnorm/mul_1", "op": "Mul", "input": ["StatefulPartitionedCall/food_classifier_inference_1/mobilenetv2_0.35_224_1/block_2_depthwise_1/depthwise", "StatefulPartitionedCall/food_classifier_inference_1/mobilenetv2_0.35_224_1/block_2_depthwise_BN_1/batchnorm/mul"], "attr": {"T": {"type": "DT_FLOAT"}}}, {"name": "StatefulPartitionedCall/food_classifier_inference_1/mobilenetv2_0.35_224_1/block_2_depthwise_BN_1/batchnorm/add_1", "op": "AddV2", "input": ["StatefulPartitionedCall/food_classifier_inference_1/mobilenetv2_0.35_224_1/block_2_depthwise_BN_1/batchnorm/mul_1", "StatefulPartitionedCall/food_classifier_inference_1/mobilenetv2_0.35_224_1/block_2_depthwise_BN_1/batchnorm/sub"], "attr": {"T": {"type": "DT_FLOAT"}}}, {"name": "StatefulPartitionedCall/food_classifier_inference_1/mobilenetv2_0.35_224_1/block_2_depthwise_relu_1/Relu6", "op": "Relu6", "input": ["StatefulPartitionedCall/food_classifier_inference_1/mobilenetv2_0.35_224_1/block_2_depthwise_BN_1/batchnorm/add_1"], "attr": {"T": {"type": "DT_FLOAT"}}}, {"name": "StatefulPartitionedCall/food_classifier_inference_1/mobilenetv2_0.35_224_1/block_2_project_BN_1/batchnorm/mul_1", "op": "Conv2D", "input": ["StatefulPartitionedCall/food_classifier_inference_1/mobilenetv2_0.35_224_1/block_2_depthwise_relu_1/Relu6", "StatefulPartitionedCall/food_classifier_inference_1/mobilenetv2_0.35_224_1/block_2_project_1/convolution/merged_input"], "device": "/device:CPU:0", "attr": {"padding": {"s": "U0FNRQ=="}, "data_format": {"s": "TkhXQw=="}, "use_cudnn_on_gpu": {"b": true}, "strides": {"list": {"i": ["1", "1", "1", "1"]}}, "T": {"type": "DT_FLOAT"}, "explicit_paddings": {"list": {}}, "dilations": {"list": {"i": ["1", "1", "1", "1"]}}}}, {"name": "StatefulPartitionedCall/food_classifier_inference_1/mobilenetv2_0.35_224_1/block_2_add_1/ArithmeticOptimizer/AddOpsRewrite_Leaf_1_Add", "op": "AddN", "input": ["StatefulPartitionedCall/food_classifier_inference_1/mobilenetv2_0.35_224_1/block_1_project_BN_1/batchnorm/add_1", "StatefulPartitionedCall/food_classifier_inference_1/mobilenetv2_0.35_224_1/block_2_project_BN_1/batchnorm/mul_1"], "attr": {"N": {"i": "2"}, "T": {"type": "DT_FLOAT"}, "_grappler_ArithmeticOptimizer_AddOpsRewriteStage": {"b": true}}}, {"name": "StatefulPartitionedCall/food_classifier_inference_1/mobilenetv2_0.35_224_1/block_2_add_1/ArithmeticOptimizer/AddOpsRewrite_Add", "op": "AddV2", "input": ["StatefulPartitionedCall/food_classifier_inference_1/mobilenetv2_0.35_224_1/block_2_project_BN_1/batchnorm/sub", "StatefulPartitionedCall/food_classifier_inference_1/mobilenetv2_0.35_224_1/block_2_add_1/ArithmeticOptimizer/AddOpsRewrite_Leaf_1_Add"], "attr": {"T": {"type": "DT_FLOAT"}, "_grappler_ArithmeticOptimizer_AddOpsRewriteStage": {"b": true}}}, {"name": "StatefulPartitionedCall/food_classifier_inference_1/mobilenetv2_0.35_224_1/block_3_expand_relu_1/Relu6", "op": "_FusedConv2D", "input": ["StatefulPartitionedCall/food_classifier_inference_1/mobilenetv2_0.35_224_1/block_2_add_1/ArithmeticOptimizer/AddOpsRewrite_Add", "StatefulPartitionedCall/food_classifier_inference_1/mobilenetv2_0.35_224_1/block_3_expand_1/convolution/merged_input", "StatefulPartitionedCall/food_classifier_inference_1/mobilenetv2_0.35_224_1/block_3_expand_BN_1/batchnorm/sub"], "device": "/device:CPU:0", "attr": {"num_host_args": {"i": "0"}, "data_format": {"s": "TkhXQw=="}, "filter_format": {"s": "SFdJTw=="}, "strides": {"list": {"i": ["1", "1", "1", "1"]}}, "num_args": {"i": "1"}, "fused_ops": {"list": {"s": ["Qmlhc0FkZA==", "UmVsdTY="]}}, "TArgs": {"list": {"type": ["DT_FLOAT"]}}, "padding": {"s": "U0FNRQ=="}, "use_cudnn_on_gpu": {"b": true}, "leakyrelu_alpha": {"f": 0.2}, "epsilon": {"f": 0.0}, "T": {"type": "DT_FLOAT"}, "explicit_paddings": {"list": {}}, "dilations": {"list": {"i": ["1", "1", "1", "1"]}}}}, {"name": "StatefulPartitionedCall/food_classifier_inference_1/mobilenetv2_0.35_224_1/block_3_pad_1/Pad", "op": "Pad", "input": ["StatefulPartitionedCall/food_classifier_inference_1/mobilenetv2_0.35_224_1/block_3_expand_relu_1/Relu6", "StatefulPartitionedCall/food_classifier_inference_1/mobilenetv2_0.35_224_1/block_3_pad_1/Const"], "attr": {"Tpaddings": {"type": "DT_INT32"}, "T": {"type": "DT_FLOAT"}}}, {"name": "StatefulPartitionedCall/food_classifier_inference_1/mobilenetv2_0.35_224_1/block_3_depthwise_1/depthwise", "op": "DepthwiseConv2dNative", "input": ["StatefulPartitionedCall/food_classifier_inference_1/mobilenetv2_0.35_224_1/block_3_pad_1/Pad", "StatefulPartitionedCall/food_classifier_inference_1/mobilenetv2_0.35_224_1/block_3_depthwise_1/depthwise/ReadVariableOp"], "attr": {"padding": {"s": "VkFMSUQ="}, "data_format": {"s": "TkhXQw=="}, "T": {"type": "DT_FLOAT"}, "explicit_paddings": {"list": {}}, "dilations": {"list": {"i": ["1", "1", "1", "1"]}}, "strides": {"list": {"i": ["1", "2", "2", "1"]}}}}, {"name": "StatefulPartitionedCall/food_classifier_inference_1/mobilenetv2_0.35_224_1/block_3_depthwise_BN_1/batchnorm/mul_1", "op": "Mul", "input": ["StatefulPartitionedCall/food_classifier_inference_1/mobilenetv2_0.35_224_1/block_3_depthwise_1/depthwise", "StatefulPartitionedCall/food_classifier_inference_1/mobilenetv2_0.35_224_1/block_3_depthwise_BN_1/batchnorm/mul"], "attr": {"T": {"type": "DT_FLOAT"}}}, {"name": "StatefulPartitionedCall/food_classifier_inference_1/mobilenetv2_0.35_224_1/block_3_depthwise_BN_1/batchnorm/add_1", "op": "AddV2", "input": ["StatefulPartitionedCall/food_classifier_inference_1/mobilenetv2_0.35_224_1/block_3_depthwise_BN_1/batchnorm/mul_1", "StatefulPartitionedCall/food_classifier_inference_1/mobilenetv2_0.35_224_1/block_3_depthwise_BN_1/batchnorm/sub"], "attr": {"T": {"type": "DT_FLOAT"}}}, {"name": "StatefulPartitionedCall/food_classifier_inference_1/mobilenetv2_0.35_224_1/block_3_depthwise_relu_1/Relu6", "op": "Relu6", "input": ["StatefulPartitionedCall/food_classifier_inference_1/mobilenetv2_0.35_224_1/block_3_depthwise_BN_1/batchnorm/add_1"], "attr": {"T": {"type": "DT_FLOAT"}}}, {"name": "StatefulPartitionedCall/food_classifier_inference_1/mobilenetv2_0.35_224_1/block_3_project_BN_1/batchnorm/add_1", "op": "_FusedConv2D", "input": ["StatefulPartitionedCall/food_classifier_inference_1/mobilenetv2_0.35_224_1/block_3_depthwise_relu_1/Relu6", "StatefulPartitionedCall/food_classifier_inference_1/mobilenetv2_0.35_224_1/block_3_project_1/convolution/merged_input", "StatefulPartitionedCall/food_classifier_inference_1/mobilenetv2_0.35_224_1/block_3_project_BN_1/batchnorm/sub"], "device": "/device:CPU:0", "attr": {"num_host_args": {"i": "0"}, "data_format": {"s": "TkhXQw=="}, "filter_format": {"s": "SFdJTw=="}, "fused_ops": {"list": {"s": ["Qmlhc0FkZA=="]}}, "num_args": {"i": "1"}, "strides": {"list": {"i": ["1", "1", "1", "1"]}}, "TArgs": {"list": {"type": ["DT_FLOAT"]}}, "padding": {"s": "U0FNRQ=="}, "use_cudnn_on_gpu": {"b": true}, "leakyrelu_alpha": {"f": 0.2}, "epsilon": {"f": 0.0}, "T": {"type": "DT_FLOAT"}, "explicit_paddings": {"list": {}}, "dilations": {"list": {"i": ["1", "1", "1", "1"]}}}}, {"name": "StatefulPartitionedCall/food_classifier_inference_1/mobilenetv2_0.35_224_1/block_4_expand_relu_1/Relu6", "op": "_FusedConv2D", "input": ["StatefulPartitionedCall/food_classifier_inference_1/mobilenetv2_0.35_224_1/block_3_project_BN_1/batchnorm/add_1", "StatefulPartitionedCall/food_classifier_inference_1/mobilenetv2_0.35_224_1/block_4_expand_1/convolution/merged_input", "StatefulPartitionedCall/food_classifier_inference_1/mobilenetv2_0.35_224_1/block_4_expand_BN_1/batchnorm/sub"], "device": "/device:CPU:0", "attr": {"num_host_args": {"i": "0"}, "data_format": {"s": "TkhXQw=="}, "filter_format": {"s": "SFdJTw=="}, "fused_ops": {"list": {"s": ["Qmlhc0FkZA==", "UmVsdTY="]}}, "num_args": {"i": "1"}, "strides": {"list": {"i": ["1", "1", "1", "1"]}}, "TArgs": {"list": {"type": ["DT_FLOAT"]}}, "padding": {"s": "U0FNRQ=="}, "use_cudnn_on_gpu": {"b": true}, "leakyrelu_alpha": {"f": 0.2}, "epsilon": {"f": 0.0}, "T": {"type": "DT_FLOAT"}, "explicit_paddings": {"list": {}}, "dilations": {"list": {"i": ["1", "1", "1", "1"]}}}}, {"name": "StatefulPartitionedCall/food_classifier_inference_1/mobilenetv2_0.35_224_1/block_4_depthwise_1/depthwise", "op": "DepthwiseConv2dNative", "input": ["StatefulPartitionedCall/food_classifier_inference_1/mobilenetv2_0.35_224_1/block_4_expand_relu_1/Relu6", "StatefulPartitionedCall/food_classifier_inference_1/mobilenetv2_0.35_224_1/block_4_depthwise_1/depthwise/ReadVariableOp"], "attr": {"padding": {"s": "U0FNRQ=="}, "data_format": {"s": "TkhXQw=="}, "T": {"type": "DT_FLOAT"}, "explicit_paddings": {"list": {}}, "dilations": {"list": {"i": ["1", "1", "1", "1"]}}, "strides": {"list": {"i": ["1", "1", "1", "1"]}}}}, {"name": "StatefulPartitionedCall/food_classifier_inference_1/mobilenetv2_0.35_224_1/block_4_depthwise_BN_1/batchnorm/mul_1", "op": "Mul", "input": ["StatefulPartitionedCall/food_classifier_inference_1/mobilenetv2_0.35_224_1/block_4_depthwise_1/depthwise", "StatefulPartitionedCall/food_classifier_inference_1/mobilenetv2_0.35_224_1/block_4_depthwise_BN_1/batchnorm/mul"], "attr": {"T": {"type": "DT_FLOAT"}}}, {"name": "StatefulPartitionedCall/food_classifier_inference_1/mobilenetv2_0.35_224_1/block_4_depthwise_BN_1/batchnorm/add_1", "op": "AddV2", "input": ["StatefulPartitionedCall/food_classifier_inference_1/mobilenetv2_0.35_224_1/block_4_depthwise_BN_1/batchnorm/mul_1", "StatefulPartitionedCall/food_classifier_inference_1/mobilenetv2_0.35_224_1/block_4_depthwise_BN_1/batchnorm/sub"], "attr": {"T": {"type": "DT_FLOAT"}}}, {"name": "StatefulPartitionedCall/food_classifier_inference_1/mobilenetv2_0.35_224_1/block_4_depthwise_relu_1/Relu6", "op": "Relu6", "input": ["StatefulPartitionedCall/food_classifier_inference_1/mobilenetv2_0.35_224_1/block_4_depthwise_BN_1/batchnorm/add_1"], "attr": {"T": {"type": "DT_FLOAT"}}}, {"name": "StatefulPartitionedCall/food_classifier_inference_1/mobilenetv2_0.35_224_1/block_4_project_BN_1/batchnorm/mul_1", "op": "Conv2D", "input": ["StatefulPartitionedCall/food_classifier_inference_1/mobilenetv2_0.35_224_1/block_4_depthwise_relu_1/Relu6", "StatefulPartitionedCall/food_classifier_inference_1/mobilenetv2_0.35_224_1/block_4_project_1/convolution/merged_input"], "device": "/device:CPU:0", "attr": {"padding": {"s": "U0FNRQ=="}, "data_format": {"s": "TkhXQw=="}, "strides": {"list": {"i": ["1", "1", "1", "1"]}}, "use_cudnn_on_gpu": {"b": true}, "T": {"type": "DT_FLOAT"}, "explicit_paddings": {"list": {}}, "dilations": {"list": {"i": ["1", "1", "1", "1"]}}}}, {"name": "StatefulPartitionedCall/food_classifier_inference_1/mobilenetv2_0.35_224_1/block_4_add_1/ArithmeticOptimizer/AddOpsRewrite_Leaf_1_Add", "op": "AddN", "input": ["StatefulPartitionedCall/food_classifier_inference_1/mobilenetv2_0.35_224_1/block_3_project_BN_1/batchnorm/add_1", "StatefulPartitionedCall/food_classifier_inference_1/mobilenetv2_0.35_224_1/block_4_project_BN_1/batchnorm/mul_1"], "attr": {"N": {"i": "2"}, "T": {"type": "DT_FLOAT"}, "_grappler_ArithmeticOptimizer_AddOpsRewriteStage": {"b": true}}}, {"name": "StatefulPartitionedCall/food_classifier_inference_1/mobilenetv2_0.35_224_1/block_4_add_1/ArithmeticOptimizer/AddOpsRewrite_Add", "op": "AddV2", "input": ["StatefulPartitionedCall/food_classifier_inference_1/mobilenetv2_0.35_224_1/block_4_project_BN_1/batchnorm/sub", "StatefulPartitionedCall/food_classifier_inference_1/mobilenetv2_0.35_224_1/block_4_add_1/ArithmeticOptimizer/AddOpsRewrite_Leaf_1_Add"], "attr": {"T": {"type": "DT_FLOAT"}, "_grappler_ArithmeticOptimizer_AddOpsRewriteStage": {"b": true}}}, {"name": "StatefulPartitionedCall/food_classifier_inference_1/mobilenetv2_0.35_224_1/block_5_expand_relu_1/Relu6", "op": "_FusedConv2D", "input": ["StatefulPartitionedCall/food_classifier_inference_1/mobilenetv2_0.35_224_1/block_4_add_1/ArithmeticOptimizer/AddOpsRewrite_Add", "StatefulPartitionedCall/food_classifier_inference_1/mobilenetv2_0.35_224_1/block_5_expand_1/convolution/merged_input", "StatefulPartitionedCall/food_classifier_inference_1/mobilenetv2_0.35_224_1/block_5_expand_BN_1/batchnorm/sub"], "device": "/device:CPU:0", "attr": {"num_host_args": {"i": "0"}, "data_format": {"s": "TkhXQw=="}, "filter_format": {"s": "SFdJTw=="}, "strides": {"list": {"i": ["1", "1", "1", "1"]}}, "num_args": {"i": "1"}, "fused_ops": {"list": {"s": ["Qmlhc0FkZA==", "UmVsdTY="]}}, "TArgs": {"list": {"type": ["DT_FLOAT"]}}, "padding": {"s": "U0FNRQ=="}, "use_cudnn_on_gpu": {"b": true}, "leakyrelu_alpha": {"f": 0.2}, "epsilon": {"f": 0.0}, "T": {"type": "DT_FLOAT"}, "explicit_paddings": {"list": {}}, "dilations": {"list": {"i": ["1", "1", "1", "1"]}}}}, {"name": "StatefulPartitionedCall/food_classifier_inference_1/mobilenetv2_0.35_224_1/block_5_depthwise_1/depthwise", "op": "DepthwiseConv2dNative", "input": ["StatefulPartitionedCall/food_classifier_inference_1/mobilenetv2_0.35_224_1/block_5_expand_relu_1/Relu6", "StatefulPartitionedCall/food_classifier_inference_1/mobilenetv2_0.35_224_1/block_5_depthwise_1/depthwise/ReadVariableOp"], "attr": {"padding": {"s": "U0FNRQ=="}, "data_format": {"s": "TkhXQw=="}, "T": {"type": "DT_FLOAT"}, "explicit_paddings": {"list": {}}, "dilations": {"list": {"i": ["1", "1", "1", "1"]}}, "strides": {"list": {"i": ["1", "1", "1", "1"]}}}}, {"name": "StatefulPartitionedCall/food_classifier_inference_1/mobilenetv2_0.35_224_1/block_5_depthwise_BN_1/batchnorm/mul_1", "op": "Mul", "input": ["StatefulPartitionedCall/food_classifier_inference_1/mobilenetv2_0.35_224_1/block_5_depthwise_1/depthwise", "StatefulPartitionedCall/food_classifier_inference_1/mobilenetv2_0.35_224_1/block_5_depthwise_BN_1/batchnorm/mul"], "attr": {"T": {"type": "DT_FLOAT"}}}, {"name": "StatefulPartitionedCall/food_classifier_inference_1/mobilenetv2_0.35_224_1/block_5_depthwise_BN_1/batchnorm/add_1", "op": "AddV2", "input": ["StatefulPartitionedCall/food_classifier_inference_1/mobilenetv2_0.35_224_1/block_5_depthwise_BN_1/batchnorm/mul_1", "StatefulPartitionedCall/food_classifier_inference_1/mobilenetv2_0.35_224_1/block_5_depthwise_BN_1/batchnorm/sub"], "attr": {"T": {"type": "DT_FLOAT"}}}, {"name": "StatefulPartitionedCall/food_classifier_inference_1/mobilenetv2_0.35_224_1/block_5_depthwise_relu_1/Relu6", "op": "Relu6", "input": ["StatefulPartitionedCall/food_classifier_inference_1/mobilenetv2_0.35_224_1/block_5_depthwise_BN_1/batchnorm/add_1"], "attr": {"T": {"type": "DT_FLOAT"}}}, {"name": "StatefulPartitionedCall/food_classifier_inference_1/mobilenetv2_0.35_224_1/block_5_project_BN_1/batchnorm/mul_1", "op": "Conv2D", "input": ["StatefulPartitionedCall/food_classifier_inference_1/mobilenetv2_0.35_224_1/block_5_depthwise_relu_1/Relu6", "StatefulPartitionedCall/food_classifier_inference_1/mobilenetv2_0.35_224_1/block_5_project_1/convolution/merged_input"], "device": "/device:CPU:0", "attr": {"padding": {"s": "U0FNRQ=="}, "data_format": {"s": "TkhXQw=="}, "strides": {"list": {"i": ["1", "1", "1", "1"]}}, "use_cudnn_on_gpu": {"b": true}, "T": {"type": "DT_FLOAT"}, "explicit_paddings": {"list": {}}, "dilations": {"list": {"i": ["1", "1", "1", "1"]}}}}, {"name": "StatefulPartitionedCall/food_classifier_inference_1/mobilenetv2_0.35_224_1/block_5_add_1/ArithmeticOptimizer/AddOpsRewrite_Leaf_1_Add", "op": "AddN", "input": ["StatefulPartitionedCall/food_classifier_inference_1/mobilenetv2_0.35_224_1/block_4_add_1/ArithmeticOptimizer/AddOpsRewrite_Add", "StatefulPartitionedCall/food_classifier_inference_1/mobilenetv2_0.35_224_1/block_5_project_BN_1/batchnorm/mul_1"], "attr": {"N": {"i": "2"}, "T": {"type": "DT_FLOAT"}, "_grappler_ArithmeticOptimizer_AddOpsRewriteStage": {"b": true}}}, {"name": "StatefulPartitionedCall/food_classifier_inference_1/mobilenetv2_0.35_224_1/block_5_add_1/ArithmeticOptimizer/AddOpsRewrite_Add", "op": "AddV2", "input": ["StatefulPartitionedCall/food_classifier_inference_1/mobilenetv2_0.35_224_1/block_5_project_BN_1/batchnorm/sub", "StatefulPartitionedCall/food_classifier_inference_1/mobilenetv2_0.35_224_1/block_5_add_1/ArithmeticOptimizer/AddOpsRewrite_Leaf_1_Add"], "attr": {"T": {"type": "DT_FLOAT"}, "_grappler_ArithmeticOptimizer_AddOpsRewriteStage": {"b": true}}}, {"name": "StatefulPartitionedCall/food_classifier_inference_1/mobilenetv2_0.35_224_1/block_6_expand_relu_1/Relu6", "op": "_FusedConv2D", "input": ["StatefulPartitionedCall/food_classifier_inference_1/mobilenetv2_0.35_224_1/block_5_add_1/ArithmeticOptimizer/AddOpsRewrite_Add", "StatefulPartitionedCall/food_classifier_inference_1/mobilenetv2_0.35_224_1/block_6_expand_1/convolution/merged_input", "StatefulPartitionedCall/food_classifier_inference_1/mobilenetv2_0.35_224_1/block_6_expand_BN_1/batchnorm/sub"], "device": "/device:CPU:0", "attr": {"num_host_args": {"i": "0"}, "data_format": {"s": "TkhXQw=="}, "filter_format": {"s": "SFdJTw=="}, "strides": {"list": {"i": ["1", "1", "1", "1"]}}, "num_args": {"i": "1"}, "fused_ops": {"list": {"s": ["Qmlhc0FkZA==", "UmVsdTY="]}}, "TArgs": {"list": {"type": ["DT_FLOAT"]}}, "padding": {"s": "U0FNRQ=="}, "use_cudnn_on_gpu": {"b": true}, "leakyrelu_alpha": {"f": 0.2}, "epsilon": {"f": 0.0}, "T": {"type": "DT_FLOAT"}, "explicit_paddings": {"list": {}}, "dilations": {"list": {"i": ["1", "1", "1", "1"]}}}}, {"name": "StatefulPartitionedCall/food_classifier_inference_1/mobilenetv2_0.35_224_1/block_6_pad_1/Pad", "op": "Pad", "input": ["StatefulPartitionedCall/food_classifier_inference_1/mobilenetv2_0.35_224_1/block_6_expand_relu_1/Relu6", "StatefulPartitionedCall/food_classifier_inference_1/mobilenetv2_0.35_224_1/block_6_pad_1/Const"], "attr": {"Tpaddings": {"type": "DT_INT32"}, "T": {"type": "DT_FLOAT"}}}, {"name": "StatefulPartitionedCall/food_classifier_inference_1/mobilenetv2_0.35_224_1/block_6_depthwise_1/depthwise", "op": "DepthwiseConv2dNative", "input": ["StatefulPartitionedCall/food_classifier_inference_1/mobilenetv2_0.35_224_1/block_6_pad_1/Pad", "StatefulPartitionedCall/food_classifier_inference_1/mobilenetv2_0.35_224_1/block_6_depthwise_1/depthwise/ReadVariableOp"], "attr": {"padding": {"s": "VkFMSUQ="}, "data_format": {"s": "TkhXQw=="}, "T": {"type": "DT_FLOAT"}, "explicit_paddings": {"list": {}}, "dilations": {"list": {"i": ["1", "1", "1", "1"]}}, "strides": {"list": {"i": ["1", "2", "2", "1"]}}}}, {"name": "StatefulPartitionedCall/food_classifier_inference_1/mobilenetv2_0.35_224_1/block_6_depthwise_BN_1/batchnorm/mul_1", "op": "Mul", "input": ["StatefulPartitionedCall/food_classifier_inference_1/mobilenetv2_0.35_224_1/block_6_depthwise_1/depthwise", "StatefulPartitionedCall/food_classifier_inference_1/mobilenetv2_0.35_224_1/block_6_depthwise_BN_1/batchnorm/mul"], "attr": {"T": {"type": "DT_FLOAT"}}}, {"name": "StatefulPartitionedCall/food_classifier_inference_1/mobilenetv2_0.35_224_1/block_6_depthwise_BN_1/batchnorm/add_1", "op": "AddV2", "input": ["StatefulPartitionedCall/food_classifier_inference_1/mobilenetv2_0.35_224_1/block_6_depthwise_BN_1/batchnorm/mul_1", "StatefulPartitionedCall/food_classifier_inference_1/mobilenetv2_0.35_224_1/block_6_depthwise_BN_1/batchnorm/sub"], "attr": {"T": {"type": "DT_FLOAT"}}}, {"name": "StatefulPartitionedCall/food_classifier_inference_1/mobilenetv2_0.35_224_1/block_6_depthwise_relu_1/Relu6", "op": "Relu6", "input": ["StatefulPartitionedCall/food_classifier_inference_1/mobilenetv2_0.35_224_1/block_6_depthwise_BN_1/batchnorm/add_1"], "attr": {"T": {"type": "DT_FLOAT"}}}, {"name": "StatefulPartitionedCall/food_classifier_inference_1/mobilenetv2_0.35_224_1/block_6_project_BN_1/batchnorm/add_1", "op": "_FusedConv2D", "input": ["StatefulPartitionedCall/food_classifier_inference_1/mobilenetv2_0.35_224_1/block_6_depthwise_relu_1/Relu6", "StatefulPartitionedCall/food_classifier_inference_1/mobilenetv2_0.35_224_1/block_6_project_1/convolution/merged_input", "StatefulPartitionedCall/food_classifier_inference_1/mobilenetv2_0.35_224_1/block_6_project_BN_1/batchnorm/sub"], "device": "/device:CPU:0", "attr": {"num_host_args": {"i": "0"}, "data_format": {"s": "TkhXQw=="}, "filter_format": {"s": "SFdJTw=="}, "strides": {"list": {"i": ["1", "1", "1", "1"]}}, "num_args": {"i": "1"}, "fused_ops": {"list": {"s": ["Qmlhc0FkZA=="]}}, "TArgs": {"list": {"type": ["DT_FLOAT"]}}, "padding": {"s": "U0FNRQ=="}, "use_cudnn_on_gpu": {"b": true}, "leakyrelu_alpha": {"f": 0.2}, "epsilon": {"f": 0.0}, "T": {"type": "DT_FLOAT"}, "explicit_paddings": {"list": {}}, "dilations": {"list": {"i": ["1", "1", "1", "1"]}}}}, {"name": "StatefulPartitionedCall/food_classifier_inference_1/mobilenetv2_0.35_224_1/block_7_expand_relu_1/Relu6", "op": "_FusedConv2D", "input": ["StatefulPartitionedCall/food_classifier_inference_1/mobilenetv2_0.35_224_1/block_6_project_BN_1/batchnorm/add_1", "StatefulPartitionedCall/food_classifier_inference_1/mobilenetv2_0.35_224_1/block_7_expand_1/convolution/merged_input", "StatefulPartitionedCall/food_classifier_inference_1/mobilenetv2_0.35_224_1/block_7_expand_BN_1/batchnorm/sub"], "device": "/device:CPU:0", "attr": {"num_host_args": {"i": "0"}, "data_format": {"s": "TkhXQw=="}, "filter_format": {"s": "SFdJTw=="}, "strides": {"list": {"i": ["1", "1", "1", "1"]}}, "num_args": {"i": "1"}, "fused_ops": {"list": {"s": ["Qmlhc0FkZA==", "UmVsdTY="]}}, "TArgs": {"list": {"type": ["DT_FLOAT"]}}, "padding": {"s": "U0FNRQ=="}, "use_cudnn_on_gpu": {"b": true}, "leakyrelu_alpha": {"f": 0.2}, "epsilon": {"f": 0.0}, "T": {"type": "DT_FLOAT"}, "explicit_paddings": {"list": {}}, "dilations": {"list": {"i": ["1", "1", "1", "1"]}}}}, {"name": "StatefulPartitionedCall/food_classifier_inference_1/mobilenetv2_0.35_224_1/block_7_depthwise_1/depthwise", "op": "DepthwiseConv2dNative", "input": ["StatefulPartitionedCall/food_classifier_inference_1/mobilenetv2_0.35_224_1/block_7_expand_relu_1/Relu6", "StatefulPartitionedCall/food_classifier_inference_1/mobilenetv2_0.35_224_1/block_7_depthwise_1/depthwise/ReadVariableOp"], "attr": {"padding": {"s": "U0FNRQ=="}, "data_format": {"s": "TkhXQw=="}, "T": {"type": "DT_FLOAT"}, "explicit_paddings": {"list": {}}, "dilations": {"list": {"i": ["1", "1", "1", "1"]}}, "strides": {"list": {"i": ["1", "1", "1", "1"]}}}}, {"name": "StatefulPartitionedCall/food_classifier_inference_1/mobilenetv2_0.35_224_1/block_7_depthwise_BN_1/batchnorm/mul_1", "op": "Mul", "input": ["StatefulPartitionedCall/food_classifier_inference_1/mobilenetv2_0.35_224_1/block_7_depthwise_1/depthwise", "StatefulPartitionedCall/food_classifier_inference_1/mobilenetv2_0.35_224_1/block_7_depthwise_BN_1/batchnorm/mul"], "attr": {"T": {"type": "DT_FLOAT"}}}, {"name": "StatefulPartitionedCall/food_classifier_inference_1/mobilenetv2_0.35_224_1/block_7_depthwise_BN_1/batchnorm/add_1", "op": "AddV2", "input": ["StatefulPartitionedCall/food_classifier_inference_1/mobilenetv2_0.35_224_1/block_7_depthwise_BN_1/batchnorm/mul_1", "StatefulPartitionedCall/food_classifier_inference_1/mobilenetv2_0.35_224_1/block_7_depthwise_BN_1/batchnorm/sub"], "attr": {"T": {"type": "DT_FLOAT"}}}, {"name": "StatefulPartitionedCall/food_classifier_inference_1/mobilenetv2_0.35_224_1/block_7_depthwise_relu_1/Relu6", "op": "Relu6", "input": ["StatefulPartitionedCall/food_classifier_inference_1/mobilenetv2_0.35_224_1/block_7_depthwise_BN_1/batchnorm/add_1"], "attr": {"T": {"type": "DT_FLOAT"}}}, {"name": "StatefulPartitionedCall/food_classifier_inference_1/mobilenetv2_0.35_224_1/block_7_project_BN_1/batchnorm/mul_1", "op": "Conv2D", "input": ["StatefulPartitionedCall/food_classifier_inference_1/mobilenetv2_0.35_224_1/block_7_depthwise_relu_1/Relu6", "StatefulPartitionedCall/food_classifier_inference_1/mobilenetv2_0.35_224_1/block_7_project_1/convolution/merged_input"], "device": "/device:CPU:0", "attr": {"padding": {"s": "U0FNRQ=="}, "data_format": {"s": "TkhXQw=="}, "strides": {"list": {"i": ["1", "1", "1", "1"]}}, "use_cudnn_on_gpu": {"b": true}, "T": {"type": "DT_FLOAT"}, "explicit_paddings": {"list": {}}, "dilations": {"list": {"i": ["1", "1", "1", "1"]}}}}, {"name": "StatefulPartitionedCall/food_classifier_inference_1/mobilenetv2_0.35_224_1/block_7_add_1/ArithmeticOptimizer/AddOpsRewrite_Leaf_1_Add", "op": "AddN", "input": ["StatefulPartitionedCall/food_classifier_inference_1/mobilenetv2_0.35_224_1/block_6_project_BN_1/batchnorm/add_1", "StatefulPartitionedCall/food_classifier_inference_1/mobilenetv2_0.35_224_1/block_7_project_BN_1/batchnorm/mul_1"], "attr": {"N": {"i": "2"}, "T": {"type": "DT_FLOAT"}, "_grappler_ArithmeticOptimizer_AddOpsRewriteStage": {"b": true}}}, {"name": "StatefulPartitionedCall/food_classifier_inference_1/mobilenetv2_0.35_224_1/block_7_add_1/ArithmeticOptimizer/AddOpsRewrite_Add", "op": "AddV2", "input": ["StatefulPartitionedCall/food_classifier_inference_1/mobilenetv2_0.35_224_1/block_7_project_BN_1/batchnorm/sub", "StatefulPartitionedCall/food_classifier_inference_1/mobilenetv2_0.35_224_1/block_7_add_1/ArithmeticOptimizer/AddOpsRewrite_Leaf_1_Add"], "attr": {"T": {"type": "DT_FLOAT"}, "_grappler_ArithmeticOptimizer_AddOpsRewriteStage": {"b": true}}}, {"name": "StatefulPartitionedCall/food_classifier_inference_1/mobilenetv2_0.35_224_1/block_8_expand_relu_1/Relu6", "op": "_FusedConv2D", "input": ["StatefulPartitionedCall/food_classifier_inference_1/mobilenetv2_0.35_224_1/block_7_add_1/ArithmeticOptimizer/AddOpsRewrite_Add", "StatefulPartitionedCall/food_classifier_inference_1/mobilenetv2_0.35_224_1/block_8_expand_1/convolution/merged_input", "StatefulPartitionedCall/food_classifier_inference_1/mobilenetv2_0.35_224_1/block_8_expand_BN_1/batchnorm/sub"], "device": "/device:CPU:0", "attr": {"num_host_args": {"i": "0"}, "data_format": {"s": "TkhXQw=="}, "filter_format": {"s": "SFdJTw=="}, "fused_ops": {"list": {"s": ["Qmlhc0FkZA==", "UmVsdTY="]}}, "num_args": {"i": "1"}, "strides": {"list": {"i": ["1", "1", "1", "1"]}}, "TArgs": {"list": {"type": ["DT_FLOAT"]}}, "padding": {"s": "U0FNRQ=="}, "use_cudnn_on_gpu": {"b": true}, "leakyrelu_alpha": {"f": 0.2}, "epsilon": {"f": 0.0}, "T": {"type": "DT_FLOAT"}, "explicit_paddings": {"list": {}}, "dilations": {"list": {"i": ["1", "1", "1", "1"]}}}}, {"name": "StatefulPartitionedCall/food_classifier_inference_1/mobilenetv2_0.35_224_1/block_8_depthwise_1/depthwise", "op": "DepthwiseConv2dNative", "input": ["StatefulPartitionedCall/food_classifier_inference_1/mobilenetv2_0.35_224_1/block_8_expand_relu_1/Relu6", "StatefulPartitionedCall/food_classifier_inference_1/mobilenetv2_0.35_224_1/block_8_depthwise_1/depthwise/ReadVariableOp"], "attr": {"padding": {"s": "U0FNRQ=="}, "data_format": {"s": "TkhXQw=="}, "T": {"type": "DT_FLOAT"}, "explicit_paddings": {"list": {}}, "dilations": {"list": {"i": ["1", "1", "1", "1"]}}, "strides": {"list": {"i": ["1", "1", "1", "1"]}}}}, {"name": "StatefulPartitionedCall/food_classifier_inference_1/mobilenetv2_0.35_224_1/block_8_depthwise_BN_1/batchnorm/mul_1", "op": "Mul", "input": ["StatefulPartitionedCall/food_classifier_inference_1/mobilenetv2_0.35_224_1/block_8_depthwise_1/depthwise", "StatefulPartitionedCall/food_classifier_inference_1/mobilenetv2_0.35_224_1/block_8_depthwise_BN_1/batchnorm/mul"], "attr": {"T": {"type": "DT_FLOAT"}}}, {"name": "StatefulPartitionedCall/food_classifier_inference_1/mobilenetv2_0.35_224_1/block_8_depthwise_BN_1/batchnorm/add_1", "op": "AddV2", "input": ["StatefulPartitionedCall/food_classifier_inference_1/mobilenetv2_0.35_224_1/block_8_depthwise_BN_1/batchnorm/mul_1", "StatefulPartitionedCall/food_classifier_inference_1/mobilenetv2_0.35_224_1/block_8_depthwise_BN_1/batchnorm/sub"], "attr": {"T": {"type": "DT_FLOAT"}}}, {"name": "StatefulPartitionedCall/food_classifier_inference_1/mobilenetv2_0.35_224_1/block_8_depthwise_relu_1/Relu6", "op": "Relu6", "input": ["StatefulPartitionedCall/food_classifier_inference_1/mobilenetv2_0.35_224_1/block_8_depthwise_BN_1/batchnorm/add_1"], "attr": {"T": {"type": "DT_FLOAT"}}}, {"name": "StatefulPartitionedCall/food_classifier_inference_1/mobilenetv2_0.35_224_1/block_8_project_BN_1/batchnorm/mul_1", "op": "Conv2D", "input": ["StatefulPartitionedCall/food_classifier_inference_1/mobilenetv2_0.35_224_1/block_8_depthwise_relu_1/Relu6", "StatefulPartitionedCall/food_classifier_inference_1/mobilenetv2_0.35_224_1/block_8_project_1/convolution/merged_input"], "device": "/device:CPU:0", "attr": {"padding": {"s": "U0FNRQ=="}, "data_format": {"s": "TkhXQw=="}, "use_cudnn_on_gpu": {"b": true}, "strides": {"list": {"i": ["1", "1", "1", "1"]}}, "T": {"type": "DT_FLOAT"}, "explicit_paddings": {"list": {}}, "dilations": {"list": {"i": ["1", "1", "1", "1"]}}}}, {"name": "StatefulPartitionedCall/food_classifier_inference_1/mobilenetv2_0.35_224_1/block_8_add_1/ArithmeticOptimizer/AddOpsRewrite_Leaf_1_Add", "op": "AddN", "input": ["StatefulPartitionedCall/food_classifier_inference_1/mobilenetv2_0.35_224_1/block_7_add_1/ArithmeticOptimizer/AddOpsRewrite_Add", "StatefulPartitionedCall/food_classifier_inference_1/mobilenetv2_0.35_224_1/block_8_project_BN_1/batchnorm/mul_1"], "attr": {"N": {"i": "2"}, "T": {"type": "DT_FLOAT"}, "_grappler_ArithmeticOptimizer_AddOpsRewriteStage": {"b": true}}}, {"name": "StatefulPartitionedCall/food_classifier_inference_1/mobilenetv2_0.35_224_1/block_8_add_1/ArithmeticOptimizer/AddOpsRewrite_Add", "op": "AddV2", "input": ["StatefulPartitionedCall/food_classifier_inference_1/mobilenetv2_0.35_224_1/block_8_project_BN_1/batchnorm/sub", "StatefulPartitionedCall/food_classifier_inference_1/mobilenetv2_0.35_224_1/block_8_add_1/ArithmeticOptimizer/AddOpsRewrite_Leaf_1_Add"], "attr": {"T": {"type": "DT_FLOAT"}, "_grappler_ArithmeticOptimizer_AddOpsRewriteStage": {"b": true}}}, {"name": "StatefulPartitionedCall/food_classifier_inference_1/mobilenetv2_0.35_224_1/block_9_expand_relu_1/Relu6", "op": "_FusedConv2D", "input": ["StatefulPartitionedCall/food_classifier_inference_1/mobilenetv2_0.35_224_1/block_8_add_1/ArithmeticOptimizer/AddOpsRewrite_Add", "StatefulPartitionedCall/food_classifier_inference_1/mobilenetv2_0.35_224_1/block_9_expand_1/convolution/merged_input", "StatefulPartitionedCall/food_classifier_inference_1/mobilenetv2_0.35_224_1/block_9_expand_BN_1/batchnorm/sub"], "device": "/device:CPU:0", "attr": {"num_host_args": {"i": "0"}, "data_format": {"s": "TkhXQw=="}, "filter_format": {"s": "SFdJTw=="}, "strides": {"list": {"i": ["1", "1", "1", "1"]}}, "num_args": {"i": "1"}, "fused_ops": {"list": {"s": ["Qmlhc0FkZA==", "UmVsdTY="]}}, "TArgs": {"list": {"type": ["DT_FLOAT"]}}, "padding": {"s": "U0FNRQ=="}, "use_cudnn_on_gpu": {"b": true}, "leakyrelu_alpha": {"f": 0.2}, "epsilon": {"f": 0.0}, "T": {"type": "DT_FLOAT"}, "explicit_paddings": {"list": {}}, "dilations": {"list": {"i": ["1", "1", "1", "1"]}}}}, {"name": "StatefulPartitionedCall/food_classifier_inference_1/mobilenetv2_0.35_224_1/block_9_depthwise_1/depthwise", "op": "DepthwiseConv2dNative", "input": ["StatefulPartitionedCall/food_classifier_inference_1/mobilenetv2_0.35_224_1/block_9_expand_relu_1/Relu6", "StatefulPartitionedCall/food_classifier_inference_1/mobilenetv2_0.35_224_1/block_9_depthwise_1/depthwise/ReadVariableOp"], "attr": {"padding": {"s": "U0FNRQ=="}, "data_format": {"s": "TkhXQw=="}, "T": {"type": "DT_FLOAT"}, "explicit_paddings": {"list": {}}, "dilations": {"list": {"i": ["1", "1", "1", "1"]}}, "strides": {"list": {"i": ["1", "1", "1", "1"]}}}}, {"name": "StatefulPartitionedCall/food_classifier_inference_1/mobilenetv2_0.35_224_1/block_9_depthwise_BN_1/batchnorm/mul_1", "op": "Mul", "input": ["StatefulPartitionedCall/food_classifier_inference_1/mobilenetv2_0.35_224_1/block_9_depthwise_1/depthwise", "StatefulPartitionedCall/food_classifier_inference_1/mobilenetv2_0.35_224_1/block_9_depthwise_BN_1/batchnorm/mul"], "attr": {"T": {"type": "DT_FLOAT"}}}, {"name": "StatefulPartitionedCall/food_classifier_inference_1/mobilenetv2_0.35_224_1/block_9_depthwise_BN_1/batchnorm/add_1", "op": "AddV2", "input": ["StatefulPartitionedCall/food_classifier_inference_1/mobilenetv2_0.35_224_1/block_9_depthwise_BN_1/batchnorm/mul_1", "StatefulPartitionedCall/food_classifier_inference_1/mobilenetv2_0.35_224_1/block_9_depthwise_BN_1/batchnorm/sub"], "attr": {"T": {"type": "DT_FLOAT"}}}, {"name": "StatefulPartitionedCall/food_classifier_inference_1/mobilenetv2_0.35_224_1/block_9_depthwise_relu_1/Relu6", "op": "Relu6", "input": ["StatefulPartitionedCall/food_classifier_inference_1/mobilenetv2_0.35_224_1/block_9_depthwise_BN_1/batchnorm/add_1"], "attr": {"T": {"type": "DT_FLOAT"}}}, {"name": "StatefulPartitionedCall/food_classifier_inference_1/mobilenetv2_0.35_224_1/block_9_project_BN_1/batchnorm/mul_1", "op": "Conv2D", "input": ["StatefulPartitionedCall/food_classifier_inference_1/mobilenetv2_0.35_224_1/block_9_depthwise_relu_1/Relu6", "StatefulPartitionedCall/food_classifier_inference_1/mobilenetv2_0.35_224_1/block_9_project_1/convolution/merged_input"], "device": "/device:CPU:0", "attr": {"padding": {"s": "U0FNRQ=="}, "data_format": {"s": "TkhXQw=="}, "use_cudnn_on_gpu": {"b": true}, "strides": {"list": {"i": ["1", "1", "1", "1"]}}, "T": {"type": "DT_FLOAT"}, "explicit_paddings": {"list": {}}, "dilations": {"list": {"i": ["1", "1", "1", "1"]}}}}, {"name": "StatefulPartitionedCall/food_classifier_inference_1/mobilenetv2_0.35_224_1/block_9_add_1/ArithmeticOptimizer/AddOpsRewrite_Leaf_1_Add", "op": "AddN", "input": ["StatefulPartitionedCall/food_classifier_inference_1/mobilenetv2_0.35_224_1/block_8_add_1/ArithmeticOptimizer/AddOpsRewrite_Add", "StatefulPartitionedCall/food_classifier_inference_1/mobilenetv2_0.35_224_1/block_9_project_BN_1/batchnorm/mul_1"], "attr": {"N": {"i": "2"}, "T": {"type": "DT_FLOAT"}, "_grappler_ArithmeticOptimizer_AddOpsRewriteStage": {"b": true}}}, {"name": "StatefulPartitionedCall/food_classifier_inference_1/mobilenetv2_0.35_224_1/block_9_add_1/ArithmeticOptimizer/AddOpsRewrite_Add", "op": "AddV2", "input": ["StatefulPartitionedCall/food_classifier_inference_1/mobilenetv2_0.35_224_1/block_9_project_BN_1/batchnorm/sub", "StatefulPartitionedCall/food_classifier_inference_1/mobilenetv2_0.35_224_1/block_9_add_1/ArithmeticOptimizer/AddOpsRewrite_Leaf_1_Add"], "attr": {"T": {"type": "DT_FLOAT"}, "_grappler_ArithmeticOptimizer_AddOpsRewriteStage": {"b": true}}}, {"name": "StatefulPartitionedCall/food_classifier_inference_1/mobilenetv2_0.35_224_1/block_10_expand_relu_1/Relu6", "op": "_FusedConv2D", "input": ["StatefulPartitionedCall/food_classifier_inference_1/mobilenetv2_0.35_224_1/block_9_add_1/ArithmeticOptimizer/AddOpsRewrite_Add", "StatefulPartitionedCall/food_classifier_inference_1/mobilenetv2_0.35_224_1/block_10_expand_1/convolution/merged_input", "StatefulPartitionedCall/food_classifier_inference_1/mobilenetv2_0.35_224_1/block_10_expand_BN_1/batchnorm/sub"], "device": "/device:CPU:0", "attr": {"num_host_args": {"i": "0"}, "data_format": {"s": "TkhXQw=="}, "filter_format": {"s": "SFdJTw=="}, "strides": {"list": {"i": ["1", "1", "1", "1"]}}, "num_args": {"i": "1"}, "fused_ops": {"list": {"s": ["Qmlhc0FkZA==", "UmVsdTY="]}}, "TArgs": {"list": {"type": ["DT_FLOAT"]}}, "padding": {"s": "U0FNRQ=="}, "use_cudnn_on_gpu": {"b": true}, "leakyrelu_alpha": {"f": 0.2}, "epsilon": {"f": 0.0}, "T": {"type": "DT_FLOAT"}, "explicit_paddings": {"list": {}}, "dilations": {"list": {"i": ["1", "1", "1", "1"]}}}}, {"name": "StatefulPartitionedCall/food_classifier_inference_1/mobilenetv2_0.35_224_1/block_10_depthwise_1/depthwise", "op": "DepthwiseConv2dNative", "input": ["StatefulPartitionedCall/food_classifier_inference_1/mobilenetv2_0.35_224_1/block_10_expand_relu_1/Relu6", "StatefulPartitionedCall/food_classifier_inference_1/mobilenetv2_0.35_224_1/block_10_depthwise_1/depthwise/ReadVariableOp"], "attr": {"padding": {"s": "U0FNRQ=="}, "data_format": {"s": "TkhXQw=="}, "T": {"type": "DT_FLOAT"}, "explicit_paddings": {"list": {}}, "dilations": {"list": {"i": ["1", "1", "1", "1"]}}, "strides": {"list": {"i": ["1", "1", "1", "1"]}}}}, {"name": "StatefulPartitionedCall/food_classifier_inference_1/mobilenetv2_0.35_224_1/block_10_depthwise_BN_1/batchnorm/mul_1", "op": "Mul", "input": ["StatefulPartitionedCall/food_classifier_inference_1/mobilenetv2_0.35_224_1/block_10_depthwise_1/depthwise", "StatefulPartitionedCall/food_classifier_inference_1/mobilenetv2_0.35_224_1/block_10_depthwise_BN_1/batchnorm/mul"], "attr": {"T": {"type": "DT_FLOAT"}}}, {"name": "StatefulPartitionedCall/food_classifier_inference_1/mobilenetv2_0.35_224_1/block_10_depthwise_BN_1/batchnorm/add_1", "op": "AddV2", "input": ["StatefulPartitionedCall/food_classifier_inference_1/mobilenetv2_0.35_224_1/block_10_depthwise_BN_1/batchnorm/mul_1", "StatefulPartitionedCall/food_classifier_inference_1/mobilenetv2_0.35_224_1/block_10_depthwise_BN_1/batchnorm/sub"], "attr": {"T": {"type": "DT_FLOAT"}}}, {"name": "StatefulPartitionedCall/food_classifier_inference_1/mobilenetv2_0.35_224_1/block_10_depthwise_relu_1/Relu6", "op": "Relu6", "input": ["StatefulPartitionedCall/food_classifier_inference_1/mobilenetv2_0.35_224_1/block_10_depthwise_BN_1/batchnorm/add_1"], "attr": {"T": {"type": "DT_FLOAT"}}}, {"name": "StatefulPartitionedCall/food_classifier_inference_1/mobilenetv2_0.35_224_1/block_10_project_BN_1/batchnorm/add_1", "op": "_FusedConv2D", "input": ["StatefulPartitionedCall/food_classifier_inference_1/mobilenetv2_0.35_224_1/block_10_depthwise_relu_1/Relu6", "StatefulPartitionedCall/food_classifier_inference_1/mobilenetv2_0.35_224_1/block_10_project_1/convolution/merged_input", "StatefulPartitionedCall/food_classifier_inference_1/mobilenetv2_0.35_224_1/block_10_project_BN_1/batchnorm/sub"], "device": "/device:CPU:0", "attr": {"num_host_args": {"i": "0"}, "data_format": {"s": "TkhXQw=="}, "filter_format": {"s": "SFdJTw=="}, "fused_ops": {"list": {"s": ["Qmlhc0FkZA=="]}}, "num_args": {"i": "1"}, "strides": {"list": {"i": ["1", "1", "1", "1"]}}, "TArgs": {"list": {"type": ["DT_FLOAT"]}}, "padding": {"s": "U0FNRQ=="}, "use_cudnn_on_gpu": {"b": true}, "leakyrelu_alpha": {"f": 0.2}, "epsilon": {"f": 0.0}, "T": {"type": "DT_FLOAT"}, "explicit_paddings": {"list": {}}, "dilations": {"list": {"i": ["1", "1", "1", "1"]}}}}, {"name": "StatefulPartitionedCall/food_classifier_inference_1/mobilenetv2_0.35_224_1/block_11_expand_relu_1/Relu6", "op": "_FusedConv2D", "input": ["StatefulPartitionedCall/food_classifier_inference_1/mobilenetv2_0.35_224_1/block_10_project_BN_1/batchnorm/add_1", "StatefulPartitionedCall/food_classifier_inference_1/mobilenetv2_0.35_224_1/block_11_expand_1/convolution/merged_input", "StatefulPartitionedCall/food_classifier_inference_1/mobilenetv2_0.35_224_1/block_11_expand_BN_1/batchnorm/sub"], "device": "/device:CPU:0", "attr": {"num_host_args": {"i": "0"}, "data_format": {"s": "TkhXQw=="}, "filter_format": {"s": "SFdJTw=="}, "fused_ops": {"list": {"s": ["Qmlhc0FkZA==", "UmVsdTY="]}}, "num_args": {"i": "1"}, "strides": {"list": {"i": ["1", "1", "1", "1"]}}, "TArgs": {"list": {"type": ["DT_FLOAT"]}}, "padding": {"s": "U0FNRQ=="}, "use_cudnn_on_gpu": {"b": true}, "leakyrelu_alpha": {"f": 0.2}, "epsilon": {"f": 0.0}, "T": {"type": "DT_FLOAT"}, "explicit_paddings": {"list": {}}, "dilations": {"list": {"i": ["1", "1", "1", "1"]}}}}, {"name": "StatefulPartitionedCall/food_classifier_inference_1/mobilenetv2_0.35_224_1/block_11_depthwise_1/depthwise", "op": "DepthwiseConv2dNative", "input": ["StatefulPartitionedCall/food_classifier_inference_1/mobilenetv2_0.35_224_1/block_11_expand_relu_1/Relu6", "StatefulPartitionedCall/food_classifier_inference_1/mobilenetv2_0.35_224_1/block_11_depthwise_1/depthwise/ReadVariableOp"], "attr": {"padding": {"s": "U0FNRQ=="}, "data_format": {"s": "TkhXQw=="}, "T": {"type": "DT_FLOAT"}, "explicit_paddings": {"list": {}}, "dilations": {"list": {"i": ["1", "1", "1", "1"]}}, "strides": {"list": {"i": ["1", "1", "1", "1"]}}}}, {"name": "StatefulPartitionedCall/food_classifier_inference_1/mobilenetv2_0.35_224_1/block_11_depthwise_BN_1/batchnorm/mul_1", "op": "Mul", "input": ["StatefulPartitionedCall/food_classifier_inference_1/mobilenetv2_0.35_224_1/block_11_depthwise_1/depthwise", "StatefulPartitionedCall/food_classifier_inference_1/mobilenetv2_0.35_224_1/block_11_depthwise_BN_1/batchnorm/mul"], "attr": {"T": {"type": "DT_FLOAT"}}}, {"name": "StatefulPartitionedCall/food_classifier_inference_1/mobilenetv2_0.35_224_1/block_11_depthwise_BN_1/batchnorm/add_1", "op": "AddV2", "input": ["StatefulPartitionedCall/food_classifier_inference_1/mobilenetv2_0.35_224_1/block_11_depthwise_BN_1/batchnorm/mul_1", "StatefulPartitionedCall/food_classifier_inference_1/mobilenetv2_0.35_224_1/block_11_depthwise_BN_1/batchnorm/sub"], "attr": {"T": {"type": "DT_FLOAT"}}}, {"name": "StatefulPartitionedCall/food_classifier_inference_1/mobilenetv2_0.35_224_1/block_11_depthwise_relu_1/Relu6", "op": "Relu6", "input": ["StatefulPartitionedCall/food_classifier_inference_1/mobilenetv2_0.35_224_1/block_11_depthwise_BN_1/batchnorm/add_1"], "attr": {"T": {"type": "DT_FLOAT"}}}, {"name": "StatefulPartitionedCall/food_classifier_inference_1/mobilenetv2_0.35_224_1/block_11_project_BN_1/batchnorm/mul_1", "op": "Conv2D", "input": ["StatefulPartitionedCall/food_classifier_inference_1/mobilenetv2_0.35_224_1/block_11_depthwise_relu_1/Relu6", "StatefulPartitionedCall/food_classifier_inference_1/mobilenetv2_0.35_224_1/block_11_project_1/convolution/merged_input"], "device": "/device:CPU:0", "attr": {"padding": {"s": "U0FNRQ=="}, "data_format": {"s": "TkhXQw=="}, "use_cudnn_on_gpu": {"b": true}, "strides": {"list": {"i": ["1", "1", "1", "1"]}}, "T": {"type": "DT_FLOAT"}, "explicit_paddings": {"list": {}}, "dilations": {"list": {"i": ["1", "1", "1", "1"]}}}}, {"name": "StatefulPartitionedCall/food_classifier_inference_1/mobilenetv2_0.35_224_1/block_11_add_1/ArithmeticOptimizer/AddOpsRewrite_Leaf_1_Add", "op": "AddN", "input": ["StatefulPartitionedCall/food_classifier_inference_1/mobilenetv2_0.35_224_1/block_10_project_BN_1/batchnorm/add_1", "StatefulPartitionedCall/food_classifier_inference_1/mobilenetv2_0.35_224_1/block_11_project_BN_1/batchnorm/mul_1"], "attr": {"N": {"i": "2"}, "T": {"type": "DT_FLOAT"}, "_grappler_ArithmeticOptimizer_AddOpsRewriteStage": {"b": true}}}, {"name": "StatefulPartitionedCall/food_classifier_inference_1/mobilenetv2_0.35_224_1/block_11_add_1/ArithmeticOptimizer/AddOpsRewrite_Add", "op": "AddV2", "input": ["StatefulPartitionedCall/food_classifier_inference_1/mobilenetv2_0.35_224_1/block_11_project_BN_1/batchnorm/sub", "StatefulPartitionedCall/food_classifier_inference_1/mobilenetv2_0.35_224_1/block_11_add_1/ArithmeticOptimizer/AddOpsRewrite_Leaf_1_Add"], "attr": {"T": {"type": "DT_FLOAT"}, "_grappler_ArithmeticOptimizer_AddOpsRewriteStage": {"b": true}}}, {"name": "StatefulPartitionedCall/food_classifier_inference_1/mobilenetv2_0.35_224_1/block_12_expand_relu_1/Relu6", "op": "_FusedConv2D", "input": ["StatefulPartitionedCall/food_classifier_inference_1/mobilenetv2_0.35_224_1/block_11_add_1/ArithmeticOptimizer/AddOpsRewrite_Add", "StatefulPartitionedCall/food_classifier_inference_1/mobilenetv2_0.35_224_1/block_12_expand_1/convolution/merged_input", "StatefulPartitionedCall/food_classifier_inference_1/mobilenetv2_0.35_224_1/block_12_expand_BN_1/batchnorm/sub"], "device": "/device:CPU:0", "attr": {"num_host_args": {"i": "0"}, "data_format": {"s": "TkhXQw=="}, "filter_format": {"s": "SFdJTw=="}, "fused_ops": {"list": {"s": ["Qmlhc0FkZA==", "UmVsdTY="]}}, "num_args": {"i": "1"}, "strides": {"list": {"i": ["1", "1", "1", "1"]}}, "TArgs": {"list": {"type": ["DT_FLOAT"]}}, "padding": {"s": "U0FNRQ=="}, "use_cudnn_on_gpu": {"b": true}, "leakyrelu_alpha": {"f": 0.2}, "epsilon": {"f": 0.0}, "T": {"type": "DT_FLOAT"}, "explicit_paddings": {"list": {}}, "dilations": {"list": {"i": ["1", "1", "1", "1"]}}}}, {"name": "StatefulPartitionedCall/food_classifier_inference_1/mobilenetv2_0.35_224_1/block_12_depthwise_1/depthwise", "op": "DepthwiseConv2dNative", "input": ["StatefulPartitionedCall/food_classifier_inference_1/mobilenetv2_0.35_224_1/block_12_expand_relu_1/Relu6", "StatefulPartitionedCall/food_classifier_inference_1/mobilenetv2_0.35_224_1/block_12_depthwise_1/depthwise/ReadVariableOp"], "attr": {"padding": {"s": "U0FNRQ=="}, "data_format": {"s": "TkhXQw=="}, "T": {"type": "DT_FLOAT"}, "explicit_paddings": {"list": {}}, "dilations": {"list": {"i": ["1", "1", "1", "1"]}}, "strides": {"list": {"i": ["1", "1", "1", "1"]}}}}, {"name": "StatefulPartitionedCall/food_classifier_inference_1/mobilenetv2_0.35_224_1/block_12_depthwise_BN_1/batchnorm/mul_1", "op": "Mul", "input": ["StatefulPartitionedCall/food_classifier_inference_1/mobilenetv2_0.35_224_1/block_12_depthwise_1/depthwise", "StatefulPartitionedCall/food_classifier_inference_1/mobilenetv2_0.35_224_1/block_12_depthwise_BN_1/batchnorm/mul"], "attr": {"T": {"type": "DT_FLOAT"}}}, {"name": "StatefulPartitionedCall/food_classifier_inference_1/mobilenetv2_0.35_224_1/block_12_depthwise_BN_1/batchnorm/add_1", "op": "AddV2", "input": ["StatefulPartitionedCall/food_classifier_inference_1/mobilenetv2_0.35_224_1/block_12_depthwise_BN_1/batchnorm/mul_1", "StatefulPartitionedCall/food_classifier_inference_1/mobilenetv2_0.35_224_1/block_12_depthwise_BN_1/batchnorm/sub"], "attr": {"T": {"type": "DT_FLOAT"}}}, {"name": "StatefulPartitionedCall/food_classifier_inference_1/mobilenetv2_0.35_224_1/block_12_depthwise_relu_1/Relu6", "op": "Relu6", "input": ["StatefulPartitionedCall/food_classifier_inference_1/mobilenetv2_0.35_224_1/block_12_depthwise_BN_1/batchnorm/add_1"], "attr": {"T": {"type": "DT_FLOAT"}}}, {"name": "StatefulPartitionedCall/food_classifier_inference_1/mobilenetv2_0.35_224_1/block_12_project_BN_1/batchnorm/mul_1", "op": "Conv2D", "input": ["StatefulPartitionedCall/food_classifier_inference_1/mobilenetv2_0.35_224_1/block_12_depthwise_relu_1/Relu6", "StatefulPartitionedCall/food_classifier_inference_1/mobilenetv2_0.35_224_1/block_12_project_1/convolution/merged_input"], "device": "/device:CPU:0", "attr": {"padding": {"s": "U0FNRQ=="}, "data_format": {"s": "TkhXQw=="}, "use_cudnn_on_gpu": {"b": true}, "strides": {"list": {"i": ["1", "1", "1", "1"]}}, "T": {"type": "DT_FLOAT"}, "explicit_paddings": {"list": {}}, "dilations": {"list": {"i": ["1", "1", "1", "1"]}}}}, {"name": "StatefulPartitionedCall/food_classifier_inference_1/mobilenetv2_0.35_224_1/block_12_add_1/ArithmeticOptimizer/AddOpsRewrite_Leaf_1_Add", "op": "AddN", "input": ["StatefulPartitionedCall/food_classifier_inference_1/mobilenetv2_0.35_224_1/block_11_add_1/ArithmeticOptimizer/AddOpsRewrite_Add", "StatefulPartitionedCall/food_classifier_inference_1/mobilenetv2_0.35_224_1/block_12_project_BN_1/batchnorm/mul_1"], "attr": {"N": {"i": "2"}, "T": {"type": "DT_FLOAT"}, "_grappler_ArithmeticOptimizer_AddOpsRewriteStage": {"b": true}}}, {"name": "StatefulPartitionedCall/food_classifier_inference_1/mobilenetv2_0.35_224_1/block_12_add_1/ArithmeticOptimizer/AddOpsRewrite_Add", "op": "AddV2", "input": ["StatefulPartitionedCall/food_classifier_inference_1/mobilenetv2_0.35_224_1/block_12_project_BN_1/batchnorm/sub", "StatefulPartitionedCall/food_classifier_inference_1/mobilenetv2_0.35_224_1/block_12_add_1/ArithmeticOptimizer/AddOpsRewrite_Leaf_1_Add"], "attr": {"T": {"type": "DT_FLOAT"}, "_grappler_ArithmeticOptimizer_AddOpsRewriteStage": {"b": true}}}, {"name": "StatefulPartitionedCall/food_classifier_inference_1/mobilenetv2_0.35_224_1/block_13_expand_relu_1/Relu6", "op": "_FusedConv2D", "input": ["StatefulPartitionedCall/food_classifier_inference_1/mobilenetv2_0.35_224_1/block_12_add_1/ArithmeticOptimizer/AddOpsRewrite_Add", "StatefulPartitionedCall/food_classifier_inference_1/mobilenetv2_0.35_224_1/block_13_expand_1/convolution/merged_input", "StatefulPartitionedCall/food_classifier_inference_1/mobilenetv2_0.35_224_1/block_13_expand_BN_1/batchnorm/sub"], "device": "/device:CPU:0", "attr": {"num_host_args": {"i": "0"}, "data_format": {"s": "TkhXQw=="}, "filter_format": {"s": "SFdJTw=="}, "fused_ops": {"list": {"s": ["Qmlhc0FkZA==", "UmVsdTY="]}}, "num_args": {"i": "1"}, "strides": {"list": {"i": ["1", "1", "1", "1"]}}, "TArgs": {"list": {"type": ["DT_FLOAT"]}}, "padding": {"s": "U0FNRQ=="}, "use_cudnn_on_gpu": {"b": true}, "leakyrelu_alpha": {"f": 0.2}, "epsilon": {"f": 0.0}, "T": {"type": "DT_FLOAT"}, "explicit_paddings": {"list": {}}, "dilations": {"list": {"i": ["1", "1", "1", "1"]}}}}, {"name": "StatefulPartitionedCall/food_classifier_inference_1/mobilenetv2_0.35_224_1/block_13_pad_1/Pad", "op": "Pad", "input": ["StatefulPartitionedCall/food_classifier_inference_1/mobilenetv2_0.35_224_1/block_13_expand_relu_1/Relu6", "StatefulPartitionedCall/food_classifier_inference_1/mobilenetv2_0.35_224_1/block_13_pad_1/Const"], "attr": {"Tpaddings": {"type": "DT_INT32"}, "T": {"type": "DT_FLOAT"}}}, {"name": "StatefulPartitionedCall/food_classifier_inference_1/mobilenetv2_0.35_224_1/block_13_depthwise_1/depthwise", "op": "DepthwiseConv2dNative", "input": ["StatefulPartitionedCall/food_classifier_inference_1/mobilenetv2_0.35_224_1/block_13_pad_1/Pad", "StatefulPartitionedCall/food_classifier_inference_1/mobilenetv2_0.35_224_1/block_13_depthwise_1/depthwise/ReadVariableOp"], "attr": {"padding": {"s": "VkFMSUQ="}, "data_format": {"s": "TkhXQw=="}, "T": {"type": "DT_FLOAT"}, "explicit_paddings": {"list": {}}, "dilations": {"list": {"i": ["1", "1", "1", "1"]}}, "strides": {"list": {"i": ["1", "2", "2", "1"]}}}}, {"name": "StatefulPartitionedCall/food_classifier_inference_1/mobilenetv2_0.35_224_1/block_13_depthwise_BN_1/batchnorm/mul_1", "op": "Mul", "input": ["StatefulPartitionedCall/food_classifier_inference_1/mobilenetv2_0.35_224_1/block_13_depthwise_1/depthwise", "StatefulPartitionedCall/food_classifier_inference_1/mobilenetv2_0.35_224_1/block_13_depthwise_BN_1/batchnorm/mul"], "attr": {"T": {"type": "DT_FLOAT"}}}, {"name": "StatefulPartitionedCall/food_classifier_inference_1/mobilenetv2_0.35_224_1/block_13_depthwise_BN_1/batchnorm/add_1", "op": "AddV2", "input": ["StatefulPartitionedCall/food_classifier_inference_1/mobilenetv2_0.35_224_1/block_13_depthwise_BN_1/batchnorm/mul_1", "StatefulPartitionedCall/food_classifier_inference_1/mobilenetv2_0.35_224_1/block_13_depthwise_BN_1/batchnorm/sub"], "attr": {"T": {"type": "DT_FLOAT"}}}, {"name": "StatefulPartitionedCall/food_classifier_inference_1/mobilenetv2_0.35_224_1/block_13_depthwise_relu_1/Relu6", "op": "Relu6", "input": ["StatefulPartitionedCall/food_classifier_inference_1/mobilenetv2_0.35_224_1/block_13_depthwise_BN_1/batchnorm/add_1"], "attr": {"T": {"type": "DT_FLOAT"}}}, {"name": "StatefulPartitionedCall/food_classifier_inference_1/mobilenetv2_0.35_224_1/block_13_project_BN_1/batchnorm/add_1", "op": "_FusedConv2D", "input": ["StatefulPartitionedCall/food_classifier_inference_1/mobilenetv2_0.35_224_1/block_13_depthwise_relu_1/Relu6", "StatefulPartitionedCall/food_classifier_inference_1/mobilenetv2_0.35_224_1/block_13_project_1/convolution/merged_input", "StatefulPartitionedCall/food_classifier_inference_1/mobilenetv2_0.35_224_1/block_13_project_BN_1/batchnorm/sub"], "device": "/device:CPU:0", "attr": {"num_host_args": {"i": "0"}, "data_format": {"s": "TkhXQw=="}, "filter_format": {"s": "SFdJTw=="}, "fused_ops": {"list": {"s": ["Qmlhc0FkZA=="]}}, "num_args": {"i": "1"}, "strides": {"list": {"i": ["1", "1", "1", "1"]}}, "TArgs": {"list": {"type": ["DT_FLOAT"]}}, "padding": {"s": "U0FNRQ=="}, "use_cudnn_on_gpu": {"b": true}, "leakyrelu_alpha": {"f": 0.2}, "epsilon": {"f": 0.0}, "T": {"type": "DT_FLOAT"}, "explicit_paddings": {"list": {}}, "dilations": {"list": {"i": ["1", "1", "1", "1"]}}}}, {"name": "StatefulPartitionedCall/food_classifier_inference_1/mobilenetv2_0.35_224_1/block_14_expand_relu_1/Relu6", "op": "_FusedConv2D", "input": ["StatefulPartitionedCall/food_classifier_inference_1/mobilenetv2_0.35_224_1/block_13_project_BN_1/batchnorm/add_1", "StatefulPartitionedCall/food_classifier_inference_1/mobilenetv2_0.35_224_1/block_14_expand_1/convolution/merged_input", "StatefulPartitionedCall/food_classifier_inference_1/mobilenetv2_0.35_224_1/block_14_expand_BN_1/batchnorm/sub"], "device": "/device:CPU:0", "attr": {"num_host_args": {"i": "0"}, "data_format": {"s": "TkhXQw=="}, "filter_format": {"s": "SFdJTw=="}, "fused_ops": {"list": {"s": ["Qmlhc0FkZA==", "UmVsdTY="]}}, "num_args": {"i": "1"}, "strides": {"list": {"i": ["1", "1", "1", "1"]}}, "TArgs": {"list": {"type": ["DT_FLOAT"]}}, "padding": {"s": "U0FNRQ=="}, "use_cudnn_on_gpu": {"b": true}, "leakyrelu_alpha": {"f": 0.2}, "epsilon": {"f": 0.0}, "T": {"type": "DT_FLOAT"}, "explicit_paddings": {"list": {}}, "dilations": {"list": {"i": ["1", "1", "1", "1"]}}}}, {"name": "StatefulPartitionedCall/food_classifier_inference_1/mobilenetv2_0.35_224_1/block_14_depthwise_1/depthwise", "op": "DepthwiseConv2dNative", "input": ["StatefulPartitionedCall/food_classifier_inference_1/mobilenetv2_0.35_224_1/block_14_expand_relu_1/Relu6", "StatefulPartitionedCall/food_classifier_inference_1/mobilenetv2_0.35_224_1/block_14_depthwise_1/depthwise/ReadVariableOp"], "attr": {"padding": {"s": "U0FNRQ=="}, "data_format": {"s": "TkhXQw=="}, "T": {"type": "DT_FLOAT"}, "explicit_paddings": {"list": {}}, "dilations": {"list": {"i": ["1", "1", "1", "1"]}}, "strides": {"list": {"i": ["1", "1", "1", "1"]}}}}, {"name": "StatefulPartitionedCall/food_classifier_inference_1/mobilenetv2_0.35_224_1/block_14_depthwise_BN_1/batchnorm/mul_1", "op": "Mul", "input": ["StatefulPartitionedCall/food_classifier_inference_1/mobilenetv2_0.35_224_1/block_14_depthwise_1/depthwise", "StatefulPartitionedCall/food_classifier_inference_1/mobilenetv2_0.35_224_1/block_14_depthwise_BN_1/batchnorm/mul"], "attr": {"T": {"type": "DT_FLOAT"}}}, {"name": "StatefulPartitionedCall/food_classifier_inference_1/mobilenetv2_0.35_224_1/block_14_depthwise_BN_1/batchnorm/add_1", "op": "AddV2", "input": ["StatefulPartitionedCall/food_classifier_inference_1/mobilenetv2_0.35_224_1/block_14_depthwise_BN_1/batchnorm/mul_1", "StatefulPartitionedCall/food_classifier_inference_1/mobilenetv2_0.35_224_1/block_14_depthwise_BN_1/batchnorm/sub"], "attr": {"T": {"type": "DT_FLOAT"}}}, {"name": "StatefulPartitionedCall/food_classifier_inference_1/mobilenetv2_0.35_224_1/block_14_depthwise_relu_1/Relu6", "op": "Relu6", "input": ["StatefulPartitionedCall/food_classifier_inference_1/mobilenetv2_0.35_224_1/block_14_depthwise_BN_1/batchnorm/add_1"], "attr": {"T": {"type": "DT_FLOAT"}}}, {"name": "StatefulPartitionedCall/food_classifier_inference_1/mobilenetv2_0.35_224_1/block_14_project_BN_1/batchnorm/mul_1", "op": "Conv2D", "input": ["StatefulPartitionedCall/food_classifier_inference_1/mobilenetv2_0.35_224_1/block_14_depthwise_relu_1/Relu6", "StatefulPartitionedCall/food_classifier_inference_1/mobilenetv2_0.35_224_1/block_14_project_1/convolution/merged_input"], "device": "/device:CPU:0", "attr": {"padding": {"s": "U0FNRQ=="}, "data_format": {"s": "TkhXQw=="}, "strides": {"list": {"i": ["1", "1", "1", "1"]}}, "use_cudnn_on_gpu": {"b": true}, "T": {"type": "DT_FLOAT"}, "explicit_paddings": {"list": {}}, "dilations": {"list": {"i": ["1", "1", "1", "1"]}}}}, {"name": "StatefulPartitionedCall/food_classifier_inference_1/mobilenetv2_0.35_224_1/block_14_add_1/ArithmeticOptimizer/AddOpsRewrite_Leaf_1_Add", "op": "AddN", "input": ["StatefulPartitionedCall/food_classifier_inference_1/mobilenetv2_0.35_224_1/block_13_project_BN_1/batchnorm/add_1", "StatefulPartitionedCall/food_classifier_inference_1/mobilenetv2_0.35_224_1/block_14_project_BN_1/batchnorm/mul_1"], "attr": {"N": {"i": "2"}, "T": {"type": "DT_FLOAT"}, "_grappler_ArithmeticOptimizer_AddOpsRewriteStage": {"b": true}}}, {"name": "StatefulPartitionedCall/food_classifier_inference_1/mobilenetv2_0.35_224_1/block_14_add_1/ArithmeticOptimizer/AddOpsRewrite_Add", "op": "AddV2", "input": ["StatefulPartitionedCall/food_classifier_inference_1/mobilenetv2_0.35_224_1/block_14_project_BN_1/batchnorm/sub", "StatefulPartitionedCall/food_classifier_inference_1/mobilenetv2_0.35_224_1/block_14_add_1/ArithmeticOptimizer/AddOpsRewrite_Leaf_1_Add"], "attr": {"T": {"type": "DT_FLOAT"}, "_grappler_ArithmeticOptimizer_AddOpsRewriteStage": {"b": true}}}, {"name": "StatefulPartitionedCall/food_classifier_inference_1/mobilenetv2_0.35_224_1/block_15_expand_relu_1/Relu6", "op": "_FusedConv2D", "input": ["StatefulPartitionedCall/food_classifier_inference_1/mobilenetv2_0.35_224_1/block_14_add_1/ArithmeticOptimizer/AddOpsRewrite_Add", "StatefulPartitionedCall/food_classifier_inference_1/mobilenetv2_0.35_224_1/block_15_expand_1/convolution/merged_input", "StatefulPartitionedCall/food_classifier_inference_1/mobilenetv2_0.35_224_1/block_15_expand_BN_1/batchnorm/sub"], "device": "/device:CPU:0", "attr": {"num_host_args": {"i": "0"}, "data_format": {"s": "TkhXQw=="}, "filter_format": {"s": "SFdJTw=="}, "fused_ops": {"list": {"s": ["Qmlhc0FkZA==", "UmVsdTY="]}}, "num_args": {"i": "1"}, "strides": {"list": {"i": ["1", "1", "1", "1"]}}, "TArgs": {"list": {"type": ["DT_FLOAT"]}}, "padding": {"s": "U0FNRQ=="}, "use_cudnn_on_gpu": {"b": true}, "leakyrelu_alpha": {"f": 0.2}, "epsilon": {"f": 0.0}, "T": {"type": "DT_FLOAT"}, "explicit_paddings": {"list": {}}, "dilations": {"list": {"i": ["1", "1", "1", "1"]}}}}, {"name": "StatefulPartitionedCall/food_classifier_inference_1/mobilenetv2_0.35_224_1/block_15_depthwise_1/depthwise", "op": "DepthwiseConv2dNative", "input": ["StatefulPartitionedCall/food_classifier_inference_1/mobilenetv2_0.35_224_1/block_15_expand_relu_1/Relu6", "StatefulPartitionedCall/food_classifier_inference_1/mobilenetv2_0.35_224_1/block_15_depthwise_1/depthwise/ReadVariableOp"], "attr": {"padding": {"s": "U0FNRQ=="}, "data_format": {"s": "TkhXQw=="}, "T": {"type": "DT_FLOAT"}, "explicit_paddings": {"list": {}}, "dilations": {"list": {"i": ["1", "1", "1", "1"]}}, "strides": {"list": {"i": ["1", "1", "1", "1"]}}}}, {"name": "StatefulPartitionedCall/food_classifier_inference_1/mobilenetv2_0.35_224_1/block_15_depthwise_BN_1/batchnorm/mul_1", "op": "Mul", "input": ["StatefulPartitionedCall/food_classifier_inference_1/mobilenetv2_0.35_224_1/block_15_depthwise_1/depthwise", "StatefulPartitionedCall/food_classifier_inference_1/mobilenetv2_0.35_224_1/block_15_depthwise_BN_1/batchnorm/mul"], "attr": {"T": {"type": "DT_FLOAT"}}}, {"name": "StatefulPartitionedCall/food_classifier_inference_1/mobilenetv2_0.35_224_1/block_15_depthwise_BN_1/batchnorm/add_1", "op": "AddV2", "input": ["StatefulPartitionedCall/food_classifier_inference_1/mobilenetv2_0.35_224_1/block_15_depthwise_BN_1/batchnorm/mul_1", "StatefulPartitionedCall/food_classifier_inference_1/mobilenetv2_0.35_224_1/block_15_depthwise_BN_1/batchnorm/sub"], "attr": {"T": {"type": "DT_FLOAT"}}}, {"name": "StatefulPartitionedCall/food_classifier_inference_1/mobilenetv2_0.35_224_1/block_15_depthwise_relu_1/Relu6", "op": "Relu6", "input": ["StatefulPartitionedCall/food_classifier_inference_1/mobilenetv2_0.35_224_1/block_15_depthwise_BN_1/batchnorm/add_1"], "attr": {"T": {"type": "DT_FLOAT"}}}, {"name": "StatefulPartitionedCall/food_classifier_inference_1/mobilenetv2_0.35_224_1/block_15_project_BN_1/batchnorm/mul_1", "op": "Conv2D", "input": ["StatefulPartitionedCall/food_classifier_inference_1/mobilenetv2_0.35_224_1/block_15_depthwise_relu_1/Relu6", "StatefulPartitionedCall/food_classifier_inference_1/mobilenetv2_0.35_224_1/block_15_project_1/convolution/merged_input"], "device": "/device:CPU:0", "attr": {"padding": {"s": "U0FNRQ=="}, "data_format": {"s": "TkhXQw=="}, "strides": {"list": {"i": ["1", "1", "1", "1"]}}, "use_cudnn_on_gpu": {"b": true}, "T": {"type": "DT_FLOAT"}, "explicit_paddings": {"list": {}}, "dilations": {"list": {"i": ["1", "1", "1", "1"]}}}}, {"name": "StatefulPartitionedCall/food_classifier_inference_1/mobilenetv2_0.35_224_1/block_15_add_1/ArithmeticOptimizer/AddOpsRewrite_Leaf_1_Add", "op": "AddN", "input": ["StatefulPartitionedCall/food_classifier_inference_1/mobilenetv2_0.35_224_1/block_14_add_1/ArithmeticOptimizer/AddOpsRewrite_Add", "StatefulPartitionedCall/food_classifier_inference_1/mobilenetv2_0.35_224_1/block_15_project_BN_1/batchnorm/mul_1"], "attr": {"N": {"i": "2"}, "T": {"type": "DT_FLOAT"}, "_grappler_ArithmeticOptimizer_AddOpsRewriteStage": {"b": true}}}, {"name": "StatefulPartitionedCall/food_classifier_inference_1/mobilenetv2_0.35_224_1/block_15_add_1/ArithmeticOptimizer/AddOpsRewrite_Add", "op": "AddV2", "input": ["StatefulPartitionedCall/food_classifier_inference_1/mobilenetv2_0.35_224_1/block_15_project_BN_1/batchnorm/sub", "StatefulPartitionedCall/food_classifier_inference_1/mobilenetv2_0.35_224_1/block_15_add_1/ArithmeticOptimizer/AddOpsRewrite_Leaf_1_Add"], "attr": {"T": {"type": "DT_FLOAT"}, "_grappler_ArithmeticOptimizer_AddOpsRewriteStage": {"b": true}}}, {"name": "StatefulPartitionedCall/food_classifier_inference_1/mobilenetv2_0.35_224_1/block_16_expand_relu_1/Relu6", "op": "_FusedConv2D", "input": ["StatefulPartitionedCall/food_classifier_inference_1/mobilenetv2_0.35_224_1/block_15_add_1/ArithmeticOptimizer/AddOpsRewrite_Add", "StatefulPartitionedCall/food_classifier_inference_1/mobilenetv2_0.35_224_1/block_16_expand_1/convolution/merged_input", "StatefulPartitionedCall/food_classifier_inference_1/mobilenetv2_0.35_224_1/block_16_expand_BN_1/batchnorm/sub"], "device": "/device:CPU:0", "attr": {"num_host_args": {"i": "0"}, "data_format": {"s": "TkhXQw=="}, "filter_format": {"s": "SFdJTw=="}, "fused_ops": {"list": {"s": ["Qmlhc0FkZA==", "UmVsdTY="]}}, "num_args": {"i": "1"}, "strides": {"list": {"i": ["1", "1", "1", "1"]}}, "TArgs": {"list": {"type": ["DT_FLOAT"]}}, "padding": {"s": "U0FNRQ=="}, "use_cudnn_on_gpu": {"b": true}, "leakyrelu_alpha": {"f": 0.2}, "epsilon": {"f": 0.0}, "T": {"type": "DT_FLOAT"}, "explicit_paddings": {"list": {}}, "dilations": {"list": {"i": ["1", "1", "1", "1"]}}}}, {"name": "StatefulPartitionedCall/food_classifier_inference_1/mobilenetv2_0.35_224_1/block_16_depthwise_1/depthwise", "op": "DepthwiseConv2dNative", "input": ["StatefulPartitionedCall/food_classifier_inference_1/mobilenetv2_0.35_224_1/block_16_expand_relu_1/Relu6", "StatefulPartitionedCall/food_classifier_inference_1/mobilenetv2_0.35_224_1/block_16_depthwise_1/depthwise/ReadVariableOp"], "attr": {"padding": {"s": "U0FNRQ=="}, "data_format": {"s": "TkhXQw=="}, "T": {"type": "DT_FLOAT"}, "explicit_paddings": {"list": {}}, "dilations": {"list": {"i": ["1", "1", "1", "1"]}}, "strides": {"list": {"i": ["1", "1", "1", "1"]}}}}, {"name": "StatefulPartitionedCall/food_classifier_inference_1/mobilenetv2_0.35_224_1/block_16_depthwise_BN_1/batchnorm/mul_1", "op": "Mul", "input": ["StatefulPartitionedCall/food_classifier_inference_1/mobilenetv2_0.35_224_1/block_16_depthwise_1/depthwise", "StatefulPartitionedCall/food_classifier_inference_1/mobilenetv2_0.35_224_1/block_16_depthwise_BN_1/batchnorm/mul"], "attr": {"T": {"type": "DT_FLOAT"}}}, {"name": "StatefulPartitionedCall/food_classifier_inference_1/mobilenetv2_0.35_224_1/block_16_depthwise_BN_1/batchnorm/add_1", "op": "AddV2", "input": ["StatefulPartitionedCall/food_classifier_inference_1/mobilenetv2_0.35_224_1/block_16_depthwise_BN_1/batchnorm/mul_1", "StatefulPartitionedCall/food_classifier_inference_1/mobilenetv2_0.35_224_1/block_16_depthwise_BN_1/batchnorm/sub"], "attr": {"T": {"type": "DT_FLOAT"}}}, {"name": "StatefulPartitionedCall/food_classifier_inference_1/mobilenetv2_0.35_224_1/block_16_depthwise_relu_1/Relu6", "op": "Relu6", "input": ["StatefulPartitionedCall/food_classifier_inference_1/mobilenetv2_0.35_224_1/block_16_depthwise_BN_1/batchnorm/add_1"], "attr": {"T": {"type": "DT_FLOAT"}}}, {"name": "StatefulPartitionedCall/food_classifier_inference_1/mobilenetv2_0.35_224_1/block_16_project_BN_1/batchnorm/add_1", "op": "_FusedConv2D", "input": ["StatefulPartitionedCall/food_classifier_inference_1/mobilenetv2_0.35_224_1/block_16_depthwise_relu_1/Relu6", "StatefulPartitionedCall/food_classifier_inference_1/mobilenetv2_0.35_224_1/block_16_project_1/convolution/merged_input", "StatefulPartitionedCall/food_classifier_inference_1/mobilenetv2_0.35_224_1/block_16_project_BN_1/batchnorm/sub"], "device": "/device:CPU:0", "attr": {"num_host_args": {"i": "0"}, "data_format": {"s": "TkhXQw=="}, "filter_format": {"s": "SFdJTw=="}, "fused_ops": {"list": {"s": ["Qmlhc0FkZA=="]}}, "num_args": {"i": "1"}, "strides": {"list": {"i": ["1", "1", "1", "1"]}}, "TArgs": {"list": {"type": ["DT_FLOAT"]}}, "padding": {"s": "U0FNRQ=="}, "use_cudnn_on_gpu": {"b": true}, "leakyrelu_alpha": {"f": 0.2}, "epsilon": {"f": 0.0}, "T": {"type": "DT_FLOAT"}, "explicit_paddings": {"list": {}}, "dilations": {"list": {"i": ["1", "1", "1", "1"]}}}}, {"name": "StatefulPartitionedCall/food_classifier_inference_1/mobilenetv2_0.35_224_1/out_relu_1/Relu6", "op": "_FusedConv2D", "input": ["StatefulPartitionedCall/food_classifier_inference_1/mobilenetv2_0.35_224_1/block_16_project_BN_1/batchnorm/add_1", "StatefulPartitionedCall/food_classifier_inference_1/mobilenetv2_0.35_224_1/Conv_1_1/convolution/merged_input", "StatefulPartitionedCall/food_classifier_inference_1/mobilenetv2_0.35_224_1/Conv_1_bn_1/batchnorm/sub"], "device": "/device:CPU:0", "attr": {"num_host_args": {"i": "0"}, "data_format": {"s": "TkhXQw=="}, "filter_format": {"s": "SFdJTw=="}, "strides": {"list": {"i": ["1", "1", "1", "1"]}}, "num_args": {"i": "1"}, "fused_ops": {"list": {"s": ["Qmlhc0FkZA==", "UmVsdTY="]}}, "TArgs": {"list": {"type": ["DT_FLOAT"]}}, "padding": {"s": "VkFMSUQ="}, "use_cudnn_on_gpu": {"b": true}, "leakyrelu_alpha": {"f": 0.2}, "epsilon": {"f": 0.0}, "T": {"type": "DT_FLOAT"}, "explicit_paddings": {"list": {}}, "dilations": {"list": {"i": ["1", "1", "1", "1"]}}}}, {"name": "StatefulPartitionedCall/food_classifier_inference_1/avg_pool_1/Mean", "op": "Mean", "input": ["StatefulPartitionedCall/food_classifier_inference_1/mobilenetv2_0.35_224_1/out_relu_1/Relu6", "StatefulPartitionedCall/food_classifier_inference_1/avg_pool_1/Mean/reduction_indices"], "attr": {"Tidx": {"type": "DT_INT32"}, "T": {"type": "DT_FLOAT"}, "keep_dims": {"b": false}}}, {"name": "StatefulPartitionedCall/food_classifier_inference_1/batch_normalization_1/batchnorm/mul_1", "op": "Mul", "input": ["StatefulPartitionedCall/food_classifier_inference_1/avg_pool_1/Mean", "StatefulPartitionedCall/food_classifier_inference_1/batch_normalization_1/batchnorm/mul"], "attr": {"T": {"type": "DT_FLOAT"}}}, {"name": "StatefulPartitionedCall/food_classifier_inference_1/batch_normalization_1/batchnorm/add_1", "op": "AddV2", "input": ["StatefulPartitionedCall/food_classifier_inference_1/batch_normalization_1/batchnorm/mul_1", "StatefulPartitionedCall/food_classifier_inference_1/batch_normalization_1/batchnorm/sub"], "attr": {"T": {"type": "DT_FLOAT"}}}, {"name": "StatefulPartitionedCall/food_classifier_inference_1/dense_1/BiasAdd", "op": "_FusedMatMul", "input": ["StatefulPartitionedCall/food_classifier_inference_1/batch_normalization_1/batchnorm/add_1", "StatefulPartitionedCall/food_classifier_inference_1/dense_1/Cast/ReadVariableOp", "StatefulPartitionedCall/food_classifier_inference_1/dense_1/BiasAdd/ReadVariableOp"], "device": "/device:CPU:0", "attr": {"transpose_a": {"b": false}, "transpose_b": {"b": false}, "fused_ops": {"list": {"s": ["Qmlhc0FkZA=="]}}, "num_args": {"i": "1"}, "leakyrelu_alpha": {"f": 0.2}, "epsilon": {"f": 0.0}, "T": {"type": "DT_FLOAT"}}}, {"name": "StatefulPartitionedCall/food_classifier_inference_1/dense_1/Softmax", "op": "Softmax", "input": ["StatefulPartitionedCall/food_classifier_inference_1/dense_1/BiasAdd"], "attr": {"T": {"type": "DT_FLOAT"}}}, {"name": "Identity", "op": "Identity", "input": ["StatefulPartitionedCall/food_classifier_inference_1/dense_1/Softmax"], "attr": {"T": {"type": "DT_FLOAT"}}}], "library": {}, "versions": {"producer": 2129}}, "weightsManifest": [{"paths": ["group1-shard1of1.bin"], "weights": [{"name": "StatefulPartitionedCall/food_classifier_inference_1/mobilenetv2_0.35_224_1/block_15_project_BN_1/batchnorm/sub", "shape": [56], "dtype": "float32"}, {"name": "StatefulPartitionedCall/food_classifier_inference_1/mobilenetv2_0.35_224_1/block_14_project_BN_1/batchnorm/sub", "shape": [56], "dtype": "float32"}, {"name": "StatefulPartitionedCall/food_classifier_inference_1/mobilenetv2_0.35_224_1/block_12_project_BN_1/batchnorm/sub", "shape": [32], "dtype": "float32"}, {"name": "StatefulPartitionedCall/food_classifier_inference_1/mobilenetv2_0.35_224_1/block_11_project_BN_1/batchnorm/sub", "shape": [32], "dtype": "float32"}, {"name": "StatefulPartitionedCall/food_classifier_inference_1/mobilenetv2_0.35_224_1/block_9_project_BN_1/batchnorm/sub", "shape": [24], "dtype": "float32"}, {"name": "StatefulPartitionedCall/food_classifier_inference_1/mobilenetv2_0.35_224_1/block_8_project_BN_1/batchnorm/sub", "shape": [24], "dtype": "float32"}, {"name": "StatefulPartitionedCall/food_classifier_inference_1/mobilenetv2_0.35_224_1/block_7_project_BN_1/batchnorm/sub", "shape": [24], "dtype": "float32"}, {"name": "StatefulPartitionedCall/food_classifier_inference_1/mobilenetv2_0.35_224_1/block_5_project_BN_1/batchnorm/sub", "shape": [16], "dtype": "float32"}, {"name": "StatefulPartitionedCall/food_classifier_inference_1/mobilenetv2_0.35_224_1/block_4_project_BN_1/batchnorm/sub", "shape": [16], "dtype": "float32"}, {"name": "StatefulPartitionedCall/food_classifier_inference_1/mobilenetv2_0.35_224_1/block_2_project_BN_1/batchnorm/sub", "shape": [8], "dtype": "float32"}, {"name": "ConstantFolding/StatefulPartitionedCall/food_classifier_inference_1/backbone_preprocess_1/truediv_recip", "shape": [], "dtype": "float32"}, {"name": "StatefulPartitionedCall/food_classifier_inference_1/backbone_preprocess_1/sub/y", "shape": [], "dtype": "float32"}, {"name": "StatefulPartitionedCall/food_classifier_inference_1/mobilenetv2_0.35_224_1/Conv1_1/convolution/merged_input", "shape": [3, 3, 3, 16], "dtype": "float32"}, {"name": "StatefulPartitionedCall/food_classifier_inference_1/mobilenetv2_0.35_224_1/bn_Conv1_1/batchnorm/sub", "shape": [16], "dtype": "float32"}, {"name": "StatefulPartitionedCall/food_classifier_inference_1/mobilenetv2_0.35_224_1/expanded_conv_depthwise_1/depthwise/ReadVariableOp", "shape": [3, 3, 16, 1], "dtype": "float32"}, {"name": "StatefulPartitionedCall/food_classifier_inference_1/mobilenetv2_0.35_224_1/expanded_conv_depthwise_BN_1/batchnorm/mul", "shape": [16], "dtype": "float32"}, {"name": "StatefulPartitionedCall/food_classifier_inference_1/mobilenetv2_0.35_224_1/expanded_conv_depthwise_BN_1/batchnorm/sub", "shape": [16], "dtype": "float32"}, {"name": "StatefulPartitionedCall/food_classifier_inference_1/mobilenetv2_0.35_224_1/expanded_conv_project_1/convolution/merged_input", "shape": [1, 1, 16, 8], "dtype": "float32"}, {"name": "StatefulPartitionedCall/food_classifier_inference_1/mobilenetv2_0.35_224_1/expanded_conv_project_BN_1/batchnorm/sub", "shape": [8], "dtype": "float32"}, {"name": "StatefulPartitionedCall/food_classifier_inference_1/mobilenetv2_0.35_224_1/block_1_expand_1/convolution/merged_input", "shape": [1, 1, 8, 48], "dtype": "float32"}, {"name": "StatefulPartitionedCall/food_classifier_inference_1/mobilenetv2_0.35_224_1/block_1_expand_BN_1/batchnorm/sub", "shape": [48], "dtype": "float32"}, {"name": "StatefulPartitionedCall/food_classifier_inference_1/mobilenetv2_0.35_224_1/block_1_pad_1/Const", "shape": [4, 2], "dtype": "int32"}, {"name": "StatefulPartitionedCall/food_classifier_inference_1/mobilenetv2_0.35_224_1/block_1_depthwise_1/depthwise/ReadVariableOp", "shape": [3, 3, 48, 1], "dtype": "float32"}, {"name": "StatefulPartitionedCall/food_classifier_inference_1/mobilenetv2_0.35_224_1/block_1_depthwise_BN_1/batchnorm/mul", "shape": [48], "dtype": "float32"}, {"name": "StatefulPartitionedCall/food_classifier_inference_1/mobilenetv2_0.35_224_1/block_1_depthwise_BN_1/batchnorm/sub", "shape": [48], "dtype": "float32"}, {"name": "StatefulPartitionedCall/food_classifier_inference_1/mobilenetv2_0.35_224_1/block_1_project_1/convolution/merged_input", "shape": [1, 1, 48, 8], "dtype": "float32"}, {"name": "StatefulPartitionedCall/food_classifier_inference_1/mobilenetv2_0.35_224_1/block_1_project_BN_1/batchnorm/sub", "shape": [8], "dtype": "float32"}, {"name": "StatefulPartitionedCall/food_classifier_inference_1/mobilenetv2_0.35_224_1/block_2_expand_1/convolution/merged_input", "shape": [1, 1, 8, 48], "dtype": "float32"}, {"name": "StatefulPartitionedCall/food_classifier_inference_1/mobilenetv2_0.35_224_1/block_2_expand_BN_1/batchnorm/sub", "shape": [48], "dtype": "float32"}, {"name": "StatefulPartitionedCall/food_classifier_inference_1/mobilenetv2_0.35_224_1/block_2_depthwise_1/depthwise/ReadVariableOp", "shape": [3, 3, 48, 1], "dtype": "float32"}, {"name": "StatefulPartitionedCall/food_classifier_inference_1/mobilenetv2_0.35_224_1/block_2_depthwise_BN_1/batchnorm/mul", "shape": [48], "dtype": "float32"}, {"name": "StatefulPartitionedCall/food_classifier_inference_1/mobilenetv2_0.35_224_1/block_2_depthwise_BN_1/batchnorm/sub", "shape": [48], "dtype": "float32"}, {"name": "StatefulPartitionedCall/food_classifier_inference_1/mobilenetv2_0.35_224_1/block_2_project_1/convolution/merged_input", "shape": [1, 1, 48, 8], "dtype": "float32"}, {"name": "StatefulPartitionedCall/food_classifier_inference_1/mobilenetv2_0.35_224_1/block_3_expand_1/convolution/merged_input", "shape": [1, 1, 8, 48], "dtype": "float32"}, {"name": "StatefulPartitionedCall/food_classifier_inference_1/mobilenetv2_0.35_224_1/block_3_expand_BN_1/batchnorm/sub", "shape": [48], "dtype": "float32"}, {"name": "StatefulPartitionedCall/food_classifier_inference_1/mobilenetv2_0.35_224_1/block_3_pad_1/Const", "shape": [4, 2], "dtype": "int32"}, {"name": "StatefulPartitionedCall/food_classifier_inference_1/mobilenetv2_0.35_224_1/block_3_depthwise_1/depthwise/ReadVariableOp", "shape": [3, 3, 48, 1], "dtype": "float32"}, {"name": "StatefulPartitionedCall/food_classifier_inference_1/mobilenetv2_0.35_224_1/block_3_depthwise_BN_1/batchnorm/mul", "shape": [48], "dtype": "float32"}, {"name": "StatefulPartitionedCall/food_classifier_inference_1/mobilenetv2_0.35_224_1/block_3_depthwise_BN_1/batchnorm/sub", "shape": [48], "dtype": "float32"}, {"name": "StatefulPartitionedCall/food_classifier_inference_1/mobilenetv2_0.35_224_1/block_3_project_1/convolution/merged_input", "shape": [1, 1, 48, 16], "dtype": "float32"}, {"name": "StatefulPartitionedCall/food_classifier_inference_1/mobilenetv2_0.35_224_1/block_3_project_BN_1/batchnorm/sub", "shape": [16], "dtype": "float32"}, {"name": "StatefulPartitionedCall/food_classifier_inference_1/mobilenetv2_0.35_224_1/block_4_expand_1/convolution/merged_input", "shape": [1, 1, 16, 96], "dtype": "float32"}, {"name": "StatefulPartitionedCall/food_classifier_inference_1/mobilenetv2_0.35_224_1/block_4_expand_BN_1/batchnorm/sub", "shape": [96], "dtype": "float32"}, {"name": "StatefulPartitionedCall/food_classifier_inference_1/mobilenetv2_0.35_224_1/block_4_depthwise_1/depthwise/ReadVariableOp", "shape": [3, 3, 96, 1], "dtype": "float32"}, {"name": "StatefulPartitionedCall/food_classifier_inference_1/mobilenetv2_0.35_224_1/block_4_depthwise_BN_1/batchnorm/mul", "shape": [96], "dtype": "float32"}, {"name": "StatefulPartitionedCall/food_classifier_inference_1/mobilenetv2_0.35_224_1/block_4_depthwise_BN_1/batchnorm/sub", "shape": [96], "dtype": "float32"}, {"name": "StatefulPartitionedCall/food_classifier_inference_1/mobilenetv2_0.35_224_1/block_4_project_1/convolution/merged_input", "shape": [1, 1, 96, 16], "dtype": "float32"}, {"name": "StatefulPartitionedCall/food_classifier_inference_1/mobilenetv2_0.35_224_1/block_5_expand_1/convolution/merged_input", "shape": [1, 1, 16, 96], "dtype": "float32"}, {"name": "StatefulPartitionedCall/food_classifier_inference_1/mobilenetv2_0.35_224_1/block_5_expand_BN_1/batchnorm/sub", "shape": [96], "dtype": "float32"}, {"name": "StatefulPartitionedCall/food_classifier_inference_1/mobilenetv2_0.35_224_1/block_5_depthwise_1/depthwise/ReadVariableOp", "shape": [3, 3, 96, 1], "dtype": "float32"}, {"name": "StatefulPartitionedCall/food_classifier_inference_1/mobilenetv2_0.35_224_1/block_5_depthwise_BN_1/batchnorm/mul", "shape": [96], "dtype": "float32"}, {"name": "StatefulPartitionedCall/food_classifier_inference_1/mobilenetv2_0.35_224_1/block_5_depthwise_BN_1/batchnorm/sub", "shape": [96], "dtype": "float32"}, {"name": "StatefulPartitionedCall/food_classifier_inference_1/mobilenetv2_0.35_224_1/block_5_project_1/convolution/merged_input", "shape": [1, 1, 96, 16], "dtype": "float32"}, {"name": "StatefulPartitionedCall/food_classifier_inference_1/mobilenetv2_0.35_224_1/block_6_expand_1/convolution/merged_input", "shape": [1, 1, 16, 96], "dtype": "float32"}, {"name": "StatefulPartitionedCall/food_classifier_inference_1/mobilenetv2_0.35_224_1/block_6_expand_BN_1/batchnorm/sub", "shape": [96], "dtype": "float32"}, {"name": "StatefulPartitionedCall/food_classifier_inference_1/mobilenetv2_0.35_224_1/block_6_pad_1/Const", "shape": [4, 2], "dtype": "int32"}, {"name": "StatefulPartitionedCall/food_classifier_inference_1/mobilenetv2_0.35_224_1/block_6_depthwise_1/depthwise/ReadVariableOp", "shape": [3, 3, 96, 1], "dtype": "float32"}, {"name": "StatefulPartitionedCall/food_classifier_inference_1/mobilenetv2_0.35_224_1/block_6_depthwise_BN_1/batchnorm/mul", "shape": [96], "dtype": "float32"}, {"name": "StatefulPartitionedCall/food_classifier_inference_1/mobilenetv2_0.35_224_1/block_6_depthwise_BN_1/batchnorm/sub", "shape": [96], "dtype": "float32"}, {"name": "StatefulPartitionedCall/food_classifier_inference_1/mobilenetv2_0.35_224_1/block_6_project_1/convolution/merged_input", "shape": [1, 1, 96, 24], "dtype": "float32"}, {"name": "StatefulPartitionedCall/food_classifier_inference_1/mobilenetv2_0.35_224_1/block_6_project_BN_1/batchnorm/sub", "shape": [24], "dtype": "float32"}, {"name": "StatefulPartitionedCall/food_classifier_inference_1/mobilenetv2_0.35_224_1/block_7_expand_1/convolution/merged_input", "shape": [1, 1, 24, 144], "dtype": "float32"}, {"name": "StatefulPartitionedCall/food_classifier_inference_1/mobilenetv2_0.35_224_1/block_7_expand_BN_1/batchnorm/sub", "shape": [144], "dtype": "float32"}, {"name": "StatefulPartitionedCall/food_classifier_inference_1/mobilenetv2_0.35_224_1/block_7_depthwise_1/depthwise/ReadVariableOp", "shape": [3, 3, 144, 1], "dtype": "float32"}, {"name": "StatefulPartitionedCall/food_classifier_inference_1/mobilenetv2_0.35_224_1/block_7_depthwise_BN_1/batchnorm/mul", "shape": [144], "dtype": "float32"}, {"name": "StatefulPartitionedCall/food_classifier_inference_1/mobilenetv2_0.35_224_1/block_7_depthwise_BN_1/batchnorm/sub", "shape": [144], "dtype": "float32"}, {"name": "StatefulPartitionedCall/food_classifier_inference_1/mobilenetv2_0.35_224_1/block_7_project_1/convolution/merged_input", "shape": [1, 1, 144, 24], "dtype": "float32"}, {"name": "StatefulPartitionedCall/food_classifier_inference_1/mobilenetv2_0.35_224_1/block_8_expand_1/convolution/merged_input", "shape": [1, 1, 24, 144], "dtype": "float32"}, {"name": "StatefulPartitionedCall/food_classifier_inference_1/mobilenetv2_0.35_224_1/block_8_expand_BN_1/batchnorm/sub", "shape": [144], "dtype": "float32"}, {"name": "StatefulPartitionedCall/food_classifier_inference_1/mobilenetv2_0.35_224_1/block_8_depthwise_1/depthwise/ReadVariableOp", "shape": [3, 3, 144, 1], "dtype": "float32"}, {"name": "StatefulPartitionedCall/food_classifier_inference_1/mobilenetv2_0.35_224_1/block_8_depthwise_BN_1/batchnorm/mul", "shape": [144], "dtype": "float32"}, {"name": "StatefulPartitionedCall/food_classifier_inference_1/mobilenetv2_0.35_224_1/block_8_depthwise_BN_1/batchnorm/sub", "shape": [144], "dtype": "float32"}, {"name": "StatefulPartitionedCall/food_classifier_inference_1/mobilenetv2_0.35_224_1/block_8_project_1/convolution/merged_input", "shape": [1, 1, 144, 24], "dtype": "float32"}, {"name": "StatefulPartitionedCall/food_classifier_inference_1/mobilenetv2_0.35_224_1/block_9_expand_1/convolution/merged_input", "shape": [1, 1, 24, 144], "dtype": "float32"}, {"name": "StatefulPartitionedCall/food_classifier_inference_1/mobilenetv2_0.35_224_1/block_9_expand_BN_1/batchnorm/sub", "shape": [144], "dtype": "float32"}, {"name": "StatefulPartitionedCall/food_classifier_inference_1/mobilenetv2_0.35_224_1/block_9_depthwise_1/depthwise/ReadVariableOp", "shape": [3, 3, 144, 1], "dtype": "float32"}, {"name": "StatefulPartitionedCall/food_classifier_inference_1/mobilenetv2_0.35_224_1/block_9_depthwise_BN_1/batchnorm/mul", "shape": [144], "dtype": "float32"}, {"name": "StatefulPartitionedCall/food_classifier_inference_1/mobilenetv2_0.35_224_1/block_9_depthwise_BN_1/batchnorm/sub", "shape": [144], "dtype": "float32"}, {"name": "StatefulPartitionedCall/food_classifier_inference_1/mobilenetv2_0.35_224_1/block_9_project_1/convolution/merged_input", "shape": [1, 1, 144, 24], "dtype": "float32"}, {"name": "StatefulPartitionedCall/food_classifier_inference_1/mobilenetv2_0.35_224_1/block_10_expand_1/convolution/merged_input", "shape": [1, 1, 24, 144], "dtype": "float32"}, {"name": "StatefulPartitionedCall/food_classifier_inference_1/mobilenetv2_0.35_224_1/block_10_expand_BN_1/batchnorm/sub", "shape": [144], "dtype": "float32"}, {"name": "StatefulPartitionedCall/food_classifier_inference_1/mobilenetv2_0.35_224_1/block_10_depthwise_1/depthwise/ReadVariableOp", "shape": [3, 3, 144, 1], "dtype": "float32"}, {"name": "StatefulPartitionedCall/food_classifier_inference_1/mobilenetv2_0.35_224_1/block_10_depthwise_BN_1/batchnorm/mul", "shape": [144], "dtype": "float32"}, {"name": "StatefulPartitionedCall/food_classifier_inference_1/mobilenetv2_0.35_224_1/block_10_depthwise_BN_1/batchnorm/sub", "shape": [144], "dtype": "float32"}, {"name": "StatefulPartitionedCall/food_classifier_inference_1/mobilenetv2_0.35_224_1/block_10_project_1/convolution/merged_input", "shape": [1, 1, 144, 32], "dtype": "float32"}, {"name": "StatefulPartitionedCall/food_classifier_inference_1/mobilenetv2_0.35_224_1/block_10_project_BN_1/batchnorm/sub", "shape": [32], "dtype": "float32"}, {"name": "StatefulPartitionedCall/food_classifier_inference_1/mobilenetv2_0.35_224_1/block_11_expand_1/convolution/merged_input", "shape": [1, 1, 32, 192], "dtype": "float32"}, {"name": "StatefulPartitionedCall/food_classifier_inference_1/mobilenetv2_0.35_224_1/block_11_expand_BN_1/batchnorm/sub", "shape": [192], "dtype": "float32"}, {"name": "StatefulPartitionedCall/food_classifier_inference_1/mobilenetv2_0.35_224_1/block_11_depthwise_1/depthwise/ReadVariableOp", "shape": [3, 3, 192, 1], "dtype": "float32"}, {"name": "StatefulPartitionedCall/food_classifier_inference_1/mobilenetv2_0.35_224_1/block_11_depthwise_BN_1/batchnorm/mul", "shape": [192], "dtype": "float32"}, {"name": "StatefulPartitionedCall/food_classifier_inference_1/mobilenetv2_0.35_224_1/block_11_depthwise_BN_1/batchnorm/sub", "shape": [192], "dtype": "float32"}, {"name": "StatefulPartitionedCall/food_classifier_inference_1/mobilenetv2_0.35_224_1/block_11_project_1/convolution/merged_input", "shape": [1, 1, 192, 32], "dtype": "float32"}, {"name": "StatefulPartitionedCall/food_classifier_inference_1/mobilenetv2_0.35_224_1/block_12_expand_1/convolution/merged_input", "shape": [1, 1, 32, 192], "dtype": "float32"}, {"name": "StatefulPartitionedCall/food_classifier_inference_1/mobilenetv2_0.35_224_1/block_12_expand_BN_1/batchnorm/sub", "shape": [192], "dtype": "float32"}, {"name": "StatefulPartitionedCall/food_classifier_inference_1/mobilenetv2_0.35_224_1/block_12_depthwise_1/depthwise/ReadVariableOp", "shape": [3, 3, 192, 1], "dtype": "float32"}, {"name": "StatefulPartitionedCall/food_classifier_inference_1/mobilenetv2_0.35_224_1/block_12_depthwise_BN_1/batchnorm/mul", "shape": [192], "dtype": "float32"}, {"name": "StatefulPartitionedCall/food_classifier_inference_1/mobilenetv2_0.35_224_1/block_12_depthwise_BN_1/batchnorm/sub", "shape": [192], "dtype": "float32"}, {"name": "StatefulPartitionedCall/food_classifier_inference_1/mobilenetv2_0.35_224_1/block_12_project_1/convolution/merged_input", "shape": [1, 1, 192, 32], "dtype": "float32"}, {"name": "StatefulPartitionedCall/food_classifier_inference_1/mobilenetv2_0.35_224_1/block_13_expand_1/convolution/merged_input", "shape": [1, 1, 32, 192], "dtype": "float32"}, {"name": "StatefulPartitionedCall/food_classifier_inference_1/mobilenetv2_0.35_224_1/block_13_expand_BN_1/batchnorm/sub", "shape": [192], "dtype": "float32"}, {"name": "StatefulPartitionedCall/food_classifier_inference_1/mobilenetv2_0.35_224_1/block_13_pad_1/Const", "shape": [4, 2], "dtype": "int32"}, {"name": "StatefulPartitionedCall/food_classifier_inference_1/mobilenetv2_0.35_224_1/block_13_depthwise_1/depthwise/ReadVariableOp", "shape": [3, 3, 192, 1], "dtype": "float32"}, {"name": "StatefulPartitionedCall/food_classifier_inference_1/mobilenetv2_0.35_224_1/block_13_depthwise_BN_1/batchnorm/mul", "shape": [192], "dtype": "float32"}, {"name": "StatefulPartitionedCall/food_classifier_inference_1/mobilenetv2_0.35_224_1/block_13_depthwise_BN_1/batchnorm/sub", "shape": [192], "dtype": "float32"}, {"name": "StatefulPartitionedCall/food_classifier_inference_1/mobilenetv2_0.35_224_1/block_13_project_1/convolution/merged_input", "shape": [1, 1, 192, 56], "dtype": "float32"}, {"name": "StatefulPartitionedCall/food_classifier_inference_1/mobilenetv2_0.35_224_1/block_13_project_BN_1/batchnorm/sub", "shape": [56], "dtype": "float32"}, {"name": "StatefulPartitionedCall/food_classifier_inference_1/mobilenetv2_0.35_224_1/block_14_expand_1/convolution/merged_input", "shape": [1, 1, 56, 336], "dtype": "float32"}, {"name": "StatefulPartitionedCall/food_classifier_inference_1/mobilenetv2_0.35_224_1/block_14_expand_BN_1/batchnorm/sub", "shape": [336], "dtype": "float32"}, {"name": "StatefulPartitionedCall/food_classifier_inference_1/mobilenetv2_0.35_224_1/block_14_depthwise_1/depthwise/ReadVariableOp", "shape": [3, 3, 336, 1], "dtype": "float32"}, {"name": "StatefulPartitionedCall/food_classifier_inference_1/mobilenetv2_0.35_224_1/block_14_depthwise_BN_1/batchnorm/mul", "shape": [336], "dtype": "float32"}, {"name": "StatefulPartitionedCall/food_classifier_inference_1/mobilenetv2_0.35_224_1/block_14_depthwise_BN_1/batchnorm/sub", "shape": [336], "dtype": "float32"}, {"name": "StatefulPartitionedCall/food_classifier_inference_1/mobilenetv2_0.35_224_1/block_14_project_1/convolution/merged_input", "shape": [1, 1, 336, 56], "dtype": "float32"}, {"name": "StatefulPartitionedCall/food_classifier_inference_1/mobilenetv2_0.35_224_1/block_15_expand_1/convolution/merged_input", "shape": [1, 1, 56, 336], "dtype": "float32"}, {"name": "StatefulPartitionedCall/food_classifier_inference_1/mobilenetv2_0.35_224_1/block_15_expand_BN_1/batchnorm/sub", "shape": [336], "dtype": "float32"}, {"name": "StatefulPartitionedCall/food_classifier_inference_1/mobilenetv2_0.35_224_1/block_15_depthwise_1/depthwise/ReadVariableOp", "shape": [3, 3, 336, 1], "dtype": "float32"}, {"name": "StatefulPartitionedCall/food_classifier_inference_1/mobilenetv2_0.35_224_1/block_15_depthwise_BN_1/batchnorm/mul", "shape": [336], "dtype": "float32"}, {"name": "StatefulPartitionedCall/food_classifier_inference_1/mobilenetv2_0.35_224_1/block_15_depthwise_BN_1/batchnorm/sub", "shape": [336], "dtype": "float32"}, {"name": "StatefulPartitionedCall/food_classifier_inference_1/mobilenetv2_0.35_224_1/block_15_project_1/convolution/merged_input", "shape": [1, 1, 336, 56], "dtype": "float32"}, {"name": "StatefulPartitionedCall/food_classifier_inference_1/mobilenetv2_0.35_224_1/block_16_expand_1/convolution/merged_input", "shape": [1, 1, 56, 336], "dtype": "float32"}, {"name": "StatefulPartitionedCall/food_classifier_inference_1/mobilenetv2_0.35_224_1/block_16_expand_BN_1/batchnorm/sub", "shape": [336], "dtype": "float32"}, {"name": "StatefulPartitionedCall/food_classifier_inference_1/mobilenetv2_0.35_224_1/block_16_depthwise_1/depthwise/ReadVariableOp", "shape": [3, 3, 336, 1], "dtype": "float32"}, {"name": "StatefulPartitionedCall/food_classifier_inference_1/mobilenetv2_0.35_224_1/block_16_depthwise_BN_1/batchnorm/mul", "shape": [336], "dtype": "float32"}, {"name": "StatefulPartitionedCall/food_classifier_inference_1/mobilenetv2_0.35_224_1/block_16_depthwise_BN_1/batchnorm/sub", "shape": [336], "dtype": "float32"}, {"name": "StatefulPartitionedCall/food_classifier_inference_1/mobilenetv2_0.35_224_1/block_16_project_1/convolution/merged_input", "shape": [1, 1, 336, 112], "dtype": "float32"}, {"name": "StatefulPartitionedCall/food_classifier_inference_1/mobilenetv2_0.35_224_1/block_16_project_BN_1/batchnorm/sub", "shape": [112], "dtype": "float32"}, {"name": "StatefulPartitionedCall/food_classifier_inference_1/mobilenetv2_0.35_224_1/Conv_1_1/convolution/merged_input", "shape": [1, 1, 112, 1280], "dtype": "float32"}, {"name": "StatefulPartitionedCall/food_classifier_inference_1/mobilenetv2_0.35_224_1/Conv_1_bn_1/batchnorm/sub", "shape": [1280], "dtype": "float32"}, {"name": "StatefulPartitionedCall/food_classifier_inference_1/avg_pool_1/Mean/reduction_indices", "shape": [2], "dtype": "int32"}, {"name": "StatefulPartitionedCall/food_classifier_inference_1/batch_normalization_1/batchnorm/mul", "shape": [1280], "dtype": "float32"}, {"name": "StatefulPartitionedCall/food_classifier_inference_1/batch_normalization_1/batchnorm/sub", "shape": [1280], "dtype": "float32"}, {"name": "StatefulPartitionedCall/food_classifier_inference_1/dense_1/Cast/ReadVariableOp", "shape": [1280, 9], "dtype": "float32"}, {"name": "StatefulPartitionedCall/food_classifier_inference_1/dense_1/BiasAdd/ReadVariableOp", "shape": [9], "dtype": "float32"}]}]}