{"format": "layers-model", "generatedBy": "keras v3.13.2", "convertedBy": "TensorFlow.js Converter v4.22.0", "modelTopology": {"keras_version": "3.13.2", "backend": "tensorflow", "model_config": {"class_name": "Functional", "config": {"name": "functional_24", "trainable": true, "layers": [{"class_name": "InputLayer", "config": {"batch_shape": [null, 224, 224, 3], "dtype": "float32", "sparse": false, "ragged": false, "name": "input_layer_21", "optional": false}, "name": "input_layer_21", "inbound_nodes": []}, {"class_name": "Functional", "config": {"name": "MobileNetV3Small", "trainable": false, "layers": [{"class_name": "InputLayer", "config": {"batch_shape": [null, 224, 224, 3], "dtype": "float32", "sparse": false, "ragged": false, "name": "input_layer_20", "optional": false}, "name": "input_layer_20", "inbound_nodes": []}, {"class_name": "Rescaling", "config": {"name": "rescaling_8", "trainable": false, "dtype": {"module": "keras", "class_name": "DTypePolicy", "config": {"name": "float32"}, "registered_name": null}, "scale": 0.00784313725490196, "offset": -1.0}, "name": "rescaling_8", "inbound_nodes": [{"args": [{"class_name": "__keras_tensor__", "config": {"shape": [null, 224, 224, 3], "dtype": "float32", "keras_history": ["input_layer_20", 0, 0]}}], "kwargs": {}}]}, {"class_name": "Conv2D", "config": {"name": "conv", "trainable": false, "dtype": {"module": "keras", "class_name": "DTypePolicy", "config": {"name": "float32"}, "registered_name": null}, "filters": 16, "kernel_size": [3, 3], "strides": [2, 2], "padding": "same", "data_format": "channels_last", "dilation_rate": [1, 1], "groups": 1, "activation": "linear", "use_bias": false, "kernel_initializer": {"module": "keras.initializers", "class_name": "GlorotUniform", "config": {"seed": null}, "registered_name": null}, "bias_initializer": {"module": "keras.initializers", "class_name": "Zeros", "config": {}, "registered_name": null}, "kernel_regularizer": null, "bias_regularizer": null, "activity_regularizer": null, "kernel_constraint": null, "bias_constraint": null}, "name": "conv", "inbound_nodes": [{"args": [{"class_name": "__keras_tensor__", "config": {"shape": [null, 224, 224, 3], "dtype": "float32", "keras_history": ["rescaling_8", 0, 0]}}], "kwargs": {}}]}, {"class_name": "BatchNormalization", "config": {"name": "conv_bn", "trainable": false, "dtype": {"module": "keras", "class_name": "DTypePolicy", "config": {"name": "float32"}, "registered_name": null}, "axis": -1, "momentum": 0.999, "epsilon": 0.001, "center": true, "scale": true, "beta_initializer": {"module": "keras.initializers", "class_name": "Zeros", "config": {}, "registered_name": null}, "gamma_initializer": {"module": "keras.initializers", "class_name": "Ones", "config": {}, "registered_name": null}, "moving_mean_initializer": {"module": "keras.initializers", "class_name": "Zeros", "config": {}, "registered_name": null}, "moving_variance_initializer": {"module": "keras.initializers", "class_name": "Ones", "config": {}, "registered_name": null}, "beta_regularizer": null, "gamma_regularizer": null, "beta_constraint": null, "gamma_constraint": null, "synchronized": false}, "name": "conv_bn", "inbound_nodes": [{"args": [{"class_name": "__keras_tensor__", "config": {"shape": [null, 112, 112, 16], "dtype": "float32", "keras_history": ["conv", 0, 0]}}], "kwargs": {"mask": null}}]}, {"class_name": "Activation", "config": {"name": "activation_144", "trainable": false, "dtype": {"module": "keras", "class_name": "DTypePolicy", "config": {"name": "float32"}, "registered_name": null}, "activation": "hard_silu"}, "name": "activation_144", "inbound_nodes": [{"args": [{"class_name": "__keras_tensor__", "config": {"shape": [null, 112, 112, 16], "dtype": "float32", "keras_history": ["conv_bn", 0, 0]}}], "kwargs": {}}]}, {"class_name": "ZeroPadding2D", "config": {"name": "expanded_conv_depthwise_pad", "trainable": false, "dtype": {"module": "keras", "class_name": "DTypePolicy", "config": {"name": "float32"}, "registered_name": null}, "padding": [[0, 1], [0, 1]], "data_format": "channels_last"}, "name": "expanded_conv_depthwise_pad", "inbound_nodes": [{"args": [{"class_name": "__keras_tensor__", "config": {"shape": [null, 112, 112, 16], "dtype": "float32", "keras_history": ["activation_144", 0, 0]}}], "kwargs": {}}]}, {"class_name": "DepthwiseConv2D", "config": {"name": "expanded_conv_depthwise", "trainable": false, "dtype": {"module": "keras", "class_name": "DTypePolicy", "config": {"name": "float32"}, "registered_name": null}, "depth_multiplier": 1, "kernel_size": [3, 3], "strides": [2, 2], "padding": "valid", "data_format": "channels_last", "dilation_rate": [1, 1], "activation": "linear", "use_bias": false, "depthwise_initializer": {"module": "keras.initializers", "class_name": "GlorotUniform", "config": {"seed": null}, "registered_name": null}, "bias_initializer": {"module": "keras.initializers", "class_name": "Zeros", "config": {}, "registered_name": null}, "depthwise_regularizer": null, "bias_regularizer": null, "activity_regularizer": null, "depthwise_constraint": null, "bias_constraint": null}, "name": "expanded_conv_depthwise", "inbound_nodes": [{"args": [{"class_name": "__keras_tensor__", "config": {"shape": [null, 113, 113, 16], "dtype": "float32", "keras_history": ["expanded_conv_depthwise_pad", 0, 0]}}], "kwargs": {}}]}, {"class_name": "BatchNormalization", "config": {"name": "expanded_conv_depthwise_bn", "trainable": false, "dtype": {"module": "keras", "class_name": "DTypePolicy", "config": {"name": "float32"}, "registered_name": null}, "axis": -1, "momentum": 0.999, "epsilon": 0.001, "center": true, "scale": true, "beta_initializer": {"module": "keras.initializers", "class_name": "Zeros", "config": {}, "registered_name": null}, "gamma_initializer": {"module": "keras.initializers", "class_name": "Ones", "config": {}, "registered_name": null}, "moving_mean_initializer": {"module": "keras.initializers", "class_name": "Zeros", "config": {}, "registered_name": null}, "moving_variance_initializer": {"module": "keras.initializers", "class_name": "Ones", "config": {}, "registered_name": null}, "beta_regularizer": null, "gamma_regularizer": null, "beta_constraint": null, "gamma_constraint": null, "synchronized": false}, "name": "expanded_conv_depthwise_bn", "inbound_nodes": [{"args": [{"class_name": "__keras_tensor__", "config": {"shape": [null, 56, 56, 16], "dtype": "float32", "keras_history": ["expanded_conv_depthwise", 0, 0]}}], "kwargs": {"mask": null}}]}, {"class_name": "ReLU", "config": {"name": "re_lu_112", "trainable": false, "dtype": {"module": "keras", "class_name": "DTypePolicy", "config": {"name": "float32"}, "registered_name": null}, "max_value": null, "negative_slope": 0.0, "threshold": 0.0}, "name": "re_lu_112", "inbound_nodes": [{"args": [{"class_name": "__keras_tensor__", "config": {"shape": [null, 56, 56, 16], "dtype": "float32", "keras_history": ["expanded_conv_depthwise_bn", 0, 0]}}], "kwargs": {}}]}, {"class_name": "GlobalAveragePooling2D", "config": {"name": "expanded_conv_squeeze_excite_avg_pool", "trainable": false, "dtype": {"module": "keras", "class_name": "DTypePolicy", "config": {"name": "float32"}, "registered_name": null}, "data_format": "channels_last", "keepdims": true}, "name": "expanded_conv_squeeze_excite_avg_pool", "inbound_nodes": [{"args": [{"class_name": "__keras_tensor__", "config": {"shape": [null, 56, 56, 16], "dtype": "float32", "keras_history": ["re_lu_112", 0, 0]}}], "kwargs": {}}]}, {"class_name": "Conv2D", "config": {"name": "expanded_conv_squeeze_excite_conv", "trainable": false, "dtype": {"module": "keras", "class_name": "DTypePolicy", "config": {"name": "float32"}, "registered_name": null}, "filters": 8, "kernel_size": [1, 1], "strides": [1, 1], "padding": "same", "data_format": "channels_last", "dilation_rate": [1, 1], "groups": 1, "activation": "linear", "use_bias": true, "kernel_initializer": {"module": "keras.initializers", "class_name": "GlorotUniform", "config": {"seed": null}, "registered_name": null}, "bias_initializer": {"module": "keras.initializers", "class_name": "Zeros", "config": {}, "registered_name": null}, "kernel_regularizer": null, "bias_regularizer": null, "activity_regularizer": null, "kernel_constraint": null, "bias_constraint": null}, "name": "expanded_conv_squeeze_excite_conv", "inbound_nodes": [{"args": [{"class_name": "__keras_tensor__", "config": {"shape": [null, 1, 1, 16], "dtype": "float32", "keras_history": ["expanded_conv_squeeze_excite_avg_pool", 0, 0]}}], "kwargs": {}}]}, {"class_name": "ReLU", "config": {"name": "expanded_conv_squeeze_excite_relu", "trainable": false, "dtype": {"module": "keras", "class_name": "DTypePolicy", "config": {"name": "float32"}, "registered_name": null}, "max_value": null, "negative_slope": 0.0, "threshold": 0.0}, "name": "expanded_conv_squeeze_excite_relu", "inbound_nodes": [{"args": [{"class_name": "__keras_tensor__", "config": {"shape": [null, 1, 1, 8], "dtype": "float32", "keras_history": ["expanded_conv_squeeze_excite_conv", 0, 0]}}], "kwargs": {}}]}, {"class_name": "Conv2D", "config": {"name": "expanded_conv_squeeze_excite_conv_1", "trainable": false, "dtype": {"module": "keras", "class_name": "DTypePolicy", "config": {"name": "float32"}, "registered_name": null}, "filters": 16, "kernel_size": [1, 1], "strides": [1, 1], "padding": "same", "data_format": "channels_last", "dilation_rate": [1, 1], "groups": 1, "activation": "linear", "use_bias": true, "kernel_initializer": {"module": "keras.initializers", "class_name": "GlorotUniform", "config": {"seed": null}, "registered_name": null}, "bias_initializer": {"module": "keras.initializers", "class_name": "Zeros", "config": {}, "registered_name": null}, "kernel_regularizer": null, "bias_regularizer": null, "activity_regularizer": null, "kernel_constraint": null, "bias_constraint": null}, "name": "expanded_conv_squeeze_excite_conv_1", "inbound_nodes": [{"args": [{"class_name": "__keras_tensor__", "config": {"shape": [null, 1, 1, 8], "dtype": "float32", "keras_history": ["expanded_conv_squeeze_excite_relu", 0, 0]}}], "kwargs": {}}]}, {"class_name": "Add", "config": {"name": "add_72"}, "name": "add_72", "inbound_nodes": [{"args": [{"class_name": "__keras_tensor__", "config": {"shape": [null, 1, 1, 16], "dtype": "float32", "keras_history": ["expanded_conv_squeeze_excite_conv_1", 0, 0]}}, 3.0], "kwargs": {}}]}, {"class_name": "ReLU", "config": {"name": "re_lu_113", "trainable": false, "dtype": {"module": "keras", "class_name": "DTypePolicy", "config": {"name": "float32"}, "registered_name": null}, "max_value": 6.0, "negative_slope": 0.0, "threshold": 0.0}, "name": "re_lu_113", "inbound_nodes": [{"args": [{"class_name": "__keras_tensor__", "config": {"shape": [null, 1, 1, 16], "dtype": "float32", "keras_history": ["add_72", 0, 0]}}], "kwargs": {}}]}, {"class_name": "Multiply", "config": {"name": "multiply_72"}, "name": "multiply_72", "inbound_nodes": [{"args": [{"class_name": "__keras_tensor__", "config": {"shape": [null, 1, 1, 16], "dtype": "float32", "keras_history": ["re_lu_113", 0, 0]}}, 0.16666666666666666], "kwargs": {}}]}, {"class_name": "Multiply", "config": {"name": "expanded_conv_squeeze_excite_mul", "trainable": false, "dtype": {"module": "keras", "class_name": "DTypePolicy", "config": {"name": "float32"}, "registered_name": null}}, "name": "expanded_conv_squeeze_excite_mul", "inbound_nodes": [{"args": [[{"class_name": "__keras_tensor__", "config": {"shape": [null, 56, 56, 16], "dtype": "float32", "keras_history": ["re_lu_112", 0, 0]}}, {"class_name": "__keras_tensor__", "config": {"shape": [null, 1, 1, 16], "dtype": "float32", "keras_history": ["multiply_72", 0, 0]}}]], "kwargs": {}}]}, {"class_name": "Conv2D", "config": {"name": "expanded_conv_project", "trainable": false, "dtype": {"module": "keras", "class_name": "DTypePolicy", "config": {"name": "float32"}, "registered_name": null}, "filters": 16, "kernel_size": [1, 1], "strides": [1, 1], "padding": "same", "data_format": "channels_last", "dilation_rate": [1, 1], "groups": 1, "activation": "linear", "use_bias": false, "kernel_initializer": {"module": "keras.initializers", "class_name": "GlorotUniform", "config": {"seed": null}, "registered_name": null}, "bias_initializer": {"module": "keras.initializers", "class_name": "Zeros", "config": {}, "registered_name": null}, "kernel_regularizer": null, "bias_regularizer": null, "activity_regularizer": null, "kernel_constraint": null, "bias_constraint": null}, "name": "expanded_conv_project", "inbound_nodes": [{"args": [{"class_name": "__keras_tensor__", "config": {"shape": [null, 56, 56, 16], "dtype": "float32", "keras_history": ["expanded_conv_squeeze_excite_mul", 0, 0]}}], "kwargs": {}}]}, {"class_name": "BatchNormalization", "config": {"name": "expanded_conv_project_bn", "trainable": false, "dtype": {"module": "keras", "class_name": "DTypePolicy", "config": {"name": "float32"}, "registered_name": null}, "axis": -1, "momentum": 0.999, "epsilon": 0.001, "center": true, "scale": true, "beta_initializer": {"module": "keras.initializers", "class_name": "Zeros", "config": {}, "registered_name": null}, "gamma_initializer": {"module": "keras.initializers", "class_name": "Ones", "config": {}, "registered_name": null}, "moving_mean_initializer": {"module": "keras.initializers", "class_name": "Zeros", "config": {}, "registered_name": null}, "moving_variance_initializer": {"module": "keras.initializers", "class_name": "Ones", "config": {}, "registered_name": null}, "beta_regularizer": null, "gamma_regularizer": null, "beta_constraint": null, "gamma_constraint": null, "synchronized": false}, "name": "expanded_conv_project_bn", "inbound_nodes": [{"args": [{"class_name": "__keras_tensor__", "config": {"shape": [null, 56, 56, 16], "dtype": "float32", "keras_history": ["expanded_conv_project", 0, 0]}}], "kwargs": {"mask": null}}]}, {"class_name": "Conv2D", "config": {"name": "expanded_conv_1_expand", "trainable": false, "dtype": {"module": "keras", "class_name": "DTypePolicy", "config": {"name": "float32"}, "registered_name": null}, "filters": 72, "kernel_size": [1, 1], "strides": [1, 1], "padding": "same", "data_format": "channels_last", "dilation_rate": [1, 1], "groups": 1, "activation": "linear", "use_bias": false, "kernel_initializer": {"module": "keras.initializers", "class_name": "GlorotUniform", "config": {"seed": null}, "registered_name": null}, "bias_initializer": {"module": "keras.initializers", "class_name": "Zeros", "config": {}, "registered_name": null}, "kernel_regularizer": null, "bias_regularizer": null, "activity_regularizer": null, "kernel_constraint": null, "bias_constraint": null}, "name": "expanded_conv_1_expand", "inbound_nodes": [{"args": [{"class_name": "__keras_tensor__", "config": {"shape": [null, 56, 56, 16], "dtype": "float32", "keras_history": ["expanded_conv_project_bn", 0, 0]}}], "kwargs": {}}]}, {"class_name": "BatchNormalization", "config": {"name": "expanded_conv_1_expand_bn", "trainable": false, "dtype": {"module": "keras", "class_name": "DTypePolicy", "config": {"name": "float32"}, "registered_name": null}, "axis": -1, "momentum": 0.999, "epsilon": 0.001, "center": true, "scale": true, "beta_initializer": {"module": "keras.initializers", "class_name": "Zeros", "config": {}, "registered_name": null}, "gamma_initializer": {"module": "keras.initializers", "class_name": "Ones", "config": {}, "registered_name": null}, "moving_mean_initializer": {"module": "keras.initializers", "class_name": "Zeros", "config": {}, "registered_name": null}, "moving_variance_initializer": {"module": "keras.initializers", "class_name": "Ones", "config": {}, "registered_name": null}, "beta_regularizer": null, "gamma_regularizer": null, "beta_constraint": null, "gamma_constraint": null, "synchronized": false}, "name": "expanded_conv_1_expand_bn", "inbound_nodes": [{"args": [{"class_name": "__keras_tensor__", "config": {"shape": [null, 56, 56, 72], "dtype": "float32", "keras_history": ["expanded_conv_1_expand", 0, 0]}}], "kwargs": {"mask": null}}]}, {"class_name": "ReLU", "config": {"name": "re_lu_114", "trainable": false, "dtype": {"module": "keras", "class_name": "DTypePolicy", "config": {"name": "float32"}, "registered_name": null}, "max_value": null, "negative_slope": 0.0, "threshold": 0.0}, "name": "re_lu_114", "inbound_nodes": [{"args": [{"class_name": "__keras_tensor__", "config": {"shape": [null, 56, 56, 72], "dtype": "float32", "keras_history": ["expanded_conv_1_expand_bn", 0, 0]}}], "kwargs": {}}]}, {"class_name": "ZeroPadding2D", "config": {"name": "expanded_conv_1_depthwise_pad", "trainable": false, "dtype": {"module": "keras", "class_name": "DTypePolicy", "config": {"name": "float32"}, "registered_name": null}, "padding": [[0, 1], [0, 1]], "data_format": "channels_last"}, "name": "expanded_conv_1_depthwise_pad", "inbound_nodes": [{"args": [{"class_name": "__keras_tensor__", "config": {"shape": [null, 56, 56, 72], "dtype": "float32", "keras_history": ["re_lu_114", 0, 0]}}], "kwargs": {}}]}, {"class_name": "DepthwiseConv2D", "config": {"name": "expanded_conv_1_depthwise", "trainable": false, "dtype": {"module": "keras", "class_name": "DTypePolicy", "config": {"name": "float32"}, "registered_name": null}, "depth_multiplier": 1, "kernel_size": [3, 3], "strides": [2, 2], "padding": "valid", "data_format": "channels_last", "dilation_rate": [1, 1], "activation": "linear", "use_bias": false, "depthwise_initializer": {"module": "keras.initializers", "class_name": "GlorotUniform", "config": {"seed": null}, "registered_name": null}, "bias_initializer": {"module": "keras.initializers", "class_name": "Zeros", "config": {}, "registered_name": null}, "depthwise_regularizer": null, "bias_regularizer": null, "activity_regularizer": null, "depthwise_constraint": null, "bias_constraint": null}, "name": "expanded_conv_1_depthwise", "inbound_nodes": [{"args": [{"class_name": "__keras_tensor__", "config": {"shape": [null, 57, 57, 72], "dtype": "float32", "keras_history": ["expanded_conv_1_depthwise_pad", 0, 0]}}], "kwargs": {}}]}, {"class_name": "BatchNormalization", "config": {"name": "expanded_conv_1_depthwise_bn", "trainable": false, "dtype": {"module": "keras", "class_name": "DTypePolicy", "config": {"name": "float32"}, "registered_name": null}, "axis": -1, "momentum": 0.999, "epsilon": 0.001, "center": true, "scale": true, "beta_initializer": {"module": "keras.initializers", "class_name": "Zeros", "config": {}, "registered_name": null}, "gamma_initializer": {"module": "keras.initializers", "class_name": "Ones", "config": {}, "registered_name": null}, "moving_mean_initializer": {"module": "keras.initializers", "class_name": "Zeros", "config": {}, "registered_name": null}, "moving_variance_initializer": {"module": "keras.initializers", "class_name": "Ones", "config": {}, "registered_name": null}, "beta_regularizer": null, "gamma_regularizer": null, "beta_constraint": null, "gamma_constraint": null, "synchronized": false}, "name": "expanded_conv_1_depthwise_bn", "inbound_nodes": [{"args": [{"class_name": "__keras_tensor__", "config": {"shape": [null, 28, 28, 72], "dtype": "float32", "keras_history": ["expanded_conv_1_depthwise", 0, 0]}}], "kwargs": {"mask": null}}]}, {"class_name": "ReLU", "config": {"name": "re_lu_115", "trainable": false, "dtype": {"module": "keras", "class_name": "DTypePolicy", "config": {"name": "float32"}, "registered_name": null}, "max_value": null, "negative_slope": 0.0, "threshold": 0.0}, "name": "re_lu_115", "inbound_nodes": [{"args": [{"class_name": "__keras_tensor__", "config": {"shape": [null, 28, 28, 72], "dtype": "float32", "keras_history": ["expanded_conv_1_depthwise_bn", 0, 0]}}], "kwargs": {}}]}, {"class_name": "Conv2D", "config": {"name": "expanded_conv_1_project", "trainable": false, "dtype": {"module": "keras", "class_name": "DTypePolicy", "config": {"name": "float32"}, "registered_name": null}, "filters": 24, "kernel_size": [1, 1], "strides": [1, 1], "padding": "same", "data_format": "channels_last", "dilation_rate": [1, 1], "groups": 1, "activation": "linear", "use_bias": false, "kernel_initializer": {"module": "keras.initializers", "class_name": "GlorotUniform", "config": {"seed": null}, "registered_name": null}, "bias_initializer": {"module": "keras.initializers", "class_name": "Zeros", "config": {}, "registered_name": null}, "kernel_regularizer": null, "bias_regularizer": null, "activity_regularizer": null, "kernel_constraint": null, "bias_constraint": null}, "name": "expanded_conv_1_project", "inbound_nodes": [{"args": [{"class_name": "__keras_tensor__", "config": {"shape": [null, 28, 28, 72], "dtype": "float32", "keras_history": ["re_lu_115", 0, 0]}}], "kwargs": {}}]}, {"class_name": "BatchNormalization", "config": {"name": "expanded_conv_1_project_bn", "trainable": false, "dtype": {"module": "keras", "class_name": "DTypePolicy", "config": {"name": "float32"}, "registered_name": null}, "axis": -1, "momentum": 0.999, "epsilon": 0.001, "center": true, "scale": true, "beta_initializer": {"module": "keras.initializers", "class_name": "Zeros", "config": {}, "registered_name": null}, "gamma_initializer": {"module": "keras.initializers", "class_name": "Ones", "config": {}, "registered_name": null}, "moving_mean_initializer": {"module": "keras.initializers", "class_name": "Zeros", "config": {}, "registered_name": null}, "moving_variance_initializer": {"module": "keras.initializers", "class_name": "Ones", "config": {}, "registered_name": null}, "beta_regularizer": null, "gamma_regularizer": null, "beta_constraint": null, "gamma_constraint": null, "synchronized": false}, "name": "expanded_conv_1_project_bn", "inbound_nodes": [{"args": [{"class_name": "__keras_tensor__", "config": {"shape": [null, 28, 28, 24], "dtype": "float32", "keras_history": ["expanded_conv_1_project", 0, 0]}}], "kwargs": {"mask": null}}]}, {"class_name": "Conv2D", "config": {"name": "expanded_conv_2_expand", "trainable": false, "dtype": {"module": "keras", "class_name": "DTypePolicy", "config": {"name": "float32"}, "registered_name": null}, "filters": 88, "kernel_size": [1, 1], "strides": [1, 1], "padding": "same", "data_format": "channels_last", "dilation_rate": [1, 1], "groups": 1, "activation": "linear", "use_bias": false, "kernel_initializer": {"module": "keras.initializers", "class_name": "GlorotUniform", "config": {"seed": null}, "registered_name": null}, "bias_initializer": {"module": "keras.initializers", "class_name": "Zeros", "config": {}, "registered_name": null}, "kernel_regularizer": null, "bias_regularizer": null, "activity_regularizer": null, "kernel_constraint": null, "bias_constraint": null}, "name": "expanded_conv_2_expand", "inbound_nodes": [{"args": [{"class_name": "__keras_tensor__", "config": {"shape": [null, 28, 28, 24], "dtype": "float32", "keras_history": ["expanded_conv_1_project_bn", 0, 0]}}], "kwargs": {}}]}, {"class_name": "BatchNormalization", "config": {"name": "expanded_conv_2_expand_bn", "trainable": false, "dtype": {"module": "keras", "class_name": "DTypePolicy", "config": {"name": "float32"}, "registered_name": null}, "axis": -1, "momentum": 0.999, "epsilon": 0.001, "center": true, "scale": true, "beta_initializer": {"module": "keras.initializers", "class_name": "Zeros", "config": {}, "registered_name": null}, "gamma_initializer": {"module": "keras.initializers", "class_name": "Ones", "config": {}, "registered_name": null}, "moving_mean_initializer": {"module": "keras.initializers", "class_name": "Zeros", "config": {}, "registered_name": null}, "moving_variance_initializer": {"module": "keras.initializers", "class_name": "Ones", "config": {}, "registered_name": null}, "beta_regularizer": null, "gamma_regularizer": null, "beta_constraint": null, "gamma_constraint": null, "synchronized": false}, "name": "expanded_conv_2_expand_bn", "inbound_nodes": [{"args": [{"class_name": "__keras_tensor__", "config": {"shape": [null, 28, 28, 88], "dtype": "float32", "keras_history": ["expanded_conv_2_expand", 0, 0]}}], "kwargs": {"mask": null}}]}, {"class_name": "ReLU", "config": {"name": "re_lu_116", "trainable": false, "dtype": {"module": "keras", "class_name": "DTypePolicy", "config": {"name": "float32"}, "registered_name": null}, "max_value": null, "negative_slope": 0.0, "threshold": 0.0}, "name": "re_lu_116", "inbound_nodes": [{"args": [{"class_name": "__keras_tensor__", "config": {"shape": [null, 28, 28, 88], "dtype": "float32", "keras_history": ["expanded_conv_2_expand_bn", 0, 0]}}], "kwargs": {}}]}, {"class_name": "DepthwiseConv2D", "config": {"name": "expanded_conv_2_depthwise", "trainable": false, "dtype": {"module": "keras", "class_name": "DTypePolicy", "config": {"name": "float32"}, "registered_name": null}, "depth_multiplier": 1, "kernel_size": [3, 3], "strides": [1, 1], "padding": "same", "data_format": "channels_last", "dilation_rate": [1, 1], "activation": "linear", "use_bias": false, "depthwise_initializer": {"module": "keras.initializers", "class_name": "GlorotUniform", "config": {"seed": null}, "registered_name": null}, "bias_initializer": {"module": "keras.initializers", "class_name": "Zeros", "config": {}, "registered_name": null}, "depthwise_regularizer": null, "bias_regularizer": null, "activity_regularizer": null, "depthwise_constraint": null, "bias_constraint": null}, "name": "expanded_conv_2_depthwise", "inbound_nodes": [{"args": [{"class_name": "__keras_tensor__", "config": {"shape": [null, 28, 28, 88], "dtype": "float32", "keras_history": ["re_lu_116", 0, 0]}}], "kwargs": {}}]}, {"class_name": "BatchNormalization", "config": {"name": "expanded_conv_2_depthwise_bn", "trainable": false, "dtype": {"module": "keras", "class_name": "DTypePolicy", "config": {"name": "float32"}, "registered_name": null}, "axis": -1, "momentum": 0.999, "epsilon": 0.001, "center": true, "scale": true, "beta_initializer": {"module": "keras.initializers", "class_name": "Zeros", "config": {}, "registered_name": null}, "gamma_initializer": {"module": "keras.initializers", "class_name": "Ones", "config": {}, "registered_name": null}, "moving_mean_initializer": {"module": "keras.initializers", "class_name": "Zeros", "config": {}, "registered_name": null}, "moving_variance_initializer": {"module": "keras.initializers", "class_name": "Ones", "config": {}, "registered_name": null}, "beta_regularizer": null, "gamma_regularizer": null, "beta_constraint": null, "gamma_constraint": null, "synchronized": false}, "name": "expanded_conv_2_depthwise_bn", "inbound_nodes": [{"args": [{"class_name": "__keras_tensor__", "config": {"shape": [null, 28, 28, 88], "dtype": "float32", "keras_history": ["expanded_conv_2_depthwise", 0, 0]}}], "kwargs": {"mask": null}}]}, {"class_name": "ReLU", "config": {"name": "re_lu_117", "trainable": false, "dtype": {"module": "keras", "class_name": "DTypePolicy", "config": {"name": "float32"}, "registered_name": null}, "max_value": null, "negative_slope": 0.0, "threshold": 0.0}, "name": "re_lu_117", "inbound_nodes": [{"args": [{"class_name": "__keras_tensor__", "config": {"shape": [null, 28, 28, 88], "dtype": "float32", "keras_history": ["expanded_conv_2_depthwise_bn", 0, 0]}}], "kwargs": {}}]}, {"class_name": "Conv2D", "config": {"name": "expanded_conv_2_project", "trainable": false, "dtype": {"module": "keras", "class_name": "DTypePolicy", "config": {"name": "float32"}, "registered_name": null}, "filters": 24, "kernel_size": [1, 1], "strides": [1, 1], "padding": "same", "data_format": "channels_last", "dilation_rate": [1, 1], "groups": 1, "activation": "linear", "use_bias": false, "kernel_initializer": {"module": "keras.initializers", "class_name": "GlorotUniform", "config": {"seed": null}, "registered_name": null}, "bias_initializer": {"module": "keras.initializers", "class_name": "Zeros", "config": {}, "registered_name": null}, "kernel_regularizer": null, "bias_regularizer": null, "activity_regularizer": null, "kernel_constraint": null, "bias_constraint": null}, "name": "expanded_conv_2_project", "inbound_nodes": [{"args": [{"class_name": "__keras_tensor__", "config": {"shape": [null, 28, 28, 88], "dtype": "float32", "keras_history": ["re_lu_117", 0, 0]}}], "kwargs": {}}]}, {"class_name": "BatchNormalization", "config": {"name": "expanded_conv_2_project_bn", "trainable": false, "dtype": {"module": "keras", "class_name": "DTypePolicy", "config": {"name": "float32"}, "registered_name": null}, "axis": -1, "momentum": 0.999, "epsilon": 0.001, "center": true, "scale": true, "beta_initializer": {"module": "keras.initializers", "class_name": "Zeros", "config": {}, "registered_name": null}, "gamma_initializer": {"module": "keras.initializers", "class_name": "Ones", "config": {}, "registered_name": null}, "moving_mean_initializer": {"module": "keras.initializers", "class_name": "Zeros", "config": {}, "registered_name": null}, "moving_variance_initializer": {"module": "keras.initializers", "class_name": "Ones", "config": {}, "registered_name": null}, "beta_regularizer": null, "gamma_regularizer": null, "beta_constraint": null, "gamma_constraint": null, "synchronized": false}, "name": "expanded_conv_2_project_bn", "inbound_nodes": [{"args": [{"class_name": "__keras_tensor__", "config": {"shape": [null, 28, 28, 24], "dtype": "float32", "keras_history": ["expanded_conv_2_project", 0, 0]}}], "kwargs": {"mask": null}}]}, {"class_name": "Add", "config": {"name": "expanded_conv_2_add", "trainable": false, "dtype": {"module": "keras", "class_name": "DTypePolicy", "config": {"name": "float32"}, "registered_name": null}}, "name": "expanded_conv_2_add", "inbound_nodes": [{"args": [[{"class_name": "__keras_tensor__", "config": {"shape": [null, 28, 28, 24], "dtype": "float32", "keras_history": ["expanded_conv_1_project_bn", 0, 0]}}, {"class_name": "__keras_tensor__", "config": {"shape": [null, 28, 28, 24], "dtype": "float32", "keras_history": ["expanded_conv_2_project_bn", 0, 0]}}]], "kwargs": {}}]}, {"class_name": "Conv2D", "config": {"name": "expanded_conv_3_expand", "trainable": false, "dtype": {"module": "keras", "class_name": "DTypePolicy", "config": {"name": "float32"}, "registered_name": null}, "filters": 96, "kernel_size": [1, 1], "strides": [1, 1], "padding": "same", "data_format": "channels_last", "dilation_rate": [1, 1], "groups": 1, "activation": "linear", "use_bias": false, "kernel_initializer": {"module": "keras.initializers", "class_name": "GlorotUniform", "config": {"seed": null}, "registered_name": null}, "bias_initializer": {"module": "keras.initializers", "class_name": "Zeros", "config": {}, "registered_name": null}, "kernel_regularizer": null, "bias_regularizer": null, "activity_regularizer": null, "kernel_constraint": null, "bias_constraint": null}, "name": "expanded_conv_3_expand", "inbound_nodes": [{"args": [{"class_name": "__keras_tensor__", "config": {"shape": [null, 28, 28, 24], "dtype": "float32", "keras_history": ["expanded_conv_2_add", 0, 0]}}], "kwargs": {}}]}, {"class_name": "BatchNormalization", "config": {"name": "expanded_conv_3_expand_bn", "trainable": false, "dtype": {"module": "keras", "class_name": "DTypePolicy", "config": {"name": "float32"}, "registered_name": null}, "axis": -1, "momentum": 0.999, "epsilon": 0.001, "center": true, "scale": true, "beta_initializer": {"module": "keras.initializers", "class_name": "Zeros", "config": {}, "registered_name": null}, "gamma_initializer": {"module": "keras.initializers", "class_name": "Ones", "config": {}, "registered_name": null}, "moving_mean_initializer": {"module": "keras.initializers", "class_name": "Zeros", "config": {}, "registered_name": null}, "moving_variance_initializer": {"module": "keras.initializers", "class_name": "Ones", "config": {}, "registered_name": null}, "beta_regularizer": null, "gamma_regularizer": null, "beta_constraint": null, "gamma_constraint": null, "synchronized": false}, "name": "expanded_conv_3_expand_bn", "inbound_nodes": [{"args": [{"class_name": "__keras_tensor__", "config": {"shape": [null, 28, 28, 96], "dtype": "float32", "keras_history": ["expanded_conv_3_expand", 0, 0]}}], "kwargs": {"mask": null}}]}, {"class_name": "Activation", "config": {"name": "activation_145", "trainable": false, "dtype": {"module": "keras", "class_name": "DTypePolicy", "config": {"name": "float32"}, "registered_name": null}, "activation": "hard_silu"}, "name": "activation_145", "inbound_nodes": [{"args": [{"class_name": "__keras_tensor__", "config": {"shape": [null, 28, 28, 96], "dtype": "float32", "keras_history": ["expanded_conv_3_expand_bn", 0, 0]}}], "kwargs": {}}]}, {"class_name": "ZeroPadding2D", "config": {"name": "expanded_conv_3_depthwise_pad", "trainable": false, "dtype": {"module": "keras", "class_name": "DTypePolicy", "config": {"name": "float32"}, "registered_name": null}, "padding": [[1, 2], [1, 2]], "data_format": "channels_last"}, "name": "expanded_conv_3_depthwise_pad", "inbound_nodes": [{"args": [{"class_name": "__keras_tensor__", "config": {"shape": [null, 28, 28, 96], "dtype": "float32", "keras_history": ["activation_145", 0, 0]}}], "kwargs": {}}]}, {"class_name": "DepthwiseConv2D", "config": {"name": "expanded_conv_3_depthwise", "trainable": false, "dtype": {"module": "keras", "class_name": "DTypePolicy", "config": {"name": "float32"}, "registered_name": null}, "depth_multiplier": 1, "kernel_size": [5, 5], "strides": [2, 2], "padding": "valid", "data_format": "channels_last", "dilation_rate": [1, 1], "activation": "linear", "use_bias": false, "depthwise_initializer": {"module": "keras.initializers", "class_name": "GlorotUniform", "config": {"seed": null}, "registered_name": null}, "bias_initializer": {"module": "keras.initializers", "class_name": "Zeros", "config": {}, "registered_name": null}, "depthwise_regularizer": null, "bias_regularizer": null, "activity_regularizer": null, "depthwise_constraint": null, "bias_constraint": null}, "name": "expanded_conv_3_depthwise", "inbound_nodes": [{"args": [{"class_name": "__keras_tensor__", "config": {"shape": [null, 31, 31, 96], "dtype": "float32", "keras_history": ["expanded_conv_3_depthwise_pad", 0, 0]}}], "kwargs": {}}]}, {"class_name": "BatchNormalization", "config": {"name": "expanded_conv_3_depthwise_bn", "trainable": false, "dtype": {"module": "keras", "class_name": "DTypePolicy", "config": {"name": "float32"}, "registered_name": null}, "axis": -1, "momentum": 0.999, "epsilon": 0.001, "center": true, "scale": true, "beta_initializer": {"module": "keras.initializers", "class_name": "Zeros", "config": {}, "registered_name": null}, "gamma_initializer": {"module": "keras.initializers", "class_name": "Ones", "config": {}, "registered_name": null}, "moving_mean_initializer": {"module": "keras.initializers", "class_name": "Zeros", "config": {}, "registered_name": null}, "moving_variance_initializer": {"module": "keras.initializers", "class_name": "Ones", "config": {}, "registered_name": null}, "beta_regularizer": null, "gamma_regularizer": null, "beta_constraint": null, "gamma_constraint": null, "synchronized": false}, "name": "expanded_conv_3_depthwise_bn", "inbound_nodes": [{"args": [{"class_name": "__keras_tensor__", "config": {"shape": [null, 14, 14, 96], "dtype": "float32", "keras_history": ["expanded_conv_3_depthwise", 0, 0]}}], "kwargs": {"mask": null}}]}, {"class_name": "Activation", "config": {"name": "activation_146", "trainable": false, "dtype": {"module": "keras", "class_name": "DTypePolicy", "config": {"name": "float32"}, "registered_name": null}, "activation": "hard_silu"}, "name": "activation_146", "inbound_nodes": [{"args": [{"class_name": "__keras_tensor__", "config": {"shape": [null, 14, 14, 96], "dtype": "float32", "keras_history": ["expanded_conv_3_depthwise_bn", 0, 0]}}], "kwargs": {}}]}, {"class_name": "GlobalAveragePooling2D", "config": {"name": "expanded_conv_3_squeeze_excite_avg_pool", "trainable": false, "dtype": {"module": "keras", "class_name": "DTypePolicy", "config": {"name": "float32"}, "registered_name": null}, "data_format": "channels_last", "keepdims": true}, "name": "expanded_conv_3_squeeze_excite_avg_pool", "inbound_nodes": [{"args": [{"class_name": "__keras_tensor__", "config": {"shape": [null, 14, 14, 96], "dtype": "float32", "keras_history": ["activation_146", 0, 0]}}], "kwargs": {}}]}, {"class_name": "Conv2D", "config": {"name": "expanded_conv_3_squeeze_excite_conv", "trainable": false, "dtype": {"module": "keras", "class_name": "DTypePolicy", "config": {"name": "float32"}, "registered_name": null}, "filters": 24, "kernel_size": [1, 1], "strides": [1, 1], "padding": "same", "data_format": "channels_last", "dilation_rate": [1, 1], "groups": 1, "activation": "linear", "use_bias": true, "kernel_initializer": {"module": "keras.initializers", "class_name": "GlorotUniform", "config": {"seed": null}, "registered_name": null}, "bias_initializer": {"module": "keras.initializers", "class_name": "Zeros", "config": {}, "registered_name": null}, "kernel_regularizer": null, "bias_regularizer": null, "activity_regularizer": null, "kernel_constraint": null, "bias_constraint": null}, "name": "expanded_conv_3_squeeze_excite_conv", "inbound_nodes": [{"args": [{"class_name": "__keras_tensor__", "config": {"shape": [null, 1, 1, 96], "dtype": "float32", "keras_history": ["expanded_conv_3_squeeze_excite_avg_pool", 0, 0]}}], "kwargs": {}}]}, {"class_name": "ReLU", "config": {"name": "expanded_conv_3_squeeze_excite_relu", "trainable": false, "dtype": {"module": "keras", "class_name": "DTypePolicy", "config": {"name": "float32"}, "registered_name": null}, "max_value": null, "negative_slope": 0.0, "threshold": 0.0}, "name": "expanded_conv_3_squeeze_excite_relu", "inbound_nodes": [{"args": [{"class_name": "__keras_tensor__", "config": {"shape": [null, 1, 1, 24], "dtype": "float32", "keras_history": ["expanded_conv_3_squeeze_excite_conv", 0, 0]}}], "kwargs": {}}]}, {"class_name": "Conv2D", "config": {"name": "expanded_conv_3_squeeze_excite_conv_1", "trainable": false, "dtype": {"module": "keras", "class_name": "DTypePolicy", "config": {"name": "float32"}, "registered_name": null}, "filters": 96, "kernel_size": [1, 1], "strides": [1, 1], "padding": "same", "data_format": "channels_last", "dilation_rate": [1, 1], "groups": 1, "activation": "linear", "use_bias": true, "kernel_initializer": {"module": "keras.initializers", "class_name": "GlorotUniform", "config": {"seed": null}, "registered_name": null}, "bias_initializer": {"module": "keras.initializers", "class_name": "Zeros", "config": {}, "registered_name": null}, "kernel_regularizer": null, "bias_regularizer": null, "activity_regularizer": null, "kernel_constraint": null, "bias_constraint": null}, "name": "expanded_conv_3_squeeze_excite_conv_1", "inbound_nodes": [{"args": [{"class_name": "__keras_tensor__", "config": {"shape": [null, 1, 1, 24], "dtype": "float32", "keras_history": ["expanded_conv_3_squeeze_excite_relu", 0, 0]}}], "kwargs": {}}]}, {"class_name": "Add", "config": {"name": "add_73"}, "name": "add_73", "inbound_nodes": [{"args": [{"class_name": "__keras_tensor__", "config": {"shape": [null, 1, 1, 96], "dtype": "float32", "keras_history": ["expanded_conv_3_squeeze_excite_conv_1", 0, 0]}}, 3.0], "kwargs": {}}]}, {"class_name": "ReLU", "config": {"name": "re_lu_118", "trainable": false, "dtype": {"module": "keras", "class_name": "DTypePolicy", "config": {"name": "float32"}, "registered_name": null}, "max_value": 6.0, "negative_slope": 0.0, "threshold": 0.0}, "name": "re_lu_118", "inbound_nodes": [{"args": [{"class_name": "__keras_tensor__", "config": {"shape": [null, 1, 1, 96], "dtype": "float32", "keras_history": ["add_73", 0, 0]}}], "kwargs": {}}]}, {"class_name": "Multiply", "config": {"name": "multiply_73"}, "name": "multiply_73", "inbound_nodes": [{"args": [{"class_name": "__keras_tensor__", "config": {"shape": [null, 1, 1, 96], "dtype": "float32", "keras_history": ["re_lu_118", 0, 0]}}, 0.16666666666666666], "kwargs": {}}]}, {"class_name": "Multiply", "config": {"name": "expanded_conv_3_squeeze_excite_mul", "trainable": false, "dtype": {"module": "keras", "class_name": "DTypePolicy", "config": {"name": "float32"}, "registered_name": null}}, "name": "expanded_conv_3_squeeze_excite_mul", "inbound_nodes": [{"args": [[{"class_name": "__keras_tensor__", "config": {"shape": [null, 14, 14, 96], "dtype": "float32", "keras_history": ["activation_146", 0, 0]}}, {"class_name": "__keras_tensor__", "config": {"shape": [null, 1, 1, 96], "dtype": "float32", "keras_history": ["multiply_73", 0, 0]}}]], "kwargs": {}}]}, {"class_name": "Conv2D", "config": {"name": "expanded_conv_3_project", "trainable": false, "dtype": {"module": "keras", "class_name": "DTypePolicy", "config": {"name": "float32"}, "registered_name": null}, "filters": 40, "kernel_size": [1, 1], "strides": [1, 1], "padding": "same", "data_format": "channels_last", "dilation_rate": [1, 1], "groups": 1, "activation": "linear", "use_bias": false, "kernel_initializer": {"module": "keras.initializers", "class_name": "GlorotUniform", "config": {"seed": null}, "registered_name": null}, "bias_initializer": {"module": "keras.initializers", "class_name": "Zeros", "config": {}, "registered_name": null}, "kernel_regularizer": null, "bias_regularizer": null, "activity_regularizer": null, "kernel_constraint": null, "bias_constraint": null}, "name": "expanded_conv_3_project", "inbound_nodes": [{"args": [{"class_name": "__keras_tensor__", "config": {"shape": [null, 14, 14, 96], "dtype": "float32", "keras_history": ["expanded_conv_3_squeeze_excite_mul", 0, 0]}}], "kwargs": {}}]}, {"class_name": "BatchNormalization", "config": {"name": "expanded_conv_3_project_bn", "trainable": false, "dtype": {"module": "keras", "class_name": "DTypePolicy", "config": {"name": "float32"}, "registered_name": null}, "axis": -1, "momentum": 0.999, "epsilon": 0.001, "center": true, "scale": true, "beta_initializer": {"module": "keras.initializers", "class_name": "Zeros", "config": {}, "registered_name": null}, "gamma_initializer": {"module": "keras.initializers", "class_name": "Ones", "config": {}, "registered_name": null}, "moving_mean_initializer": {"module": "keras.initializers", "class_name": "Zeros", "config": {}, "registered_name": null}, "moving_variance_initializer": {"module": "keras.initializers", "class_name": "Ones", "config": {}, "registered_name": null}, "beta_regularizer": null, "gamma_regularizer": null, "beta_constraint": null, "gamma_constraint": null, "synchronized": false}, "name": "expanded_conv_3_project_bn", "inbound_nodes": [{"args": [{"class_name": "__keras_tensor__", "config": {"shape": [null, 14, 14, 40], "dtype": "float32", "keras_history": ["expanded_conv_3_project", 0, 0]}}], "kwargs": {"mask": null}}]}, {"class_name": "Conv2D", "config": {"name": "expanded_conv_4_expand", "trainable": false, "dtype": {"module": "keras", "class_name": "DTypePolicy", "config": {"name": "float32"}, "registered_name": null}, "filters": 240, "kernel_size": [1, 1], "strides": [1, 1], "padding": "same", "data_format": "channels_last", "dilation_rate": [1, 1], "groups": 1, "activation": "linear", "use_bias": false, "kernel_initializer": {"module": "keras.initializers", "class_name": "GlorotUniform", "config": {"seed": null}, "registered_name": null}, "bias_initializer": {"module": "keras.initializers", "class_name": "Zeros", "config": {}, "registered_name": null}, "kernel_regularizer": null, "bias_regularizer": null, "activity_regularizer": null, "kernel_constraint": null, "bias_constraint": null}, "name": "expanded_conv_4_expand", "inbound_nodes": [{"args": [{"class_name": "__keras_tensor__", "config": {"shape": [null, 14, 14, 40], "dtype": "float32", "keras_history": ["expanded_conv_3_project_bn", 0, 0]}}], "kwargs": {}}]}, {"class_name": "BatchNormalization", "config": {"name": "expanded_conv_4_expand_bn", "trainable": false, "dtype": {"module": "keras", "class_name": "DTypePolicy", "config": {"name": "float32"}, "registered_name": null}, "axis": -1, "momentum": 0.999, "epsilon": 0.001, "center": true, "scale": true, "beta_initializer": {"module": "keras.initializers", "class_name": "Zeros", "config": {}, "registered_name": null}, "gamma_initializer": {"module": "keras.initializers", "class_name": "Ones", "config": {}, "registered_name": null}, "moving_mean_initializer": {"module": "keras.initializers", "class_name": "Zeros", "config": {}, "registered_name": null}, "moving_variance_initializer": {"module": "keras.initializers", "class_name": "Ones", "config": {}, "registered_name": null}, "beta_regularizer": null, "gamma_regularizer": null, "beta_constraint": null, "gamma_constraint": null, "synchronized": false}, "name": "expanded_conv_4_expand_bn", "inbound_nodes": [{"args": [{"class_name": "__keras_tensor__", "config": {"shape": [null, 14, 14, 240], "dtype": "float32", "keras_history": ["expanded_conv_4_expand", 0, 0]}}], "kwargs": {"mask": null}}]}, {"class_name": "Activation", "config": {"name": "activation_147", "trainable": false, "dtype": {"module": "keras", "class_name": "DTypePolicy", "config": {"name": "float32"}, "registered_name": null}, "activation": "hard_silu"}, "name": "activation_147", "inbound_nodes": [{"args": [{"class_name": "__keras_tensor__", "config": {"shape": [null, 14, 14, 240], "dtype": "float32", "keras_history": ["expanded_conv_4_expand_bn", 0, 0]}}], "kwargs": {}}]}, {"class_name": "DepthwiseConv2D", "config": {"name": "expanded_conv_4_depthwise", "trainable": false, "dtype": {"module": "keras", "class_name": "DTypePolicy", "config": {"name": "float32"}, "registered_name": null}, "depth_multiplier": 1, "kernel_size": [5, 5], "strides": [1, 1], "padding": "same", "data_format": "channels_last", "dilation_rate": [1, 1], "activation": "linear", "use_bias": false, "depthwise_initializer": {"module": "keras.initializers", "class_name": "GlorotUniform", "config": {"seed": null}, "registered_name": null}, "bias_initializer": {"module": "keras.initializers", "class_name": "Zeros", "config": {}, "registered_name": null}, "depthwise_regularizer": null, "bias_regularizer": null, "activity_regularizer": null, "depthwise_constraint": null, "bias_constraint": null}, "name": "expanded_conv_4_depthwise", "inbound_nodes": [{"args": [{"class_name": "__keras_tensor__", "config": {"shape": [null, 14, 14, 240], "dtype": "float32", "keras_history": ["activation_147", 0, 0]}}], "kwargs": {}}]}, {"class_name": "BatchNormalization", "config": {"name": "expanded_conv_4_depthwise_bn", "trainable": false, "dtype": {"module": "keras", "class_name": "DTypePolicy", "config": {"name": "float32"}, "registered_name": null}, "axis": -1, "momentum": 0.999, "epsilon": 0.001, "center": true, "scale": true, "beta_initializer": {"module": "keras.initializers", "class_name": "Zeros", "config": {}, "registered_name": null}, "gamma_initializer": {"module": "keras.initializers", "class_name": "Ones", "config": {}, "registered_name": null}, "moving_mean_initializer": {"module": "keras.initializers", "class_name": "Zeros", "config": {}, "registered_name": null}, "moving_variance_initializer": {"module": "keras.initializers", "class_name": "Ones", "config": {}, "registered_name": null}, "beta_regularizer": null, "gamma_regularizer": null, "beta_constraint": null, "gamma_constraint": null, "synchronized": false}, "name": "expanded_conv_4_depthwise_bn", "inbound_nodes": [{"args": [{"class_name": "__keras_tensor__", "config": {"shape": [null, 14, 14, 240], "dtype": "float32", "keras_history": ["expanded_conv_4_depthwise", 0, 0]}}], "kwargs": {"mask": null}}]}, {"class_name": "Activation", "config": {"name": "activation_148", "trainable": false, "dtype": {"module": "keras", "class_name": "DTypePolicy", "config": {"name": "float32"}, "registered_name": null}, "activation": "hard_silu"}, "name": "activation_148", "inbound_nodes": [{"args": [{"class_name": "__keras_tensor__", "config": {"shape": [null, 14, 14, 240], "dtype": "float32", "keras_history": ["expanded_conv_4_depthwise_bn", 0, 0]}}], "kwargs": {}}]}, {"class_name": "GlobalAveragePooling2D", "config": {"name": "expanded_conv_4_squeeze_excite_avg_pool", "trainable": false, "dtype": {"module": "keras", "class_name": "DTypePolicy", "config": {"name": "float32"}, "registered_name": null}, "data_format": "channels_last", "keepdims": true}, "name": "expanded_conv_4_squeeze_excite_avg_pool", "inbound_nodes": [{"args": [{"class_name": "__keras_tensor__", "config": {"shape": [null, 14, 14, 240], "dtype": "float32", "keras_history": ["activation_148", 0, 0]}}], "kwargs": {}}]}, {"class_name": "Conv2D", "config": {"name": "expanded_conv_4_squeeze_excite_conv", "trainable": false, "dtype": {"module": "keras", "class_name": "DTypePolicy", "config": {"name": "float32"}, "registered_name": null}, "filters": 64, "kernel_size": [1, 1], "strides": [1, 1], "padding": "same", "data_format": "channels_last", "dilation_rate": [1, 1], "groups": 1, "activation": "linear", "use_bias": true, "kernel_initializer": {"module": "keras.initializers", "class_name": "GlorotUniform", "config": {"seed": null}, "registered_name": null}, "bias_initializer": {"module": "keras.initializers", "class_name": "Zeros", "config": {}, "registered_name": null}, "kernel_regularizer": null, "bias_regularizer": null, "activity_regularizer": null, "kernel_constraint": null, "bias_constraint": null}, "name": "expanded_conv_4_squeeze_excite_conv", "inbound_nodes": [{"args": [{"class_name": "__keras_tensor__", "config": {"shape": [null, 1, 1, 240], "dtype": "float32", "keras_history": ["expanded_conv_4_squeeze_excite_avg_pool", 0, 0]}}], "kwargs": {}}]}, {"class_name": "ReLU", "config": {"name": "expanded_conv_4_squeeze_excite_relu", "trainable": false, "dtype": {"module": "keras", "class_name": "DTypePolicy", "config": {"name": "float32"}, "registered_name": null}, "max_value": null, "negative_slope": 0.0, "threshold": 0.0}, "name": "expanded_conv_4_squeeze_excite_relu", "inbound_nodes": [{"args": [{"class_name": "__keras_tensor__", "config": {"shape": [null, 1, 1, 64], "dtype": "float32", "keras_history": ["expanded_conv_4_squeeze_excite_conv", 0, 0]}}], "kwargs": {}}]}, {"class_name": "Conv2D", "config": {"name": "expanded_conv_4_squeeze_excite_conv_1", "trainable": false, "dtype": {"module": "keras", "class_name": "DTypePolicy", "config": {"name": "float32"}, "registered_name": null}, "filters": 240, "kernel_size": [1, 1], "strides": [1, 1], "padding": "same", "data_format": "channels_last", "dilation_rate": [1, 1], "groups": 1, "activation": "linear", "use_bias": true, "kernel_initializer": {"module": "keras.initializers", "class_name": "GlorotUniform", "config": {"seed": null}, "registered_name": null}, "bias_initializer": {"module": "keras.initializers", "class_name": "Zeros", "config": {}, "registered_name": null}, "kernel_regularizer": null, "bias_regularizer": null, "activity_regularizer": null, "kernel_constraint": null, "bias_constraint": null}, "name": "expanded_conv_4_squeeze_excite_conv_1", "inbound_nodes": [{"args": [{"class_name": "__keras_tensor__", "config": {"shape": [null, 1, 1, 64], "dtype": "float32", "keras_history": ["expanded_conv_4_squeeze_excite_relu", 0, 0]}}], "kwargs": {}}]}, {"class_name": "Add", "config": {"name": "add_74"}, "name": "add_74", "inbound_nodes": [{"args": [{"class_name": "__keras_tensor__", "config": {"shape": [null, 1, 1, 240], "dtype": "float32", "keras_history": ["expanded_conv_4_squeeze_excite_conv_1", 0, 0]}}, 3.0], "kwargs": {}}]}, {"class_name": "ReLU", "config": {"name": "re_lu_119", "trainable": false, "dtype": {"module": "keras", "class_name": "DTypePolicy", "config": {"name": "float32"}, "registered_name": null}, "max_value": 6.0, "negative_slope": 0.0, "threshold": 0.0}, "name": "re_lu_119", "inbound_nodes": [{"args": [{"class_name": "__keras_tensor__", "config": {"shape": [null, 1, 1, 240], "dtype": "float32", "keras_history": ["add_74", 0, 0]}}], "kwargs": {}}]}, {"class_name": "Multiply", "config": {"name": "multiply_74"}, "name": "multiply_74", "inbound_nodes": [{"args": [{"class_name": "__keras_tensor__", "config": {"shape": [null, 1, 1, 240], "dtype": "float32", "keras_history": ["re_lu_119", 0, 0]}}, 0.16666666666666666], "kwargs": {}}]}, {"class_name": "Multiply", "config": {"name": "expanded_conv_4_squeeze_excite_mul", "trainable": false, "dtype": {"module": "keras", "class_name": "DTypePolicy", "config": {"name": "float32"}, "registered_name": null}}, "name": "expanded_conv_4_squeeze_excite_mul", "inbound_nodes": [{"args": [[{"class_name": "__keras_tensor__", "config": {"shape": [null, 14, 14, 240], "dtype": "float32", "keras_history": ["activation_148", 0, 0]}}, {"class_name": "__keras_tensor__", "config": {"shape": [null, 1, 1, 240], "dtype": "float32", "keras_history": ["multiply_74", 0, 0]}}]], "kwargs": {}}]}, {"class_name": "Conv2D", "config": {"name": "expanded_conv_4_project", "trainable": false, "dtype": {"module": "keras", "class_name": "DTypePolicy", "config": {"name": "float32"}, "registered_name": null}, "filters": 40, "kernel_size": [1, 1], "strides": [1, 1], "padding": "same", "data_format": "channels_last", "dilation_rate": [1, 1], "groups": 1, "activation": "linear", "use_bias": false, "kernel_initializer": {"module": "keras.initializers", "class_name": "GlorotUniform", "config": {"seed": null}, "registered_name": null}, "bias_initializer": {"module": "keras.initializers", "class_name": "Zeros", "config": {}, "registered_name": null}, "kernel_regularizer": null, "bias_regularizer": null, "activity_regularizer": null, "kernel_constraint": null, "bias_constraint": null}, "name": "expanded_conv_4_project", "inbound_nodes": [{"args": [{"class_name": "__keras_tensor__", "config": {"shape": [null, 14, 14, 240], "dtype": "float32", "keras_history": ["expanded_conv_4_squeeze_excite_mul", 0, 0]}}], "kwargs": {}}]}, {"class_name": "BatchNormalization", "config": {"name": "expanded_conv_4_project_bn", "trainable": false, "dtype": {"module": "keras", "class_name": "DTypePolicy", "config": {"name": "float32"}, "registered_name": null}, "axis": -1, "momentum": 0.999, "epsilon": 0.001, "center": true, "scale": true, "beta_initializer": {"module": "keras.initializers", "class_name": "Zeros", "config": {}, "registered_name": null}, "gamma_initializer": {"module": "keras.initializers", "class_name": "Ones", "config": {}, "registered_name": null}, "moving_mean_initializer": {"module": "keras.initializers", "class_name": "Zeros", "config": {}, "registered_name": null}, "moving_variance_initializer": {"module": "keras.initializers", "class_name": "Ones", "config": {}, "registered_name": null}, "beta_regularizer": null, "gamma_regularizer": null, "beta_constraint": null, "gamma_constraint": null, "synchronized": false}, "name": "expanded_conv_4_project_bn", "inbound_nodes": [{"args": [{"class_name": "__keras_tensor__", "config": {"shape": [null, 14, 14, 40], "dtype": "float32", "keras_history": ["expanded_conv_4_project", 0, 0]}}], "kwargs": {"mask": null}}]}, {"class_name": "Add", "config": {"name": "expanded_conv_4_add", "trainable": false, "dtype": {"module": "keras", "class_name": "DTypePolicy", "config": {"name": "float32"}, "registered_name": null}}, "name": "expanded_conv_4_add", "inbound_nodes": [{"args": [[{"class_name": "__keras_tensor__", "config": {"shape": [null, 14, 14, 40], "dtype": "float32", "keras_history": ["expanded_conv_3_project_bn", 0, 0]}}, {"class_name": "__keras_tensor__", "config": {"shape": [null, 14, 14, 40], "dtype": "float32", "keras_history": ["expanded_conv_4_project_bn", 0, 0]}}]], "kwargs": {}}]}, {"class_name": "Conv2D", "config": {"name": "expanded_conv_5_expand", "trainable": false, "dtype": {"module": "keras", "class_name": "DTypePolicy", "config": {"name": "float32"}, "registered_name": null}, "filters": 240, "kernel_size": [1, 1], "strides": [1, 1], "padding": "same", "data_format": "channels_last", "dilation_rate": [1, 1], "groups": 1, "activation": "linear", "use_bias": false, "kernel_initializer": {"module": "keras.initializers", "class_name": "GlorotUniform", "config": {"seed": null}, "registered_name": null}, "bias_initializer": {"module": "keras.initializers", "class_name": "Zeros", "config": {}, "registered_name": null}, "kernel_regularizer": null, "bias_regularizer": null, "activity_regularizer": null, "kernel_constraint": null, "bias_constraint": null}, "name": "expanded_conv_5_expand", "inbound_nodes": [{"args": [{"class_name": "__keras_tensor__", "config": {"shape": [null, 14, 14, 40], "dtype": "float32", "keras_history": ["expanded_conv_4_add", 0, 0]}}], "kwargs": {}}]}, {"class_name": "BatchNormalization", "config": {"name": "expanded_conv_5_expand_bn", "trainable": false, "dtype": {"module": "keras", "class_name": "DTypePolicy", "config": {"name": "float32"}, "registered_name": null}, "axis": -1, "momentum": 0.999, "epsilon": 0.001, "center": true, "scale": true, "beta_initializer": {"module": "keras.initializers", "class_name": "Zeros", "config": {}, "registered_name": null}, "gamma_initializer": {"module": "keras.initializers", "class_name": "Ones", "config": {}, "registered_name": null}, "moving_mean_initializer": {"module": "keras.initializers", "class_name": "Zeros", "config": {}, "registered_name": null}, "moving_variance_initializer": {"module": "keras.initializers", "class_name": "Ones", "config": {}, "registered_name": null}, "beta_regularizer": null, "gamma_regularizer": null, "beta_constraint": null, "gamma_constraint": null, "synchronized": false}, "name": "expanded_conv_5_expand_bn", "inbound_nodes": [{"args": [{"class_name": "__keras_tensor__", "config": {"shape": [null, 14, 14, 240], "dtype": "float32", "keras_history": ["expanded_conv_5_expand", 0, 0]}}], "kwargs": {"mask": null}}]}, {"class_name": "Activation", "config": {"name": "activation_149", "trainable": false, "dtype": {"module": "keras", "class_name": "DTypePolicy", "config": {"name": "float32"}, "registered_name": null}, "activation": "hard_silu"}, "name": "activation_149", "inbound_nodes": [{"args": [{"class_name": "__keras_tensor__", "config": {"shape": [null, 14, 14, 240], "dtype": "float32", "keras_history": ["expanded_conv_5_expand_bn", 0, 0]}}], "kwargs": {}}]}, {"class_name": "DepthwiseConv2D", "config": {"name": "expanded_conv_5_depthwise", "trainable": false, "dtype": {"module": "keras", "class_name": "DTypePolicy", "config": {"name": "float32"}, "registered_name": null}, "depth_multiplier": 1, "kernel_size": [5, 5], "strides": [1, 1], "padding": "same", "data_format": "channels_last", "dilation_rate": [1, 1], "activation": "linear", "use_bias": false, "depthwise_initializer": {"module": "keras.initializers", "class_name": "GlorotUniform", "config": {"seed": null}, "registered_name": null}, "bias_initializer": {"module": "keras.initializers", "class_name": "Zeros", "config": {}, "registered_name": null}, "depthwise_regularizer": null, "bias_regularizer": null, "activity_regularizer": null, "depthwise_constraint": null, "bias_constraint": null}, "name": "expanded_conv_5_depthwise", "inbound_nodes": [{"args": [{"class_name": "__keras_tensor__", "config": {"shape": [null, 14, 14, 240], "dtype": "float32", "keras_history": ["activation_149", 0, 0]}}], "kwargs": {}}]}, {"class_name": "BatchNormalization", "config": {"name": "expanded_conv_5_depthwise_bn", "trainable": false, "dtype": {"module": "keras", "class_name": "DTypePolicy", "config": {"name": "float32"}, "registered_name": null}, "axis": -1, "momentum": 0.999, "epsilon": 0.001, "center": true, "scale": true, "beta_initializer": {"module": "keras.initializers", "class_name": "Zeros", "config": {}, "registered_name": null}, "gamma_initializer": {"module": "keras.initializers", "class_name": "Ones", "config": {}, "registered_name": null}, "moving_mean_initializer": {"module": "keras.initializers", "class_name": "Zeros", "config": {}, "registered_name": null}, "moving_variance_initializer": {"module": "keras.initializers", "class_name": "Ones", "config": {}, "registered_name": null}, "beta_regularizer": null, "gamma_regularizer": null, "beta_constraint": null, "gamma_constraint": null, "synchronized": false}, "name": "expanded_conv_5_depthwise_bn", "inbound_nodes": [{"args": [{"class_name": "__keras_tensor__", "config": {"shape": [null, 14, 14, 240], "dtype": "float32", "keras_history": ["expanded_conv_5_depthwise", 0, 0]}}], "kwargs": {"mask": null}}]}, {"class_name": "Activation", "config": {"name": "activation_150", "trainable": false, "dtype": {"module": "keras", "class_name": "DTypePolicy", "config": {"name": "float32"}, "registered_name": null}, "activation": "hard_silu"}, "name": "activation_150", "inbound_nodes": [{"args": [{"class_name": "__keras_tensor__", "config": {"shape": [null, 14, 14, 240], "dtype": "float32", "keras_history": ["expanded_conv_5_depthwise_bn", 0, 0]}}], "kwargs": {}}]}, {"class_name": "GlobalAveragePooling2D", "config": {"name": "expanded_conv_5_squeeze_excite_avg_pool", "trainable": false, "dtype": {"module": "keras", "class_name": "DTypePolicy", "config": {"name": "float32"}, "registered_name": null}, "data_format": "channels_last", "keepdims": true}, "name": "expanded_conv_5_squeeze_excite_avg_pool", "inbound_nodes": [{"args": [{"class_name": "__keras_tensor__", "config": {"shape": [null, 14, 14, 240], "dtype": "float32", "keras_history": ["activation_150", 0, 0]}}], "kwargs": {}}]}, {"class_name": "Conv2D", "config": {"name": "expanded_conv_5_squeeze_excite_conv", "trainable": false, "dtype": {"module": "keras", "class_name": "DTypePolicy", "config": {"name": "float32"}, "registered_name": null}, "filters": 64, "kernel_size": [1, 1], "strides": [1, 1], "padding": "same", "data_format": "channels_last", "dilation_rate": [1, 1], "groups": 1, "activation": "linear", "use_bias": true, "kernel_initializer": {"module": "keras.initializers", "class_name": "GlorotUniform", "config": {"seed": null}, "registered_name": null}, "bias_initializer": {"module": "keras.initializers", "class_name": "Zeros", "config": {}, "registered_name": null}, "kernel_regularizer": null, "bias_regularizer": null, "activity_regularizer": null, "kernel_constraint": null, "bias_constraint": null}, "name": "expanded_conv_5_squeeze_excite_conv", "inbound_nodes": [{"args": [{"class_name": "__keras_tensor__", "config": {"shape": [null, 1, 1, 240], "dtype": "float32", "keras_history": ["expanded_conv_5_squeeze_excite_avg_pool", 0, 0]}}], "kwargs": {}}]}, {"class_name": "ReLU", "config": {"name": "expanded_conv_5_squeeze_excite_relu", "trainable": false, "dtype": {"module": "keras", "class_name": "DTypePolicy", "config": {"name": "float32"}, "registered_name": null}, "max_value": null, "negative_slope": 0.0, "threshold": 0.0}, "name": "expanded_conv_5_squeeze_excite_relu", "inbound_nodes": [{"args": [{"class_name": "__keras_tensor__", "config": {"shape": [null, 1, 1, 64], "dtype": "float32", "keras_history": ["expanded_conv_5_squeeze_excite_conv", 0, 0]}}], "kwargs": {}}]}, {"class_name": "Conv2D", "config": {"name": "expanded_conv_5_squeeze_excite_conv_1", "trainable": false, "dtype": {"module": "keras", "class_name": "DTypePolicy", "config": {"name": "float32"}, "registered_name": null}, "filters": 240, "kernel_size": [1, 1], "strides": [1, 1], "padding": "same", "data_format": "channels_last", "dilation_rate": [1, 1], "groups": 1, "activation": "linear", "use_bias": true, "kernel_initializer": {"module": "keras.initializers", "class_name": "GlorotUniform", "config": {"seed": null}, "registered_name": null}, "bias_initializer": {"module": "keras.initializers", "class_name": "Zeros", "config": {}, "registered_name": null}, "kernel_regularizer": null, "bias_regularizer": null, "activity_regularizer": null, "kernel_constraint": null, "bias_constraint": null}, "name": "expanded_conv_5_squeeze_excite_conv_1", "inbound_nodes": [{"args": [{"class_name": "__keras_tensor__", "config": {"shape": [null, 1, 1, 64], "dtype": "float32", "keras_history": ["expanded_conv_5_squeeze_excite_relu", 0, 0]}}], "kwargs": {}}]}, {"class_name": "Add", "config": {"name": "add_75"}, "name": "add_75", "inbound_nodes": [{"args": [{"class_name": "__keras_tensor__", "config": {"shape": [null, 1, 1, 240], "dtype": "float32", "keras_history": ["expanded_conv_5_squeeze_excite_conv_1", 0, 0]}}, 3.0], "kwargs": {}}]}, {"class_name": "ReLU", "config": {"name": "re_lu_120", "trainable": false, "dtype": {"module": "keras", "class_name": "DTypePolicy", "config": {"name": "float32"}, "registered_name": null}, "max_value": 6.0, "negative_slope": 0.0, "threshold": 0.0}, "name": "re_lu_120", "inbound_nodes": [{"args": [{"class_name": "__keras_tensor__", "config": {"shape": [null, 1, 1, 240], "dtype": "float32", "keras_history": ["add_75", 0, 0]}}], "kwargs": {}}]}, {"class_name": "Multiply", "config": {"name": "multiply_75"}, "name": "multiply_75", "inbound_nodes": [{"args": [{"class_name": "__keras_tensor__", "config": {"shape": [null, 1, 1, 240], "dtype": "float32", "keras_history": ["re_lu_120", 0, 0]}}, 0.16666666666666666], "kwargs": {}}]}, {"class_name": "Multiply", "config": {"name": "expanded_conv_5_squeeze_excite_mul", "trainable": false, "dtype": {"module": "keras", "class_name": "DTypePolicy", "config": {"name": "float32"}, "registered_name": null}}, "name": "expanded_conv_5_squeeze_excite_mul", "inbound_nodes": [{"args": [[{"class_name": "__keras_tensor__", "config": {"shape": [null, 14, 14, 240], "dtype": "float32", "keras_history": ["activation_150", 0, 0]}}, {"class_name": "__keras_tensor__", "config": {"shape": [null, 1, 1, 240], "dtype": "float32", "keras_history": ["multiply_75", 0, 0]}}]], "kwargs": {}}]}, {"class_name": "Conv2D", "config": {"name": "expanded_conv_5_project", "trainable": false, "dtype": {"module": "keras", "class_name": "DTypePolicy", "config": {"name": "float32"}, "registered_name": null}, "filters": 40, "kernel_size": [1, 1], "strides": [1, 1], "padding": "same", "data_format": "channels_last", "dilation_rate": [1, 1], "groups": 1, "activation": "linear", "use_bias": false, "kernel_initializer": {"module": "keras.initializers", "class_name": "GlorotUniform", "config": {"seed": null}, "registered_name": null}, "bias_initializer": {"module": "keras.initializers", "class_name": "Zeros", "config": {}, "registered_name": null}, "kernel_regularizer": null, "bias_regularizer": null, "activity_regularizer": null, "kernel_constraint": null, "bias_constraint": null}, "name": "expanded_conv_5_project", "inbound_nodes": [{"args": [{"class_name": "__keras_tensor__", "config": {"shape": [null, 14, 14, 240], "dtype": "float32", "keras_history": ["expanded_conv_5_squeeze_excite_mul", 0, 0]}}], "kwargs": {}}]}, {"class_name": "BatchNormalization", "config": {"name": "expanded_conv_5_project_bn", "trainable": false, "dtype": {"module": "keras", "class_name": "DTypePolicy", "config": {"name": "float32"}, "registered_name": null}, "axis": -1, "momentum": 0.999, "epsilon": 0.001, "center": true, "scale": true, "beta_initializer": {"module": "keras.initializers", "class_name": "Zeros", "config": {}, "registered_name": null}, "gamma_initializer": {"module": "keras.initializers", "class_name": "Ones", "config": {}, "registered_name": null}, "moving_mean_initializer": {"module": "keras.initializers", "class_name": "Zeros", "config": {}, "registered_name": null}, "moving_variance_initializer": {"module": "keras.initializers", "class_name": "Ones", "config": {}, "registered_name": null}, "beta_regularizer": null, "gamma_regularizer": null, "beta_constraint": null, "gamma_constraint": null, "synchronized": false}, "name": "expanded_conv_5_project_bn", "inbound_nodes": [{"args": [{"class_name": "__keras_tensor__", "config": {"shape": [null, 14, 14, 40], "dtype": "float32", "keras_history": ["expanded_conv_5_project", 0, 0]}}], "kwargs": {"mask": null}}]}, {"class_name": "Add", "config": {"name": "expanded_conv_5_add", "trainable": false, "dtype": {"module": "keras", "class_name": "DTypePolicy", "config": {"name": "float32"}, "registered_name": null}}, "name": "expanded_conv_5_add", "inbound_nodes": [{"args": [[{"class_name": "__keras_tensor__", "config": {"shape": [null, 14, 14, 40], "dtype": "float32", "keras_history": ["expanded_conv_4_add", 0, 0]}}, {"class_name": "__keras_tensor__", "config": {"shape": [null, 14, 14, 40], "dtype": "float32", "keras_history": ["expanded_conv_5_project_bn", 0, 0]}}]], "kwargs": {}}]}, {"class_name": "Conv2D", "config": {"name": "expanded_conv_6_expand", "trainable": false, "dtype": {"module": "keras", "class_name": "DTypePolicy", "config": {"name": "float32"}, "registered_name": null}, "filters": 120, "kernel_size": [1, 1], "strides": [1, 1], "padding": "same", "data_format": "channels_last", "dilation_rate": [1, 1], "groups": 1, "activation": "linear", "use_bias": false, "kernel_initializer": {"module": "keras.initializers", "class_name": "GlorotUniform", "config": {"seed": null}, "registered_name": null}, "bias_initializer": {"module": "keras.initializers", "class_name": "Zeros", "config": {}, "registered_name": null}, "kernel_regularizer": null, "bias_regularizer": null, "activity_regularizer": null, "kernel_constraint": null, "bias_constraint": null}, "name": "expanded_conv_6_expand", "inbound_nodes": [{"args": [{"class_name": "__keras_tensor__", "config": {"shape": [null, 14, 14, 40], "dtype": "float32", "keras_history": ["expanded_conv_5_add", 0, 0]}}], "kwargs": {}}]}, {"class_name": "BatchNormalization", "config": {"name": "expanded_conv_6_expand_bn", "trainable": false, "dtype": {"module": "keras", "class_name": "DTypePolicy", "config": {"name": "float32"}, "registered_name": null}, "axis": -1, "momentum": 0.999, "epsilon": 0.001, "center": true, "scale": true, "beta_initializer": {"module": "keras.initializers", "class_name": "Zeros", "config": {}, "registered_name": null}, "gamma_initializer": {"module": "keras.initializers", "class_name": "Ones", "config": {}, "registered_name": null}, "moving_mean_initializer": {"module": "keras.initializers", "class_name": "Zeros", "config": {}, "registered_name": null}, "moving_variance_initializer": {"module": "keras.initializers", "class_name": "Ones", "config": {}, "registered_name": null}, "beta_regularizer": null, "gamma_regularizer": null, "beta_constraint": null, "gamma_constraint": null, "synchronized": false}, "name": "expanded_conv_6_expand_bn", "inbound_nodes": [{"args": [{"class_name": "__keras_tensor__", "config": {"shape": [null, 14, 14, 120], "dtype": "float32", "keras_history": ["expanded_conv_6_expand", 0, 0]}}], "kwargs": {"mask": null}}]}, {"class_name": "Activation", "config": {"name": "activation_151", "trainable": false, "dtype": {"module": "keras", "class_name": "DTypePolicy", "config": {"name": "float32"}, "registered_name": null}, "activation": "hard_silu"}, "name": "activation_151", "inbound_nodes": [{"args": [{"class_name": "__keras_tensor__", "config": {"shape": [null, 14, 14, 120], "dtype": "float32", "keras_history": ["expanded_conv_6_expand_bn", 0, 0]}}], "kwargs": {}}]}, {"class_name": "DepthwiseConv2D", "config": {"name": "expanded_conv_6_depthwise", "trainable": false, "dtype": {"module": "keras", "class_name": "DTypePolicy", "config": {"name": "float32"}, "registered_name": null}, "depth_multiplier": 1, "kernel_size": [5, 5], "strides": [1, 1], "padding": "same", "data_format": "channels_last", "dilation_rate": [1, 1], "activation": "linear", "use_bias": false, "depthwise_initializer": {"module": "keras.initializers", "class_name": "GlorotUniform", "config": {"seed": null}, "registered_name": null}, "bias_initializer": {"module": "keras.initializers", "class_name": "Zeros", "config": {}, "registered_name": null}, "depthwise_regularizer": null, "bias_regularizer": null, "activity_regularizer": null, "depthwise_constraint": null, "bias_constraint": null}, "name": "expanded_conv_6_depthwise", "inbound_nodes": [{"args": [{"class_name": "__keras_tensor__", "config": {"shape": [null, 14, 14, 120], "dtype": "float32", "keras_history": ["activation_151", 0, 0]}}], "kwargs": {}}]}, {"class_name": "BatchNormalization", "config": {"name": "expanded_conv_6_depthwise_bn", "trainable": false, "dtype": {"module": "keras", "class_name": "DTypePolicy", "config": {"name": "float32"}, "registered_name": null}, "axis": -1, "momentum": 0.999, "epsilon": 0.001, "center": true, "scale": true, "beta_initializer": {"module": "keras.initializers", "class_name": "Zeros", "config": {}, "registered_name": null}, "gamma_initializer": {"module": "keras.initializers", "class_name": "Ones", "config": {}, "registered_name": null}, "moving_mean_initializer": {"module": "keras.initializers", "class_name": "Zeros", "config": {}, "registered_name": null}, "moving_variance_initializer": {"module": "keras.initializers", "class_name": "Ones", "config": {}, "registered_name": null}, "beta_regularizer": null, "gamma_regularizer": null, "beta_constraint": null, "gamma_constraint": null, "synchronized": false}, "name": "expanded_conv_6_depthwise_bn", "inbound_nodes": [{"args": [{"class_name": "__keras_tensor__", "config": {"shape": [null, 14, 14, 120], "dtype": "float32", "keras_history": ["expanded_conv_6_depthwise", 0, 0]}}], "kwargs": {"mask": null}}]}, {"class_name": "Activation", "config": {"name": "activation_152", "trainable": false, "dtype": {"module": "keras", "class_name": "DTypePolicy", "config": {"name": "float32"}, "registered_name": null}, "activation": "hard_silu"}, "name": "activation_152", "inbound_nodes": [{"args": [{"class_name": "__keras_tensor__", "config": {"shape": [null, 14, 14, 120], "dtype": "float32", "keras_history": ["expanded_conv_6_depthwise_bn", 0, 0]}}], "kwargs": {}}]}, {"class_name": "GlobalAveragePooling2D", "config": {"name": "expanded_conv_6_squeeze_excite_avg_pool", "trainable": false, "dtype": {"module": "keras", "class_name": "DTypePolicy", "config": {"name": "float32"}, "registered_name": null}, "data_format": "channels_last", "keepdims": true}, "name": "expanded_conv_6_squeeze_excite_avg_pool", "inbound_nodes": [{"args": [{"class_name": "__keras_tensor__", "config": {"shape": [null, 14, 14, 120], "dtype": "float32", "keras_history": ["activation_152", 0, 0]}}], "kwargs": {}}]}, {"class_name": "Conv2D", "config": {"name": "expanded_conv_6_squeeze_excite_conv", "trainable": false, "dtype": {"module": "keras", "class_name": "DTypePolicy", "config": {"name": "float32"}, "registered_name": null}, "filters": 32, "kernel_size": [1, 1], "strides": [1, 1], "padding": "same", "data_format": "channels_last", "dilation_rate": [1, 1], "groups": 1, "activation": "linear", "use_bias": true, "kernel_initializer": {"module": "keras.initializers", "class_name": "GlorotUniform", "config": {"seed": null}, "registered_name": null}, "bias_initializer": {"module": "keras.initializers", "class_name": "Zeros", "config": {}, "registered_name": null}, "kernel_regularizer": null, "bias_regularizer": null, "activity_regularizer": null, "kernel_constraint": null, "bias_constraint": null}, "name": "expanded_conv_6_squeeze_excite_conv", "inbound_nodes": [{"args": [{"class_name": "__keras_tensor__", "config": {"shape": [null, 1, 1, 120], "dtype": "float32", "keras_history": ["expanded_conv_6_squeeze_excite_avg_pool", 0, 0]}}], "kwargs": {}}]}, {"class_name": "ReLU", "config": {"name": "expanded_conv_6_squeeze_excite_relu", "trainable": false, "dtype": {"module": "keras", "class_name": "DTypePolicy", "config": {"name": "float32"}, "registered_name": null}, "max_value": null, "negative_slope": 0.0, "threshold": 0.0}, "name": "expanded_conv_6_squeeze_excite_relu", "inbound_nodes": [{"args": [{"class_name": "__keras_tensor__", "config": {"shape": [null, 1, 1, 32], "dtype": "float32", "keras_history": ["expanded_conv_6_squeeze_excite_conv", 0, 0]}}], "kwargs": {}}]}, {"class_name": "Conv2D", "config": {"name": "expanded_conv_6_squeeze_excite_conv_1", "trainable": false, "dtype": {"module": "keras", "class_name": "DTypePolicy", "config": {"name": "float32"}, "registered_name": null}, "filters": 120, "kernel_size": [1, 1], "strides": [1, 1], "padding": "same", "data_format": "channels_last", "dilation_rate": [1, 1], "groups": 1, "activation": "linear", "use_bias": true, "kernel_initializer": {"module": "keras.initializers", "class_name": "GlorotUniform", "config": {"seed": null}, "registered_name": null}, "bias_initializer": {"module": "keras.initializers", "class_name": "Zeros", "config": {}, "registered_name": null}, "kernel_regularizer": null, "bias_regularizer": null, "activity_regularizer": null, "kernel_constraint": null, "bias_constraint": null}, "name": "expanded_conv_6_squeeze_excite_conv_1", "inbound_nodes": [{"args": [{"class_name": "__keras_tensor__", "config": {"shape": [null, 1, 1, 32], "dtype": "float32", "keras_history": ["expanded_conv_6_squeeze_excite_relu", 0, 0]}}], "kwargs": {}}]}, {"class_name": "Add", "config": {"name": "add_76"}, "name": "add_76", "inbound_nodes": [{"args": [{"class_name": "__keras_tensor__", "config": {"shape": [null, 1, 1, 120], "dtype": "float32", "keras_history": ["expanded_conv_6_squeeze_excite_conv_1", 0, 0]}}, 3.0], "kwargs": {}}]}, {"class_name": "ReLU", "config": {"name": "re_lu_121", "trainable": false, "dtype": {"module": "keras", "class_name": "DTypePolicy", "config": {"name": "float32"}, "registered_name": null}, "max_value": 6.0, "negative_slope": 0.0, "threshold": 0.0}, "name": "re_lu_121", "inbound_nodes": [{"args": [{"class_name": "__keras_tensor__", "config": {"shape": [null, 1, 1, 120], "dtype": "float32", "keras_history": ["add_76", 0, 0]}}], "kwargs": {}}]}, {"class_name": "Multiply", "config": {"name": "multiply_76"}, "name": "multiply_76", "inbound_nodes": [{"args": [{"class_name": "__keras_tensor__", "config": {"shape": [null, 1, 1, 120], "dtype": "float32", "keras_history": ["re_lu_121", 0, 0]}}, 0.16666666666666666], "kwargs": {}}]}, {"class_name": "Multiply", "config": {"name": "expanded_conv_6_squeeze_excite_mul", "trainable": false, "dtype": {"module": "keras", "class_name": "DTypePolicy", "config": {"name": "float32"}, "registered_name": null}}, "name": "expanded_conv_6_squeeze_excite_mul", "inbound_nodes": [{"args": [[{"class_name": "__keras_tensor__", "config": {"shape": [null, 14, 14, 120], "dtype": "float32", "keras_history": ["activation_152", 0, 0]}}, {"class_name": "__keras_tensor__", "config": {"shape": [null, 1, 1, 120], "dtype": "float32", "keras_history": ["multiply_76", 0, 0]}}]], "kwargs": {}}]}, {"class_name": "Conv2D", "config": {"name": "expanded_conv_6_project", "trainable": false, "dtype": {"module": "keras", "class_name": "DTypePolicy", "config": {"name": "float32"}, "registered_name": null}, "filters": 48, "kernel_size": [1, 1], "strides": [1, 1], "padding": "same", "data_format": "channels_last", "dilation_rate": [1, 1], "groups": 1, "activation": "linear", "use_bias": false, "kernel_initializer": {"module": "keras.initializers", "class_name": "GlorotUniform", "config": {"seed": null}, "registered_name": null}, "bias_initializer": {"module": "keras.initializers", "class_name": "Zeros", "config": {}, "registered_name": null}, "kernel_regularizer": null, "bias_regularizer": null, "activity_regularizer": null, "kernel_constraint": null, "bias_constraint": null}, "name": "expanded_conv_6_project", "inbound_nodes": [{"args": [{"class_name": "__keras_tensor__", "config": {"shape": [null, 14, 14, 120], "dtype": "float32", "keras_history": ["expanded_conv_6_squeeze_excite_mul", 0, 0]}}], "kwargs": {}}]}, {"class_name": "BatchNormalization", "config": {"name": "expanded_conv_6_project_bn", "trainable": false, "dtype": {"module": "keras", "class_name": "DTypePolicy", "config": {"name": "float32"}, "registered_name": null}, "axis": -1, "momentum": 0.999, "epsilon": 0.001, "center": true, "scale": true, "beta_initializer": {"module": "keras.initializers", "class_name": "Zeros", "config": {}, "registered_name": null}, "gamma_initializer": {"module": "keras.initializers", "class_name": "Ones", "config": {}, "registered_name": null}, "moving_mean_initializer": {"module": "keras.initializers", "class_name": "Zeros", "config": {}, "registered_name": null}, "moving_variance_initializer": {"module": "keras.initializers", "class_name": "Ones", "config": {}, "registered_name": null}, "beta_regularizer": null, "gamma_regularizer": null, "beta_constraint": null, "gamma_constraint": null, "synchronized": false}, "name": "expanded_conv_6_project_bn", "inbound_nodes": [{"args": [{"class_name": "__keras_tensor__", "config": {"shape": [null, 14, 14, 48], "dtype": "float32", "keras_history": ["expanded_conv_6_project", 0, 0]}}], "kwargs": {"mask": null}}]}, {"class_name": "Conv2D", "config": {"name": "expanded_conv_7_expand", "trainable": false, "dtype": {"module": "keras", "class_name": "DTypePolicy", "config": {"name": "float32"}, "registered_name": null}, "filters": 144, "kernel_size": [1, 1], "strides": [1, 1], "padding": "same", "data_format": "channels_last", "dilation_rate": [1, 1], "groups": 1, "activation": "linear", "use_bias": false, "kernel_initializer": {"module": "keras.initializers", "class_name": "GlorotUniform", "config": {"seed": null}, "registered_name": null}, "bias_initializer": {"module": "keras.initializers", "class_name": "Zeros", "config": {}, "registered_name": null}, "kernel_regularizer": null, "bias_regularizer": null, "activity_regularizer": null, "kernel_constraint": null, "bias_constraint": null}, "name": "expanded_conv_7_expand", "inbound_nodes": [{"args": [{"class_name": "__keras_tensor__", "config": {"shape": [null, 14, 14, 48], "dtype": "float32", "keras_history": ["expanded_conv_6_project_bn", 0, 0]}}], "kwargs": {}}]}, {"class_name": "BatchNormalization", "config": {"name": "expanded_conv_7_expand_bn", "trainable": false, "dtype": {"module": "keras", "class_name": "DTypePolicy", "config": {"name": "float32"}, "registered_name": null}, "axis": -1, "momentum": 0.999, "epsilon": 0.001, "center": true, "scale": true, "beta_initializer": {"module": "keras.initializers", "class_name": "Zeros", "config": {}, "registered_name": null}, "gamma_initializer": {"module": "keras.initializers", "class_name": "Ones", "config": {}, "registered_name": null}, "moving_mean_initializer": {"module": "keras.initializers", "class_name": "Zeros", "config": {}, "registered_name": null}, "moving_variance_initializer": {"module": "keras.initializers", "class_name": "Ones", "config": {}, "registered_name": null}, "beta_regularizer": null, "gamma_regularizer": null, "beta_constraint": null, "gamma_constraint": null, "synchronized": false}, "name": "expanded_conv_7_expand_bn", "inbound_nodes": [{"args": [{"class_name": "__keras_tensor__", "config": {"shape": [null, 14, 14, 144], "dtype": "float32", "keras_history": ["expanded_conv_7_expand", 0, 0]}}], "kwargs": {"mask": null}}]}, {"class_name": "Activation", "config": {"name": "activation_153", "trainable": false, "dtype": {"module": "keras", "class_name": "DTypePolicy", "config": {"name": "float32"}, "registered_name": null}, "activation": "hard_silu"}, "name": "activation_153", "inbound_nodes": [{"args": [{"class_name": "__keras_tensor__", "config": {"shape": [null, 14, 14, 144], "dtype": "float32", "keras_history": ["expanded_conv_7_expand_bn", 0, 0]}}], "kwargs": {}}]}, {"class_name": "DepthwiseConv2D", "config": {"name": "expanded_conv_7_depthwise", "trainable": false, "dtype": {"module": "keras", "class_name": "DTypePolicy", "config": {"name": "float32"}, "registered_name": null}, "depth_multiplier": 1, "kernel_size": [5, 5], "strides": [1, 1], "padding": "same", "data_format": "channels_last", "dilation_rate": [1, 1], "activation": "linear", "use_bias": false, "depthwise_initializer": {"module": "keras.initializers", "class_name": "GlorotUniform", "config": {"seed": null}, "registered_name": null}, "bias_initializer": {"module": "keras.initializers", "class_name": "Zeros", "config": {}, "registered_name": null}, "depthwise_regularizer": null, "bias_regularizer": null, "activity_regularizer": null, "depthwise_constraint": null, "bias_constraint": null}, "name": "expanded_conv_7_depthwise", "inbound_nodes": [{"args": [{"class_name": "__keras_tensor__", "config": {"shape": [null, 14, 14, 144], "dtype": "float32", "keras_history": ["activation_153", 0, 0]}}], "kwargs": {}}]}, {"class_name": "BatchNormalization", "config": {"name": "expanded_conv_7_depthwise_bn", "trainable": false, "dtype": {"module": "keras", "class_name": "DTypePolicy", "config": {"name": "float32"}, "registered_name": null}, "axis": -1, "momentum": 0.999, "epsilon": 0.001, "center": true, "scale": true, "beta_initializer": {"module": "keras.initializers", "class_name": "Zeros", "config": {}, "registered_name": null}, "gamma_initializer": {"module": "keras.initializers", "class_name": "Ones", "config": {}, "registered_name": null}, "moving_mean_initializer": {"module": "keras.initializers", "class_name": "Zeros", "config": {}, "registered_name": null}, "moving_variance_initializer": {"module": "keras.initializers", "class_name": "Ones", "config": {}, "registered_name": null}, "beta_regularizer": null, "gamma_regularizer": null, "beta_constraint": null, "gamma_constraint": null, "synchronized": false}, "name": "expanded_conv_7_depthwise_bn", "inbound_nodes": [{"args": [{"class_name": "__keras_tensor__", "config": {"shape": [null, 14, 14, 144], "dtype": "float32", "keras_history": ["expanded_conv_7_depthwise", 0, 0]}}], "kwargs": {"mask": null}}]}, {"class_name": "Activation", "config": {"name": "activation_154", "trainable": false, "dtype": {"module": "keras", "class_name": "DTypePolicy", "config": {"name": "float32"}, "registered_name": null}, "activation": "hard_silu"}, "name": "activation_154", "inbound_nodes": [{"args": [{"class_name": "__keras_tensor__", "config": {"shape": [null, 14, 14, 144], "dtype": "float32", "keras_history": ["expanded_conv_7_depthwise_bn", 0, 0]}}], "kwargs": {}}]}, {"class_name": "GlobalAveragePooling2D", "config": {"name": "expanded_conv_7_squeeze_excite_avg_pool", "trainable": false, "dtype": {"module": "keras", "class_name": "DTypePolicy", "config": {"name": "float32"}, "registered_name": null}, "data_format": "channels_last", "keepdims": true}, "name": "expanded_conv_7_squeeze_excite_avg_pool", "inbound_nodes": [{"args": [{"class_name": "__keras_tensor__", "config": {"shape": [null, 14, 14, 144], "dtype": "float32", "keras_history": ["activation_154", 0, 0]}}], "kwargs": {}}]}, {"class_name": "Conv2D", "config": {"name": "expanded_conv_7_squeeze_excite_conv", "trainable": false, "dtype": {"module": "keras", "class_name": "DTypePolicy", "config": {"name": "float32"}, "registered_name": null}, "filters": 40, "kernel_size": [1, 1], "strides": [1, 1], "padding": "same", "data_format": "channels_last", "dilation_rate": [1, 1], "groups": 1, "activation": "linear", "use_bias": true, "kernel_initializer": {"module": "keras.initializers", "class_name": "GlorotUniform", "config": {"seed": null}, "registered_name": null}, "bias_initializer": {"module": "keras.initializers", "class_name": "Zeros", "config": {}, "registered_name": null}, "kernel_regularizer": null, "bias_regularizer": null, "activity_regularizer": null, "kernel_constraint": null, "bias_constraint": null}, "name": "expanded_conv_7_squeeze_excite_conv", "inbound_nodes": [{"args": [{"class_name": "__keras_tensor__", "config": {"shape": [null, 1, 1, 144], "dtype": "float32", "keras_history": ["expanded_conv_7_squeeze_excite_avg_pool", 0, 0]}}], "kwargs": {}}]}, {"class_name": "ReLU", "config": {"name": "expanded_conv_7_squeeze_excite_relu", "trainable": false, "dtype": {"module": "keras", "class_name": "DTypePolicy", "config": {"name": "float32"}, "registered_name": null}, "max_value": null, "negative_slope": 0.0, "threshold": 0.0}, "name": "expanded_conv_7_squeeze_excite_relu", "inbound_nodes": [{"args": [{"class_name": "__keras_tensor__", "config": {"shape": [null, 1, 1, 40], "dtype": "float32", "keras_history": ["expanded_conv_7_squeeze_excite_conv", 0, 0]}}], "kwargs": {}}]}, {"class_name": "Conv2D", "config": {"name": "expanded_conv_7_squeeze_excite_conv_1", "trainable": false, "dtype": {"module": "keras", "class_name": "DTypePolicy", "config": {"name": "float32"}, "registered_name": null}, "filters": 144, "kernel_size": [1, 1], "strides": [1, 1], "padding": "same", "data_format": "channels_last", "dilation_rate": [1, 1], "groups": 1, "activation": "linear", "use_bias": true, "kernel_initializer": {"module": "keras.initializers", "class_name": "GlorotUniform", "config": {"seed": null}, "registered_name": null}, "bias_initializer": {"module": "keras.initializers", "class_name": "Zeros", "config": {}, "registered_name": null}, "kernel_regularizer": null, "bias_regularizer": null, "activity_regularizer": null, "kernel_constraint": null, "bias_constraint": null}, "name": "expanded_conv_7_squeeze_excite_conv_1", "inbound_nodes": [{"args": [{"class_name": "__keras_tensor__", "config": {"shape": [null, 1, 1, 40], "dtype": "float32", "keras_history": ["expanded_conv_7_squeeze_excite_relu", 0, 0]}}], "kwargs": {}}]}, {"class_name": "Add", "config": {"name": "add_77"}, "name": "add_77", "inbound_nodes": [{"args": [{"class_name": "__keras_tensor__", "config": {"shape": [null, 1, 1, 144], "dtype": "float32", "keras_history": ["expanded_conv_7_squeeze_excite_conv_1", 0, 0]}}, 3.0], "kwargs": {}}]}, {"class_name": "ReLU", "config": {"name": "re_lu_122", "trainable": false, "dtype": {"module": "keras", "class_name": "DTypePolicy", "config": {"name": "float32"}, "registered_name": null}, "max_value": 6.0, "negative_slope": 0.0, "threshold": 0.0}, "name": "re_lu_122", "inbound_nodes": [{"args": [{"class_name": "__keras_tensor__", "config": {"shape": [null, 1, 1, 144], "dtype": "float32", "keras_history": ["add_77", 0, 0]}}], "kwargs": {}}]}, {"class_name": "Multiply", "config": {"name": "multiply_77"}, "name": "multiply_77", "inbound_nodes": [{"args": [{"class_name": "__keras_tensor__", "config": {"shape": [null, 1, 1, 144], "dtype": "float32", "keras_history": ["re_lu_122", 0, 0]}}, 0.16666666666666666], "kwargs": {}}]}, {"class_name": "Multiply", "config": {"name": "expanded_conv_7_squeeze_excite_mul", "trainable": false, "dtype": {"module": "keras", "class_name": "DTypePolicy", "config": {"name": "float32"}, "registered_name": null}}, "name": "expanded_conv_7_squeeze_excite_mul", "inbound_nodes": [{"args": [[{"class_name": "__keras_tensor__", "config": {"shape": [null, 14, 14, 144], "dtype": "float32", "keras_history": ["activation_154", 0, 0]}}, {"class_name": "__keras_tensor__", "config": {"shape": [null, 1, 1, 144], "dtype": "float32", "keras_history": ["multiply_77", 0, 0]}}]], "kwargs": {}}]}, {"class_name": "Conv2D", "config": {"name": "expanded_conv_7_project", "trainable": false, "dtype": {"module": "keras", "class_name": "DTypePolicy", "config": {"name": "float32"}, "registered_name": null}, "filters": 48, "kernel_size": [1, 1], "strides": [1, 1], "padding": "same", "data_format": "channels_last", "dilation_rate": [1, 1], "groups": 1, "activation": "linear", "use_bias": false, "kernel_initializer": {"module": "keras.initializers", "class_name": "GlorotUniform", "config": {"seed": null}, "registered_name": null}, "bias_initializer": {"module": "keras.initializers", "class_name": "Zeros", "config": {}, "registered_name": null}, "kernel_regularizer": null, "bias_regularizer": null, "activity_regularizer": null, "kernel_constraint": null, "bias_constraint": null}, "name": "expanded_conv_7_project", "inbound_nodes": [{"args": [{"class_name": "__keras_tensor__", "config": {"shape": [null, 14, 14, 144], "dtype": "float32", "keras_history": ["expanded_conv_7_squeeze_excite_mul", 0, 0]}}], "kwargs": {}}]}, {"class_name": "BatchNormalization", "config": {"name": "expanded_conv_7_project_bn", "trainable": false, "dtype": {"module": "keras", "class_name": "DTypePolicy", "config": {"name": "float32"}, "registered_name": null}, "axis": -1, "momentum": 0.999, "epsilon": 0.001, "center": true, "scale": true, "beta_initializer": {"module": "keras.initializers", "class_name": "Zeros", "config": {}, "registered_name": null}, "gamma_initializer": {"module": "keras.initializers", "class_name": "Ones", "config": {}, "registered_name": null}, "moving_mean_initializer": {"module": "keras.initializers", "class_name": "Zeros", "config": {}, "registered_name": null}, "moving_variance_initializer": {"module": "keras.initializers", "class_name": "Ones", "config": {}, "registered_name": null}, "beta_regularizer": null, "gamma_regularizer": null, "beta_constraint": null, "gamma_constraint": null, "synchronized": false}, "name": "expanded_conv_7_project_bn", "inbound_nodes": [{"args": [{"class_name": "__keras_tensor__", "config": {"shape": [null, 14, 14, 48], "dtype": "float32", "keras_history": ["expanded_conv_7_project", 0, 0]}}], "kwargs": {"mask": null}}]}, {"class_name": "Add", "config": {"name": "expanded_conv_7_add", "trainable": false, "dtype": {"module": "keras", "class_name": "DTypePolicy", "config": {"name": "float32"}, "registered_name": null}}, "name": "expanded_conv_7_add", "inbound_nodes": [{"args": [[{"class_name": "__keras_tensor__", "config": {"shape": [null, 14, 14, 48], "dtype": "float32", "keras_history": ["expanded_conv_6_project_bn", 0, 0]}}, {"class_name": "__keras_tensor__", "config": {"shape": [null, 14, 14, 48], "dtype": "float32", "keras_history": ["expanded_conv_7_project_bn", 0, 0]}}]], "kwargs": {}}]}, {"class_name": "Conv2D", "config": {"name": "expanded_conv_8_expand", "trainable": false, "dtype": {"module": "keras", "class_name": "DTypePolicy", "config": {"name": "float32"}, "registered_name": null}, "filters": 288, "kernel_size": [1, 1], "strides": [1, 1], "padding": "same", "data_format": "channels_last", "dilation_rate": [1, 1], "groups": 1, "activation": "linear", "use_bias": false, "kernel_initializer": {"module": "keras.initializers", "class_name": "GlorotUniform", "config": {"seed": null}, "registered_name": null}, "bias_initializer": {"module": "keras.initializers", "class_name": "Zeros", "config": {}, "registered_name": null}, "kernel_regularizer": null, "bias_regularizer": null, "activity_regularizer": null, "kernel_constraint": null, "bias_constraint": null}, "name": "expanded_conv_8_expand", "inbound_nodes": [{"args": [{"class_name": "__keras_tensor__", "config": {"shape": [null, 14, 14, 48], "dtype": "float32", "keras_history": ["expanded_conv_7_add", 0, 0]}}], "kwargs": {}}]}, {"class_name": "BatchNormalization", "config": {"name": "expanded_conv_8_expand_bn", "trainable": false, "dtype": {"module": "keras", "class_name": "DTypePolicy", "config": {"name": "float32"}, "registered_name": null}, "axis": -1, "momentum": 0.999, "epsilon": 0.001, "center": true, "scale": true, "beta_initializer": {"module": "keras.initializers", "class_name": "Zeros", "config": {}, "registered_name": null}, "gamma_initializer": {"module": "keras.initializers", "class_name": "Ones", "config": {}, "registered_name": null}, "moving_mean_initializer": {"module": "keras.initializers", "class_name": "Zeros", "config": {}, "registered_name": null}, "moving_variance_initializer": {"module": "keras.initializers", "class_name": "Ones", "config": {}, "registered_name": null}, "beta_regularizer": null, "gamma_regularizer": null, "beta_constraint": null, "gamma_constraint": null, "synchronized": false}, "name": "expanded_conv_8_expand_bn", "inbound_nodes": [{"args": [{"class_name": "__keras_tensor__", "config": {"shape": [null, 14, 14, 288], "dtype": "float32", "keras_history": ["expanded_conv_8_expand", 0, 0]}}], "kwargs": {"mask": null}}]}, {"class_name": "Activation", "config": {"name": "activation_155", "trainable": false, "dtype": {"module": "keras", "class_name": "DTypePolicy", "config": {"name": "float32"}, "registered_name": null}, "activation": "hard_silu"}, "name": "activation_155", "inbound_nodes": [{"args": [{"class_name": "__keras_tensor__", "config": {"shape": [null, 14, 14, 288], "dtype": "float32", "keras_history": ["expanded_conv_8_expand_bn", 0, 0]}}], "kwargs": {}}]}, {"class_name": "ZeroPadding2D", "config": {"name": "expanded_conv_8_depthwise_pad", "trainable": false, "dtype": {"module": "keras", "class_name": "DTypePolicy", "config": {"name": "float32"}, "registered_name": null}, "padding": [[1, 2], [1, 2]], "data_format": "channels_last"}, "name": "expanded_conv_8_depthwise_pad", "inbound_nodes": [{"args": [{"class_name": "__keras_tensor__", "config": {"shape": [null, 14, 14, 288], "dtype": "float32", "keras_history": ["activation_155", 0, 0]}}], "kwargs": {}}]}, {"class_name": "DepthwiseConv2D", "config": {"name": "expanded_conv_8_depthwise", "trainable": false, "dtype": {"module": "keras", "class_name": "DTypePolicy", "config": {"name": "float32"}, "registered_name": null}, "depth_multiplier": 1, "kernel_size": [5, 5], "strides": [2, 2], "padding": "valid", "data_format": "channels_last", "dilation_rate": [1, 1], "activation": "linear", "use_bias": false, "depthwise_initializer": {"module": "keras.initializers", "class_name": "GlorotUniform", "config": {"seed": null}, "registered_name": null}, "bias_initializer": {"module": "keras.initializers", "class_name": "Zeros", "config": {}, "registered_name": null}, "depthwise_regularizer": null, "bias_regularizer": null, "activity_regularizer": null, "depthwise_constraint": null, "bias_constraint": null}, "name": "expanded_conv_8_depthwise", "inbound_nodes": [{"args": [{"class_name": "__keras_tensor__", "config": {"shape": [null, 17, 17, 288], "dtype": "float32", "keras_history": ["expanded_conv_8_depthwise_pad", 0, 0]}}], "kwargs": {}}]}, {"class_name": "BatchNormalization", "config": {"name": "expanded_conv_8_depthwise_bn", "trainable": false, "dtype": {"module": "keras", "class_name": "DTypePolicy", "config": {"name": "float32"}, "registered_name": null}, "axis": -1, "momentum": 0.999, "epsilon": 0.001, "center": true, "scale": true, "beta_initializer": {"module": "keras.initializers", "class_name": "Zeros", "config": {}, "registered_name": null}, "gamma_initializer": {"module": "keras.initializers", "class_name": "Ones", "config": {}, "registered_name": null}, "moving_mean_initializer": {"module": "keras.initializers", "class_name": "Zeros", "config": {}, "registered_name": null}, "moving_variance_initializer": {"module": "keras.initializers", "class_name": "Ones", "config": {}, "registered_name": null}, "beta_regularizer": null, "gamma_regularizer": null, "beta_constraint": null, "gamma_constraint": null, "synchronized": false}, "name": "expanded_conv_8_depthwise_bn", "inbound_nodes": [{"args": [{"class_name": "__keras_tensor__", "config": {"shape": [null, 7, 7, 288], "dtype": "float32", "keras_history": ["expanded_conv_8_depthwise", 0, 0]}}], "kwargs": {"mask": null}}]}, {"class_name": "Activation", "config": {"name": "activation_156", "trainable": false, "dtype": {"module": "keras", "class_name": "DTypePolicy", "config": {"name": "float32"}, "registered_name": null}, "activation": "hard_silu"}, "name": "activation_156", "inbound_nodes": [{"args": [{"class_name": "__keras_tensor__", "config": {"shape": [null, 7, 7, 288], "dtype": "float32", "keras_history": ["expanded_conv_8_depthwise_bn", 0, 0]}}], "kwargs": {}}]}, {"class_name": "GlobalAveragePooling2D", "config": {"name": "expanded_conv_8_squeeze_excite_avg_pool", "trainable": false, "dtype": {"module": "keras", "class_name": "DTypePolicy", "config": {"name": "float32"}, "registered_name": null}, "data_format": "channels_last", "keepdims": true}, "name": "expanded_conv_8_squeeze_excite_avg_pool", "inbound_nodes": [{"args": [{"class_name": "__keras_tensor__", "config": {"shape": [null, 7, 7, 288], "dtype": "float32", "keras_history": ["activation_156", 0, 0]}}], "kwargs": {}}]}, {"class_name": "Conv2D", "config": {"name": "expanded_conv_8_squeeze_excite_conv", "trainable": false, "dtype": {"module": "keras", "class_name": "DTypePolicy", "config": {"name": "float32"}, "registered_name": null}, "filters": 72, "kernel_size": [1, 1], "strides": [1, 1], "padding": "same", "data_format": "channels_last", "dilation_rate": [1, 1], "groups": 1, "activation": "linear", "use_bias": true, "kernel_initializer": {"module": "keras.initializers", "class_name": "GlorotUniform", "config": {"seed": null}, "registered_name": null}, "bias_initializer": {"module": "keras.initializers", "class_name": "Zeros", "config": {}, "registered_name": null}, "kernel_regularizer": null, "bias_regularizer": null, "activity_regularizer": null, "kernel_constraint": null, "bias_constraint": null}, "name": "expanded_conv_8_squeeze_excite_conv", "inbound_nodes": [{"args": [{"class_name": "__keras_tensor__", "config": {"shape": [null, 1, 1, 288], "dtype": "float32", "keras_history": ["expanded_conv_8_squeeze_excite_avg_pool", 0, 0]}}], "kwargs": {}}]}, {"class_name": "ReLU", "config": {"name": "expanded_conv_8_squeeze_excite_relu", "trainable": false, "dtype": {"module": "keras", "class_name": "DTypePolicy", "config": {"name": "float32"}, "registered_name": null}, "max_value": null, "negative_slope": 0.0, "threshold": 0.0}, "name": "expanded_conv_8_squeeze_excite_relu", "inbound_nodes": [{"args": [{"class_name": "__keras_tensor__", "config": {"shape": [null, 1, 1, 72], "dtype": "float32", "keras_history": ["expanded_conv_8_squeeze_excite_conv", 0, 0]}}], "kwargs": {}}]}, {"class_name": "Conv2D", "config": {"name": "expanded_conv_8_squeeze_excite_conv_1", "trainable": false, "dtype": {"module": "keras", "class_name": "DTypePolicy", "config": {"name": "float32"}, "registered_name": null}, "filters": 288, "kernel_size": [1, 1], "strides": [1, 1], "padding": "same", "data_format": "channels_last", "dilation_rate": [1, 1], "groups": 1, "activation": "linear", "use_bias": true, "kernel_initializer": {"module": "keras.initializers", "class_name": "GlorotUniform", "config": {"seed": null}, "registered_name": null}, "bias_initializer": {"module": "keras.initializers", "class_name": "Zeros", "config": {}, "registered_name": null}, "kernel_regularizer": null, "bias_regularizer": null, "activity_regularizer": null, "kernel_constraint": null, "bias_constraint": null}, "name": "expanded_conv_8_squeeze_excite_conv_1", "inbound_nodes": [{"args": [{"class_name": "__keras_tensor__", "config": {"shape": [null, 1, 1, 72], "dtype": "float32", "keras_history": ["expanded_conv_8_squeeze_excite_relu", 0, 0]}}], "kwargs": {}}]}, {"class_name": "Add", "config": {"name": "add_78"}, "name": "add_78", "inbound_nodes": [{"args": [{"class_name": "__keras_tensor__", "config": {"shape": [null, 1, 1, 288], "dtype": "float32", "keras_history": ["expanded_conv_8_squeeze_excite_conv_1", 0, 0]}}, 3.0], "kwargs": {}}]}, {"class_name": "ReLU", "config": {"name": "re_lu_123", "trainable": false, "dtype": {"module": "keras", "class_name": "DTypePolicy", "config": {"name": "float32"}, "registered_name": null}, "max_value": 6.0, "negative_slope": 0.0, "threshold": 0.0}, "name": "re_lu_123", "inbound_nodes": [{"args": [{"class_name": "__keras_tensor__", "config": {"shape": [null, 1, 1, 288], "dtype": "float32", "keras_history": ["add_78", 0, 0]}}], "kwargs": {}}]}, {"class_name": "Multiply", "config": {"name": "multiply_78"}, "name": "multiply_78", "inbound_nodes": [{"args": [{"class_name": "__keras_tensor__", "config": {"shape": [null, 1, 1, 288], "dtype": "float32", "keras_history": ["re_lu_123", 0, 0]}}, 0.16666666666666666], "kwargs": {}}]}, {"class_name": "Multiply", "config": {"name": "expanded_conv_8_squeeze_excite_mul", "trainable": false, "dtype": {"module": "keras", "class_name": "DTypePolicy", "config": {"name": "float32"}, "registered_name": null}}, "name": "expanded_conv_8_squeeze_excite_mul", "inbound_nodes": [{"args": [[{"class_name": "__keras_tensor__", "config": {"shape": [null, 7, 7, 288], "dtype": "float32", "keras_history": ["activation_156", 0, 0]}}, {"class_name": "__keras_tensor__", "config": {"shape": [null, 1, 1, 288], "dtype": "float32", "keras_history": ["multiply_78", 0, 0]}}]], "kwargs": {}}]}, {"class_name": "Conv2D", "config": {"name": "expanded_conv_8_project", "trainable": false, "dtype": {"module": "keras", "class_name": "DTypePolicy", "config": {"name": "float32"}, "registered_name": null}, "filters": 96, "kernel_size": [1, 1], "strides": [1, 1], "padding": "same", "data_format": "channels_last", "dilation_rate": [1, 1], "groups": 1, "activation": "linear", "use_bias": false, "kernel_initializer": {"module": "keras.initializers", "class_name": "GlorotUniform", "config": {"seed": null}, "registered_name": null}, "bias_initializer": {"module": "keras.initializers", "class_name": "Zeros", "config": {}, "registered_name": null}, "kernel_regularizer": null, "bias_regularizer": null, "activity_regularizer": null, "kernel_constraint": null, "bias_constraint": null}, "name": "expanded_conv_8_project", "inbound_nodes": [{"args": [{"class_name": "__keras_tensor__", "config": {"shape": [null, 7, 7, 288], "dtype": "float32", "keras_history": ["expanded_conv_8_squeeze_excite_mul", 0, 0]}}], "kwargs": {}}]}, {"class_name": "BatchNormalization", "config": {"name": "expanded_conv_8_project_bn", "trainable": false, "dtype": {"module": "keras", "class_name": "DTypePolicy", "config": {"name": "float32"}, "registered_name": null}, "axis": -1, "momentum": 0.999, "epsilon": 0.001, "center": true, "scale": true, "beta_initializer": {"module": "keras.initializers", "class_name": "Zeros", "config": {}, "registered_name": null}, "gamma_initializer": {"module": "keras.initializers", "class_name": "Ones", "config": {}, "registered_name": null}, "moving_mean_initializer": {"module": "keras.initializers", "class_name": "Zeros", "config": {}, "registered_name": null}, "moving_variance_initializer": {"module": "keras.initializers", "class_name": "Ones", "config": {}, "registered_name": null}, "beta_regularizer": null, "gamma_regularizer": null, "beta_constraint": null, "gamma_constraint": null, "synchronized": false}, "name": "expanded_conv_8_project_bn", "inbound_nodes": [{"args": [{"class_name": "__keras_tensor__", "config": {"shape": [null, 7, 7, 96], "dtype": "float32", "keras_history": ["expanded_conv_8_project", 0, 0]}}], "kwargs": {"mask": null}}]}, {"class_name": "Conv2D", "config": {"name": "expanded_conv_9_expand", "trainable": false, "dtype": {"module": "keras", "class_name": "DTypePolicy", "config": {"name": "float32"}, "registered_name": null}, "filters": 576, "kernel_size": [1, 1], "strides": [1, 1], "padding": "same", "data_format": "channels_last", "dilation_rate": [1, 1], "groups": 1, "activation": "linear", "use_bias": false, "kernel_initializer": {"module": "keras.initializers", "class_name": "GlorotUniform", "config": {"seed": null}, "registered_name": null}, "bias_initializer": {"module": "keras.initializers", "class_name": "Zeros", "config": {}, "registered_name": null}, "kernel_regularizer": null, "bias_regularizer": null, "activity_regularizer": null, "kernel_constraint": null, "bias_constraint": null}, "name": "expanded_conv_9_expand", "inbound_nodes": [{"args": [{"class_name": "__keras_tensor__", "config": {"shape": [null, 7, 7, 96], "dtype": "float32", "keras_history": ["expanded_conv_8_project_bn", 0, 0]}}], "kwargs": {}}]}, {"class_name": "BatchNormalization", "config": {"name": "expanded_conv_9_expand_bn", "trainable": false, "dtype": {"module": "keras", "class_name": "DTypePolicy", "config": {"name": "float32"}, "registered_name": null}, "axis": -1, "momentum": 0.999, "epsilon": 0.001, "center": true, "scale": true, "beta_initializer": {"module": "keras.initializers", "class_name": "Zeros", "config": {}, "registered_name": null}, "gamma_initializer": {"module": "keras.initializers", "class_name": "Ones", "config": {}, "registered_name": null}, "moving_mean_initializer": {"module": "keras.initializers", "class_name": "Zeros", "config": {}, "registered_name": null}, "moving_variance_initializer": {"module": "keras.initializers", "class_name": "Ones", "config": {}, "registered_name": null}, "beta_regularizer": null, "gamma_regularizer": null, "beta_constraint": null, "gamma_constraint": null, "synchronized": false}, "name": "expanded_conv_9_expand_bn", "inbound_nodes": [{"args": [{"class_name": "__keras_tensor__", "config": {"shape": [null, 7, 7, 576], "dtype": "float32", "keras_history": ["expanded_conv_9_expand", 0, 0]}}], "kwargs": {"mask": null}}]}, {"class_name": "Activation", "config": {"name": "activation_157", "trainable": false, "dtype": {"module": "keras", "class_name": "DTypePolicy", "config": {"name": "float32"}, "registered_name": null}, "activation": "hard_silu"}, "name": "activation_157", "inbound_nodes": [{"args": [{"class_name": "__keras_tensor__", "config": {"shape": [null, 7, 7, 576], "dtype": "float32", "keras_history": ["expanded_conv_9_expand_bn", 0, 0]}}], "kwargs": {}}]}, {"class_name": "DepthwiseConv2D", "config": {"name": "expanded_conv_9_depthwise", "trainable": false, "dtype": {"module": "keras", "class_name": "DTypePolicy", "config": {"name": "float32"}, "registered_name": null}, "depth_multiplier": 1, "kernel_size": [5, 5], "strides": [1, 1], "padding": "same", "data_format": "channels_last", "dilation_rate": [1, 1], "activation": "linear", "use_bias": false, "depthwise_initializer": {"module": "keras.initializers", "class_name": "GlorotUniform", "config": {"seed": null}, "registered_name": null}, "bias_initializer": {"module": "keras.initializers", "class_name": "Zeros", "config": {}, "registered_name": null}, "depthwise_regularizer": null, "bias_regularizer": null, "activity_regularizer": null, "depthwise_constraint": null, "bias_constraint": null}, "name": "expanded_conv_9_depthwise", "inbound_nodes": [{"args": [{"class_name": "__keras_tensor__", "config": {"shape": [null, 7, 7, 576], "dtype": "float32", "keras_history": ["activation_157", 0, 0]}}], "kwargs": {}}]}, {"class_name": "BatchNormalization", "config": {"name": "expanded_conv_9_depthwise_bn", "trainable": false, "dtype": {"module": "keras", "class_name": "DTypePolicy", "config": {"name": "float32"}, "registered_name": null}, "axis": -1, "momentum": 0.999, "epsilon": 0.001, "center": true, "scale": true, "beta_initializer": {"module": "keras.initializers", "class_name": "Zeros", "config": {}, "registered_name": null}, "gamma_initializer": {"module": "keras.initializers", "class_name": "Ones", "config": {}, "registered_name": null}, "moving_mean_initializer": {"module": "keras.initializers", "class_name": "Zeros", "config": {}, "registered_name": null}, "moving_variance_initializer": {"module": "keras.initializers", "class_name": "Ones", "config": {}, "registered_name": null}, "beta_regularizer": null, "gamma_regularizer": null, "beta_constraint": null, "gamma_constraint": null, "synchronized": false}, "name": "expanded_conv_9_depthwise_bn", "inbound_nodes": [{"args": [{"class_name": "__keras_tensor__", "config": {"shape": [null, 7, 7, 576], "dtype": "float32", "keras_history": ["expanded_conv_9_depthwise", 0, 0]}}], "kwargs": {"mask": null}}]}, {"class_name": "Activation", "config": {"name": "activation_158", "trainable": false, "dtype": {"module": "keras", "class_name": "DTypePolicy", "config": {"name": "float32"}, "registered_name": null}, "activation": "hard_silu"}, "name": "activation_158", "inbound_nodes": [{"args": [{"class_name": "__keras_tensor__", "config": {"shape": [null, 7, 7, 576], "dtype": "float32", "keras_history": ["expanded_conv_9_depthwise_bn", 0, 0]}}], "kwargs": {}}]}, {"class_name": "GlobalAveragePooling2D", "config": {"name": "expanded_conv_9_squeeze_excite_avg_pool", "trainable": false, "dtype": {"module": "keras", "class_name": "DTypePolicy", "config": {"name": "float32"}, "registered_name": null}, "data_format": "channels_last", "keepdims": true}, "name": "expanded_conv_9_squeeze_excite_avg_pool", "inbound_nodes": [{"args": [{"class_name": "__keras_tensor__", "config": {"shape": [null, 7, 7, 576], "dtype": "float32", "keras_history": ["activation_158", 0, 0]}}], "kwargs": {}}]}, {"class_name": "Conv2D", "config": {"name": "expanded_conv_9_squeeze_excite_conv", "trainable": false, "dtype": {"module": "keras", "class_name": "DTypePolicy", "config": {"name": "float32"}, "registered_name": null}, "filters": 144, "kernel_size": [1, 1], "strides": [1, 1], "padding": "same", "data_format": "channels_last", "dilation_rate": [1, 1], "groups": 1, "activation": "linear", "use_bias": true, "kernel_initializer": {"module": "keras.initializers", "class_name": "GlorotUniform", "config": {"seed": null}, "registered_name": null}, "bias_initializer": {"module": "keras.initializers", "class_name": "Zeros", "config": {}, "registered_name": null}, "kernel_regularizer": null, "bias_regularizer": null, "activity_regularizer": null, "kernel_constraint": null, "bias_constraint": null}, "name": "expanded_conv_9_squeeze_excite_conv", "inbound_nodes": [{"args": [{"class_name": "__keras_tensor__", "config": {"shape": [null, 1, 1, 576], "dtype": "float32", "keras_history": ["expanded_conv_9_squeeze_excite_avg_pool", 0, 0]}}], "kwargs": {}}]}, {"class_name": "ReLU", "config": {"name": "expanded_conv_9_squeeze_excite_relu", "trainable": false, "dtype": {"module": "keras", "class_name": "DTypePolicy", "config": {"name": "float32"}, "registered_name": null}, "max_value": null, "negative_slope": 0.0, "threshold": 0.0}, "name": "expanded_conv_9_squeeze_excite_relu", "inbound_nodes": [{"args": [{"class_name": "__keras_tensor__", "config": {"shape": [null, 1, 1, 144], "dtype": "float32", "keras_history": ["expanded_conv_9_squeeze_excite_conv", 0, 0]}}], "kwargs": {}}]}, {"class_name": "Conv2D", "config": {"name": "expanded_conv_9_squeeze_excite_conv_1", "trainable": false, "dtype": {"module": "keras", "class_name": "DTypePolicy", "config": {"name": "float32"}, "registered_name": null}, "filters": 576, "kernel_size": [1, 1], "strides": [1, 1], "padding": "same", "data_format": "channels_last", "dilation_rate": [1, 1], "groups": 1, "activation": "linear", "use_bias": true, "kernel_initializer": {"module": "keras.initializers", "class_name": "GlorotUniform", "config": {"seed": null}, "registered_name": null}, "bias_initializer": {"module": "keras.initializers", "class_name": "Zeros", "config": {}, "registered_name": null}, "kernel_regularizer": null, "bias_regularizer": null, "activity_regularizer": null, "kernel_constraint": null, "bias_constraint": null}, "name": "expanded_conv_9_squeeze_excite_conv_1", "inbound_nodes": [{"args": [{"class_name": "__keras_tensor__", "config": {"shape": [null, 1, 1, 144], "dtype": "float32", "keras_history": ["expanded_conv_9_squeeze_excite_relu", 0, 0]}}], "kwargs": {}}]}, {"class_name": "Add", "config": {"name": "add_79"}, "name": "add_79", "inbound_nodes": [{"args": [{"class_name": "__keras_tensor__", "config": {"shape": [null, 1, 1, 576], "dtype": "float32", "keras_history": ["expanded_conv_9_squeeze_excite_conv_1", 0, 0]}}, 3.0], "kwargs": {}}]}, {"class_name": "ReLU", "config": {"name": "re_lu_124", "trainable": false, "dtype": {"module": "keras", "class_name": "DTypePolicy", "config": {"name": "float32"}, "registered_name": null}, "max_value": 6.0, "negative_slope": 0.0, "threshold": 0.0}, "name": "re_lu_124", "inbound_nodes": [{"args": [{"class_name": "__keras_tensor__", "config": {"shape": [null, 1, 1, 576], "dtype": "float32", "keras_history": ["add_79", 0, 0]}}], "kwargs": {}}]}, {"class_name": "Multiply", "config": {"name": "multiply_79"}, "name": "multiply_79", "inbound_nodes": [{"args": [{"class_name": "__keras_tensor__", "config": {"shape": [null, 1, 1, 576], "dtype": "float32", "keras_history": ["re_lu_124", 0, 0]}}, 0.16666666666666666], "kwargs": {}}]}, {"class_name": "Multiply", "config": {"name": "expanded_conv_9_squeeze_excite_mul", "trainable": false, "dtype": {"module": "keras", "class_name": "DTypePolicy", "config": {"name": "float32"}, "registered_name": null}}, "name": "expanded_conv_9_squeeze_excite_mul", "inbound_nodes": [{"args": [[{"class_name": "__keras_tensor__", "config": {"shape": [null, 7, 7, 576], "dtype": "float32", "keras_history": ["activation_158", 0, 0]}}, {"class_name": "__keras_tensor__", "config": {"shape": [null, 1, 1, 576], "dtype": "float32", "keras_history": ["multiply_79", 0, 0]}}]], "kwargs": {}}]}, {"class_name": "Conv2D", "config": {"name": "expanded_conv_9_project", "trainable": false, "dtype": {"module": "keras", "class_name": "DTypePolicy", "config": {"name": "float32"}, "registered_name": null}, "filters": 96, "kernel_size": [1, 1], "strides": [1, 1], "padding": "same", "data_format": "channels_last", "dilation_rate": [1, 1], "groups": 1, "activation": "linear", "use_bias": false, "kernel_initializer": {"module": "keras.initializers", "class_name": "GlorotUniform", "config": {"seed": null}, "registered_name": null}, "bias_initializer": {"module": "keras.initializers", "class_name": "Zeros", "config": {}, "registered_name": null}, "kernel_regularizer": null, "bias_regularizer": null, "activity_regularizer": null, "kernel_constraint": null, "bias_constraint": null}, "name": "expanded_conv_9_project", "inbound_nodes": [{"args": [{"class_name": "__keras_tensor__", "config": {"shape": [null, 7, 7, 576], "dtype": "float32", "keras_history": ["expanded_conv_9_squeeze_excite_mul", 0, 0]}}], "kwargs": {}}]}, {"class_name": "BatchNormalization", "config": {"name": "expanded_conv_9_project_bn", "trainable": false, "dtype": {"module": "keras", "class_name": "DTypePolicy", "config": {"name": "float32"}, "registered_name": null}, "axis": -1, "momentum": 0.999, "epsilon": 0.001, "center": true, "scale": true, "beta_initializer": {"module": "keras.initializers", "class_name": "Zeros", "config": {}, "registered_name": null}, "gamma_initializer": {"module": "keras.initializers", "class_name": "Ones", "config": {}, "registered_name": null}, "moving_mean_initializer": {"module": "keras.initializers", "class_name": "Zeros", "config": {}, "registered_name": null}, "moving_variance_initializer": {"module": "keras.initializers", "class_name": "Ones", "config": {}, "registered_name": null}, "beta_regularizer": null, "gamma_regularizer": null, "beta_constraint": null, "gamma_constraint": null, "synchronized": false}, "name": "expanded_conv_9_project_bn", "inbound_nodes": [{"args": [{"class_name": "__keras_tensor__", "config": {"shape": [null, 7, 7, 96], "dtype": "float32", "keras_history": ["expanded_conv_9_project", 0, 0]}}], "kwargs": {"mask": null}}]}, {"class_name": "Add", "config": {"name": "expanded_conv_9_add", "trainable": false, "dtype": {"module": "keras", "class_name": "DTypePolicy", "config": {"name": "float32"}, "registered_name": null}}, "name": "expanded_conv_9_add", "inbound_nodes": [{"args": [[{"class_name": "__keras_tensor__", "config": {"shape": [null, 7, 7, 96], "dtype": "float32", "keras_history": ["expanded_conv_8_project_bn", 0, 0]}}, {"class_name": "__keras_tensor__", "config": {"shape": [null, 7, 7, 96], "dtype": "float32", "keras_history": ["expanded_conv_9_project_bn", 0, 0]}}]], "kwargs": {}}]}, {"class_name": "Conv2D", "config": {"name": "expanded_conv_10_expand", "trainable": false, "dtype": {"module": "keras", "class_name": "DTypePolicy", "config": {"name": "float32"}, "registered_name": null}, "filters": 576, "kernel_size": [1, 1], "strides": [1, 1], "padding": "same", "data_format": "channels_last", "dilation_rate": [1, 1], "groups": 1, "activation": "linear", "use_bias": false, "kernel_initializer": {"module": "keras.initializers", "class_name": "GlorotUniform", "config": {"seed": null}, "registered_name": null}, "bias_initializer": {"module": "keras.initializers", "class_name": "Zeros", "config": {}, "registered_name": null}, "kernel_regularizer": null, "bias_regularizer": null, "activity_regularizer": null, "kernel_constraint": null, "bias_constraint": null}, "name": "expanded_conv_10_expand", "inbound_nodes": [{"args": [{"class_name": "__keras_tensor__", "config": {"shape": [null, 7, 7, 96], "dtype": "float32", "keras_history": ["expanded_conv_9_add", 0, 0]}}], "kwargs": {}}]}, {"class_name": "BatchNormalization", "config": {"name": "expanded_conv_10_expand_bn", "trainable": false, "dtype": {"module": "keras", "class_name": "DTypePolicy", "config": {"name": "float32"}, "registered_name": null}, "axis": -1, "momentum": 0.999, "epsilon": 0.001, "center": true, "scale": true, "beta_initializer": {"module": "keras.initializers", "class_name": "Zeros", "config": {}, "registered_name": null}, "gamma_initializer": {"module": "keras.initializers", "class_name": "Ones", "config": {}, "registered_name": null}, "moving_mean_initializer": {"module": "keras.initializers", "class_name": "Zeros", "config": {}, "registered_name": null}, "moving_variance_initializer": {"module": "keras.initializers", "class_name": "Ones", "config": {}, "registered_name": null}, "beta_regularizer": null, "gamma_regularizer": null, "beta_constraint": null, "gamma_constraint": null, "synchronized": false}, "name": "expanded_conv_10_expand_bn", "inbound_nodes": [{"args": [{"class_name": "__keras_tensor__", "config": {"shape": [null, 7, 7, 576], "dtype": "float32", "keras_history": ["expanded_conv_10_expand", 0, 0]}}], "kwargs": {"mask": null}}]}, {"class_name": "Activation", "config": {"name": "activation_159", "trainable": false, "dtype": {"module": "keras", "class_name": "DTypePolicy", "config": {"name": "float32"}, "registered_name": null}, "activation": "hard_silu"}, "name": "activation_159", "inbound_nodes": [{"args": [{"class_name": "__keras_tensor__", "config": {"shape": [null, 7, 7, 576], "dtype": "float32", "keras_history": ["expanded_conv_10_expand_bn", 0, 0]}}], "kwargs": {}}]}, {"class_name": "DepthwiseConv2D", "config": {"name": "expanded_conv_10_depthwise", "trainable": false, "dtype": {"module": "keras", "class_name": "DTypePolicy", "config": {"name": "float32"}, "registered_name": null}, "depth_multiplier": 1, "kernel_size": [5, 5], "strides": [1, 1], "padding": "same", "data_format": "channels_last", "dilation_rate": [1, 1], "activation": "linear", "use_bias": false, "depthwise_initializer": {"module": "keras.initializers", "class_name": "GlorotUniform", "config": {"seed": null}, "registered_name": null}, "bias_initializer": {"module": "keras.initializers", "class_name": "Zeros", "config": {}, "registered_name": null}, "depthwise_regularizer": null, "bias_regularizer": null, "activity_regularizer": null, "depthwise_constraint": null, "bias_constraint": null}, "name": "expanded_conv_10_depthwise", "inbound_nodes": [{"args": [{"class_name": "__keras_tensor__", "config": {"shape": [null, 7, 7, 576], "dtype": "float32", "keras_history": ["activation_159", 0, 0]}}], "kwargs": {}}]}, {"class_name": "BatchNormalization", "config": {"name": "expanded_conv_10_depthwise_bn", "trainable": false, "dtype": {"module": "keras", "class_name": "DTypePolicy", "config": {"name": "float32"}, "registered_name": null}, "axis": -1, "momentum": 0.999, "epsilon": 0.001, "center": true, "scale": true, "beta_initializer": {"module": "keras.initializers", "class_name": "Zeros", "config": {}, "registered_name": null}, "gamma_initializer": {"module": "keras.initializers", "class_name": "Ones", "config": {}, "registered_name": null}, "moving_mean_initializer": {"module": "keras.initializers", "class_name": "Zeros", "config": {}, "registered_name": null}, "moving_variance_initializer": {"module": "keras.initializers", "class_name": "Ones", "config": {}, "registered_name": null}, "beta_regularizer": null, "gamma_regularizer": null, "beta_constraint": null, "gamma_constraint": null, "synchronized": false}, "name": "expanded_conv_10_depthwise_bn", "inbound_nodes": [{"args": [{"class_name": "__keras_tensor__", "config": {"shape": [null, 7, 7, 576], "dtype": "float32", "keras_history": ["expanded_conv_10_depthwise", 0, 0]}}], "kwargs": {"mask": null}}]}, {"class_name": "Activation", "config": {"name": "activation_160", "trainable": false, "dtype": {"module": "keras", "class_name": "DTypePolicy", "config": {"name": "float32"}, "registered_name": null}, "activation": "hard_silu"}, "name": "activation_160", "inbound_nodes": [{"args": [{"class_name": "__keras_tensor__", "config": {"shape": [null, 7, 7, 576], "dtype": "float32", "keras_history": ["expanded_conv_10_depthwise_bn", 0, 0]}}], "kwargs": {}}]}, {"class_name": "GlobalAveragePooling2D", "config": {"name": "expanded_conv_10_squeeze_excite_avg_pool", "trainable": false, "dtype": {"module": "keras", "class_name": "DTypePolicy", "config": {"name": "float32"}, "registered_name": null}, "data_format": "channels_last", "keepdims": true}, "name": "expanded_conv_10_squeeze_excite_avg_pool", "inbound_nodes": [{"args": [{"class_name": "__keras_tensor__", "config": {"shape": [null, 7, 7, 576], "dtype": "float32", "keras_history": ["activation_160", 0, 0]}}], "kwargs": {}}]}, {"class_name": "Conv2D", "config": {"name": "expanded_conv_10_squeeze_excite_conv", "trainable": false, "dtype": {"module": "keras", "class_name": "DTypePolicy", "config": {"name": "float32"}, "registered_name": null}, "filters": 144, "kernel_size": [1, 1], "strides": [1, 1], "padding": "same", "data_format": "channels_last", "dilation_rate": [1, 1], "groups": 1, "activation": "linear", "use_bias": true, "kernel_initializer": {"module": "keras.initializers", "class_name": "GlorotUniform", "config": {"seed": null}, "registered_name": null}, "bias_initializer": {"module": "keras.initializers", "class_name": "Zeros", "config": {}, "registered_name": null}, "kernel_regularizer": null, "bias_regularizer": null, "activity_regularizer": null, "kernel_constraint": null, "bias_constraint": null}, "name": "expanded_conv_10_squeeze_excite_conv", "inbound_nodes": [{"args": [{"class_name": "__keras_tensor__", "config": {"shape": [null, 1, 1, 576], "dtype": "float32", "keras_history": ["expanded_conv_10_squeeze_excite_avg_pool", 0, 0]}}], "kwargs": {}}]}, {"class_name": "ReLU", "config": {"name": "expanded_conv_10_squeeze_excite_relu", "trainable": false, "dtype": {"module": "keras", "class_name": "DTypePolicy", "config": {"name": "float32"}, "registered_name": null}, "max_value": null, "negative_slope": 0.0, "threshold": 0.0}, "name": "expanded_conv_10_squeeze_excite_relu", "inbound_nodes": [{"args": [{"class_name": "__keras_tensor__", "config": {"shape": [null, 1, 1, 144], "dtype": "float32", "keras_history": ["expanded_conv_10_squeeze_excite_conv", 0, 0]}}], "kwargs": {}}]}, {"class_name": "Conv2D", "config": {"name": "expanded_conv_10_squeeze_excite_conv_1", "trainable": false, "dtype": {"module": "keras", "class_name": "DTypePolicy", "config": {"name": "float32"}, "registered_name": null}, "filters": 576, "kernel_size": [1, 1], "strides": [1, 1], "padding": "same", "data_format": "channels_last", "dilation_rate": [1, 1], "groups": 1, "activation": "linear", "use_bias": true, "kernel_initializer": {"module": "keras.initializers", "class_name": "GlorotUniform", "config": {"seed": null}, "registered_name": null}, "bias_initializer": {"module": "keras.initializers", "class_name": "Zeros", "config": {}, "registered_name": null}, "kernel_regularizer": null, "bias_regularizer": null, "activity_regularizer": null, "kernel_constraint": null, "bias_constraint": null}, "name": "expanded_conv_10_squeeze_excite_conv_1", "inbound_nodes": [{"args": [{"class_name": "__keras_tensor__", "config": {"shape": [null, 1, 1, 144], "dtype": "float32", "keras_history": ["expanded_conv_10_squeeze_excite_relu", 0, 0]}}], "kwargs": {}}]}, {"class_name": "Add", "config": {"name": "add_80"}, "name": "add_80", "inbound_nodes": [{"args": [{"class_name": "__keras_tensor__", "config": {"shape": [null, 1, 1, 576], "dtype": "float32", "keras_history": ["expanded_conv_10_squeeze_excite_conv_1", 0, 0]}}, 3.0], "kwargs": {}}]}, {"class_name": "ReLU", "config": {"name": "re_lu_125", "trainable": false, "dtype": {"module": "keras", "class_name": "DTypePolicy", "config": {"name": "float32"}, "registered_name": null}, "max_value": 6.0, "negative_slope": 0.0, "threshold": 0.0}, "name": "re_lu_125", "inbound_nodes": [{"args": [{"class_name": "__keras_tensor__", "config": {"shape": [null, 1, 1, 576], "dtype": "float32", "keras_history": ["add_80", 0, 0]}}], "kwargs": {}}]}, {"class_name": "Multiply", "config": {"name": "multiply_80"}, "name": "multiply_80", "inbound_nodes": [{"args": [{"class_name": "__keras_tensor__", "config": {"shape": [null, 1, 1, 576], "dtype": "float32", "keras_history": ["re_lu_125", 0, 0]}}, 0.16666666666666666], "kwargs": {}}]}, {"class_name": "Multiply", "config": {"name": "expanded_conv_10_squeeze_excite_mul", "trainable": false, "dtype": {"module": "keras", "class_name": "DTypePolicy", "config": {"name": "float32"}, "registered_name": null}}, "name": "expanded_conv_10_squeeze_excite_mul", "inbound_nodes": [{"args": [[{"class_name": "__keras_tensor__", "config": {"shape": [null, 7, 7, 576], "dtype": "float32", "keras_history": ["activation_160", 0, 0]}}, {"class_name": "__keras_tensor__", "config": {"shape": [null, 1, 1, 576], "dtype": "float32", "keras_history": ["multiply_80", 0, 0]}}]], "kwargs": {}}]}, {"class_name": "Conv2D", "config": {"name": "expanded_conv_10_project", "trainable": false, "dtype": {"module": "keras", "class_name": "DTypePolicy", "config": {"name": "float32"}, "registered_name": null}, "filters": 96, "kernel_size": [1, 1], "strides": [1, 1], "padding": "same", "data_format": "channels_last", "dilation_rate": [1, 1], "groups": 1, "activation": "linear", "use_bias": false, "kernel_initializer": {"module": "keras.initializers", "class_name": "GlorotUniform", "config": {"seed": null}, "registered_name": null}, "bias_initializer": {"module": "keras.initializers", "class_name": "Zeros", "config": {}, "registered_name": null}, "kernel_regularizer": null, "bias_regularizer": null, "activity_regularizer": null, "kernel_constraint": null, "bias_constraint": null}, "name": "expanded_conv_10_project", "inbound_nodes": [{"args": [{"class_name": "__keras_tensor__", "config": {"shape": [null, 7, 7, 576], "dtype": "float32", "keras_history": ["expanded_conv_10_squeeze_excite_mul", 0, 0]}}], "kwargs": {}}]}, {"class_name": "BatchNormalization", "config": {"name": "expanded_conv_10_project_bn", "trainable": false, "dtype": {"module": "keras", "class_name": "DTypePolicy", "config": {"name": "float32"}, "registered_name": null}, "axis": -1, "momentum": 0.999, "epsilon": 0.001, "center": true, "scale": true, "beta_initializer": {"module": "keras.initializers", "class_name": "Zeros", "config": {}, "registered_name": null}, "gamma_initializer": {"module": "keras.initializers", "class_name": "Ones", "config": {}, "registered_name": null}, "moving_mean_initializer": {"module": "keras.initializers", "class_name": "Zeros", "config": {}, "registered_name": null}, "moving_variance_initializer": {"module": "keras.initializers", "class_name": "Ones", "config": {}, "registered_name": null}, "beta_regularizer": null, "gamma_regularizer": null, "beta_constraint": null, "gamma_constraint": null, "synchronized": false}, "name": "expanded_conv_10_project_bn", "inbound_nodes": [{"args": [{"class_name": "__keras_tensor__", "config": {"shape": [null, 7, 7, 96], "dtype": "float32", "keras_history": ["expanded_conv_10_project", 0, 0]}}], "kwargs": {"mask": null}}]}, {"class_name": "Add", "config": {"name": "expanded_conv_10_add", "trainable": false, "dtype": {"module": "keras", "class_name": "DTypePolicy", "config": {"name": "float32"}, "registered_name": null}}, "name": "expanded_conv_10_add", "inbound_nodes": [{"args": [[{"class_name": "__keras_tensor__", "config": {"shape": [null, 7, 7, 96], "dtype": "float32", "keras_history": ["expanded_conv_9_add", 0, 0]}}, {"class_name": "__keras_tensor__", "config": {"shape": [null, 7, 7, 96], "dtype": "float32", "keras_history": ["expanded_conv_10_project_bn", 0, 0]}}]], "kwargs": {}}]}, {"class_name": "Conv2D", "config": {"name": "conv_1", "trainable": false, "dtype": {"module": "keras", "class_name": "DTypePolicy", "config": {"name": "float32"}, "registered_name": null}, "filters": 576, "kernel_size": [1, 1], "strides": [1, 1], "padding": "same", "data_format": "channels_last", "dilation_rate": [1, 1], "groups": 1, "activation": "linear", "use_bias": false, "kernel_initializer": {"module": "keras.initializers", "class_name": "GlorotUniform", "config": {"seed": null}, "registered_name": null}, "bias_initializer": {"module": "keras.initializers", "class_name": "Zeros", "config": {}, "registered_name": null}, "kernel_regularizer": null, "bias_regularizer": null, "activity_regularizer": null, "kernel_constraint": null, "bias_constraint": null}, "name": "conv_1", "inbound_nodes": [{"args": [{"class_name": "__keras_tensor__", "config": {"shape": [null, 7, 7, 96], "dtype": "float32", "keras_history": ["expanded_conv_10_add", 0, 0]}}], "kwargs": {}}]}, {"class_name": "BatchNormalization", "config": {"name": "conv_1_bn", "trainable": false, "dtype": {"module": "keras", "class_name": "DTypePolicy", "config": {"name": "float32"}, "registered_name": null}, "axis": -1, "momentum": 0.999, "epsilon": 0.001, "center": true, "scale": true, "beta_initializer": {"module": "keras.initializers", "class_name": "Zeros", "config": {}, "registered_name": null}, "gamma_initializer": {"module": "keras.initializers", "class_name": "Ones", "config": {}, "registered_name": null}, "moving_mean_initializer": {"module": "keras.initializers", "class_name": "Zeros", "config": {}, "registered_name": null}, "moving_variance_initializer": {"module": "keras.initializers", "class_name": "Ones", "config": {}, "registered_name": null}, "beta_regularizer": null, "gamma_regularizer": null, "beta_constraint": null, "gamma_constraint": null, "synchronized": false}, "name": "conv_1_bn", "inbound_nodes": [{"args": [{"class_name": "__keras_tensor__", "config": {"shape": [null, 7, 7, 576], "dtype": "float32", "keras_history": ["conv_1", 0, 0]}}], "kwargs": {"mask": null}}]}, {"class_name": "Activation", "config": {"name": "activation_161", "trainable": false, "dtype": {"module": "keras", "class_name": "DTypePolicy", "config": {"name": "float32"}, "registered_name": null}, "activation": "hard_silu"}, "name": "activation_161", "inbound_nodes": [{"args": [{"class_name": "__keras_tensor__", "config": {"shape": [null, 7, 7, 576], "dtype": "float32", "keras_history": ["conv_1_bn", 0, 0]}}], "kwargs": {}}]}], "input_layers": ["input_layer_20", 0, 0], "output_layers": ["activation_161", 0, 0]}, "name": "MobileNetV3Small", "inbound_nodes": [{"args": [{"class_name": "__keras_tensor__", "config": {"shape": [null, 224, 224, 3], "dtype": "float32", "keras_history": ["input_layer_21", 0, 0]}}], "kwargs": {"training": false, "mask": null}}]}, {"class_name": "GlobalAveragePooling2D", "config": {"name": "global_average_pooling2d_8", "trainable": true, "dtype": {"module": "keras", "class_name": "DTypePolicy", "config": {"name": "float32"}, "registered_name": null}, "data_format": "channels_last", "keepdims": false}, "name": "global_average_pooling2d_8", "inbound_nodes": [{"args": [{"class_name": "__keras_tensor__", "config": {"shape": [null, 7, 7, 576], "dtype": "float32", "keras_history": ["MobileNetV3Small", 0, 0]}}], "kwargs": {}}]}, {"class_name": "Dropout", "config": {"name": "dropout_8", "trainable": true, "dtype": {"module": "keras", "class_name": "DTypePolicy", "config": {"name": "float32"}, "registered_name": null}, "rate": 0.2, "seed": null, "noise_shape": null}, "name": "dropout_8", "inbound_nodes": [{"args": [{"class_name": "__keras_tensor__", "config": {"shape": [null, 576], "dtype": "float32", "keras_history": ["global_average_pooling2d_8", 0, 0]}}], "kwargs": {"training": false}}]}, {"class_name": "Dense", "config": {"name": "dense_8", "trainable": true, "dtype": {"module": "keras", "class_name": "DTypePolicy", "config": {"name": "float32"}, "registered_name": null}, "units": 1, "activation": "sigmoid", "use_bias": true, "kernel_initializer": {"module": "keras.initializers", "class_name": "GlorotUniform", "config": {"seed": null}, "registered_name": null}, "bias_initializer": {"module": "keras.initializers", "class_name": "Zeros", "config": {}, "registered_name": null}, "kernel_regularizer": null, "bias_regularizer": null, "kernel_constraint": null, "bias_constraint": null, "quantization_config": null}, "name": "dense_8", "inbound_nodes": [{"args": [{"class_name": "__keras_tensor__", "config": {"shape": [null, 576], "dtype": "float32", "keras_history": ["dropout_8", 0, 0]}}], "kwargs": {}}]}], "input_layers": ["input_layer_21", 0, 0], "output_layers": ["dense_8", 0, 0]}}}, "weightsManifest": [{"paths": ["group1-shard1of1.bin"], "weights": [{"name": "conv/kernel", "shape": [3, 3, 3, 16], "dtype": "float32", "quantization": {"dtype": "uint8", "min": -1.1597250433529125, "scale": 0.010447973363539751, "original_dtype": "float32"}}, {"name": "conv_bn/gamma", "shape": [16], "dtype": "float32", "quantization": {"dtype": "uint8", "min": -0.806476433136884, "scale": 0.009956499174529431, "original_dtype": "float32"}}, {"name": "conv_bn/beta", "shape": [16], "dtype": "float32", "quantization": {"dtype": "uint8", "min": -0.979053508534151, "scale": 0.061190844283384435, "original_dtype": "float32"}}, {"name": "conv_bn/moving_mean", "shape": [16], "dtype": "float32", "quantization": {"dtype": "uint8", "min": -0.779134214625639, "scale": 0.005264420369092156, "original_dtype": "float32"}}, {"name": "conv_bn/moving_variance", "shape": [16], "dtype": "float32", "quantization": {"dtype": "uint8", "min": 0.038512151688337326, "scale": 0.0241683607738392, "original_dtype": "float32"}}, {"name": "expanded_conv_depthwise/kernel", "shape": [3, 3, 16, 1], "dtype": "float32", "quantization": {"dtype": "uint8", "min": -31.169502407896754, "scale": 0.24935601926317402, "original_dtype": "float32"}}, {"name": "expanded_conv_depthwise_bn/gamma", "shape": [16], "dtype": "float32", "quantization": {"dtype": "uint8", "min": -4.357890398362104, "scale": 0.05969712874468635, "original_dtype": "float32"}}, {"name": "expanded_conv_depthwise_bn/beta", "shape": [16], "dtype": "float32", "quantization": {"dtype": "uint8", "min": 0.2812923192977905, "scale": 0.09345767311021394, "original_dtype": "float32"}}, {"name": "expanded_conv_depthwise_bn/moving_mean", "shape": [16], "dtype": "float32", "quantization": {"dtype": "uint8", "min": -7.614638328552246, "scale": 1.269106388092041, "original_dtype": "float32"}}, {"name": "expanded_conv_depthwise_bn/moving_variance", "shape": [16], "dtype": "float32", "quantization": {"dtype": "uint8", "min": 3.0053153038024902, "scale": 3.074859239540848, "original_dtype": "float32"}}, {"name": "expanded_conv_squeeze_excite_conv/kernel", "shape": [1, 1, 16, 8], "dtype": "float32", "quantization": {"dtype": "uint8", "min": -0.044838710041607124, "scale": 0.0005468135370927698, "original_dtype": "float32"}}, {"name": "expanded_conv_squeeze_excite_conv/bias", "shape": [8], "dtype": "float32", "quantization": {"dtype": "uint8", "min": -2.245196996950636, "scale": 0.020410881790460324, "original_dtype": "float32"}}, {"name": "expanded_conv_squeeze_excite_conv_1/kernel", "shape": [1, 1, 8, 16], "dtype": "float32", "quantization": {"dtype": "uint8", "min": -0.0, "scale": 0.0005952052041596061, "original_dtype": "float32"}}, {"name": "expanded_conv_squeeze_excite_conv_1/bias", "shape": [16], "dtype": "float32", "quantization": {"dtype": "uint8", "min": -0.785699478785197, "scale": 0.011554404099782308, "original_dtype": "float32"}}, {"name": "expanded_conv_project/kernel", "shape": [1, 1, 16, 16], "dtype": "float32", "quantization": {"dtype": "uint8", "min": -1.9180110548056808, "scale": 0.02230245412564745, "original_dtype": "float32"}}, {"name": "expanded_conv_project_bn/gamma", "shape": [16], "dtype": "float32", "quantization": {"dtype": "uint8", "min": 4.9236249923706055, "scale": 0.018334239136938955, "original_dtype": "float32"}}, {"name": "expanded_conv_project_bn/beta", "shape": [16], "dtype": "float32", "quantization": {"dtype": "uint8", "min": -0.020723172496346868, "scale": 0.00026231863919426413, "original_dtype": "float32"}}, {"name": "expanded_conv_project_bn/moving_mean", "shape": [16], "dtype": "float32", "quantization": {"dtype": "uint8", "min": -29.27692841174556, "scale": 0.522802293066885, "original_dtype": "float32"}}, {"name": "expanded_conv_project_bn/moving_variance", "shape": [16], "dtype": "float32", "quantization": {"dtype": "uint8", "min": 33.80352020263672, "scale": 0.8591791190353094, "original_dtype": "float32"}}, {"name": "expanded_conv_1_expand/kernel", "shape": [1, 1, 16, 72], "dtype": "float32", "quantization": {"dtype": "uint8", "min": -2.216035683949788, "scale": 0.02702482541402181, "original_dtype": "float32"}}, {"name": "expanded_conv_1_expand_bn/gamma", "shape": [72], "dtype": "float32", "quantization": {"dtype": "uint8", "min": 0.23730579018592834, "scale": 0.035023613887674665, "original_dtype": "float32"}}, {"name": "expanded_conv_1_expand_bn/beta", "shape": [72], "dtype": "float32", "quantization": {"dtype": "uint8", "min": -5.575096966238584, "scale": 0.14295120426252778, "original_dtype": "float32"}}, {"name": "expanded_conv_1_expand_bn/moving_mean", "shape": [72], "dtype": "float32", "quantization": {"dtype": "uint8", "min": -0.0866390983555831, "scale": 0.001186836963775111, "original_dtype": "float32"}}, {"name": "expanded_conv_1_expand_bn/moving_variance", "shape": [72], "dtype": "float32", "quantization": {"dtype": "uint8", "min": 21.739097595214844, "scale": 3.913602612065334, "original_dtype": "float32"}}, {"name": "expanded_conv_1_depthwise/kernel", "shape": [3, 3, 72, 1], "dtype": "float32", "quantization": {"dtype": "uint8", "min": -16.447105968699738, "scale": 0.10964737312466491, "original_dtype": "float32"}}, {"name": "expanded_conv_1_depthwise_bn/gamma", "shape": [72], "dtype": "float32", "quantization": {"dtype": "uint8", "min": 0.758399248123169, "scale": 0.035004345575968425, "original_dtype": "float32"}}, {"name": "expanded_conv_1_depthwise_bn/beta", "shape": [72], "dtype": "float32", "quantization": {"dtype": "uint8", "min": -10.741420970243567, "scale": 0.1342677621280446, "original_dtype": "float32"}}, {"name": "expanded_conv_1_depthwise_bn/moving_mean", "shape": [72], "dtype": "float32", "quantization": {"dtype": "uint8", "min": -269.67110847024355, "scale": 6.577344109030331, "original_dtype": "float32"}}, {"name": "expanded_conv_1_depthwise_bn/moving_variance", "shape": [72], "dtype": "float32", "quantization": {"dtype": "uint8", "min": 2.4229934215545654, "scale": 26.607905770283118, "original_dtype": "float32"}}, {"name": "expanded_conv_1_project/kernel", "shape": [1, 1, 72, 24], "dtype": "float32", "quantization": {"dtype": "uint8", "min": -4.50397305208094, "scale": 0.027802302790623085, "original_dtype": "float32"}}, {"name": "expanded_conv_1_project_bn/gamma", "shape": [24], "dtype": "float32", "quantization": {"dtype": "uint8", "min": 3.9711248874664307, "scale": 0.02096290120891496, "original_dtype": "float32"}}, {"name": "expanded_conv_1_project_bn/beta", "shape": [24], "dtype": "float32", "quantization": {"dtype": "uint8", "min": -0.016492470229665438, "scale": 0.00013859218680391125, "original_dtype": "float32"}}, {"name": "expanded_conv_1_project_bn/moving_mean", "shape": [24], "dtype": "float32", "quantization": {"dtype": "uint8", "min": -89.44731008492263, "scale": 0.6675172394397212, "original_dtype": "float32"}}, {"name": "expanded_conv_1_project_bn/moving_variance", "shape": [24], "dtype": "float32", "quantization": {"dtype": "uint8", "min": 19.714950561523438, "scale": 1.060624724743413, "original_dtype": "float32"}}, {"name": "expanded_conv_2_expand/kernel", "shape": [1, 1, 24, 88], "dtype": "float32", "quantization": {"dtype": "uint8", "min": -2.3496676557204306, "scale": 0.018648155997781194, "original_dtype": "float32"}}, {"name": "expanded_conv_2_expand_bn/gamma", "shape": [88], "dtype": "float32", "quantization": {"dtype": "uint8", "min": 0.44243890047073364, "scale": 0.023055593406452853, "original_dtype": "float32"}}, {"name": "expanded_conv_2_expand_bn/beta", "shape": [88], "dtype": "float32", "quantization": {"dtype": "uint8", "min": -4.393498686248181, "scale": 0.05293371911142387, "original_dtype": "float32"}}, {"name": "expanded_conv_2_expand_bn/moving_mean", "shape": [88], "dtype": "float32", "quantization": {"dtype": "uint8", "min": -0.0671056780306732, "scale": 0.00036669769415668415, "original_dtype": "float32"}}, {"name": "expanded_conv_2_expand_bn/moving_variance", "shape": [88], "dtype": "float32", "quantization": {"dtype": "uint8", "min": 12.351536750793457, "scale": 3.550548220615761, "original_dtype": "float32"}}, {"name": "expanded_conv_2_depthwise/kernel", "shape": [3, 3, 88, 1], "dtype": "float32", "quantization": {"dtype": "uint8", "min": -10.779321165645824, "scale": 0.10266020157757927, "original_dtype": "float32"}}, {"name": "expanded_conv_2_depthwise_bn/gamma", "shape": [88], "dtype": "float32", "quantization": {"dtype": "uint8", "min": 1.037509799003601, "scale": 0.030122514332042022, "original_dtype": "float32"}}, {"name": "expanded_conv_2_depthwise_bn/beta", "shape": [88], "dtype": "float32", "quantization": {"dtype": "uint8", "min": -6.030376221151913, "scale": 0.07633387621711282, "original_dtype": "float32"}}, {"name": "expanded_conv_2_depthwise_bn/moving_mean", "shape": [88], "dtype": "float32", "quantization": {"dtype": "uint8", "min": -135.2318464690564, "scale": 0.6899584003523285, "original_dtype": "float32"}}, {"name": "expanded_conv_2_depthwise_bn/moving_variance", "shape": [88], "dtype": "float32", "quantization": {"dtype": "uint8", "min": 2.8477840423583984, "scale": 4.148536569931927, "original_dtype": "float32"}}, {"name": "expanded_conv_2_project/kernel", "shape": [1, 1, 88, 24], "dtype": "float32", "quantization": {"dtype": "uint8", "min": -1.1796956483055565, "scale": 0.009288942112642177, "original_dtype": "float32"}}, {"name": "expanded_conv_2_project_bn/gamma", "shape": [24], "dtype": "float32", "quantization": {"dtype": "uint8", "min": 0.4495508670806885, "scale": 0.05605720351724064, "original_dtype": "float32"}}, {"name": "expanded_conv_2_project_bn/beta", "shape": [24], "dtype": "float32", "quantization": {"dtype": "uint8", "min": -0.010069246803793837, "scale": 6.668375366750885e-05, "original_dtype": "float32"}}, {"name": "expanded_conv_2_project_bn/moving_mean", "shape": [24], "dtype": "float32", "quantization": {"dtype": "uint8", "min": -21.47461966720282, "scale": 0.1851260316138174, "original_dtype": "float32"}}, {"name": "expanded_conv_2_project_bn/moving_variance", "shape": [24], "dtype": "float32", "quantization": {"dtype": "uint8", "min": 3.728748321533203, "scale": 0.24198588950961245, "original_dtype": "float32"}}, {"name": "expanded_conv_3_expand/kernel", "shape": [1, 1, 24, 96], "dtype": "float32", "quantization": {"dtype": "uint8", "min": -2.829137886271757, "scale": 0.01951129576739143, "original_dtype": "float32"}}, {"name": "expanded_conv_3_expand_bn/gamma", "shape": [96], "dtype": "float32", "quantization": {"dtype": "uint8", "min": -0.5835034608840942, "scale": 0.025369715690612794, "original_dtype": "float32"}}, {"name": "expanded_conv_3_expand_bn/beta", "shape": [96], "dtype": "float32", "quantization": {"dtype": "uint8", "min": -2.614778726241168, "scale": 0.045873310986687156, "original_dtype": "float32"}}, {"name": "expanded_conv_3_expand_bn/moving_mean", "shape": [96], "dtype": "float32", "quantization": {"dtype": "uint8", "min": -0.07747269588358263, "scale": 0.0005494517438551959, "original_dtype": "float32"}}, {"name": "expanded_conv_3_expand_bn/moving_variance", "shape": [96], "dtype": "float32", "quantization": {"dtype": "uint8", "min": 57.1519775390625, "scale": 2.7164419136795344, "original_dtype": "float32"}}, {"name": "expanded_conv_3_depthwise/kernel", "shape": [5, 5, 96, 1], "dtype": "float32", "quantization": {"dtype": "uint8", "min": -4.660074884751264, "scale": 0.040173059351304, "original_dtype": "float32"}}, {"name": "expanded_conv_3_depthwise_bn/gamma", "shape": [96], "dtype": "float32", "quantization": {"dtype": "uint8", "min": -1.639435059416528, "scale": 0.01801576988369811, "original_dtype": "float32"}}, {"name": "expanded_conv_3_depthwise_bn/beta", "shape": [96], "dtype": "float32", "quantization": {"dtype": "uint8", "min": -1.1136348406473797, "scale": 0.03275396590139352, "original_dtype": "float32"}}, {"name": "expanded_conv_3_depthwise_bn/moving_mean", "shape": [96], "dtype": "float32", "quantization": {"dtype": "uint8", "min": -125.77136589499081, "scale": 1.04809471579159, "original_dtype": "float32"}}, {"name": "expanded_conv_3_depthwise_bn/moving_variance", "shape": [96], "dtype": "float32", "quantization": {"dtype": "uint8", "min": 0.06366825103759766, "scale": 21.95974763982436, "original_dtype": "float32"}}, {"name": "expanded_conv_3_squeeze_excite_conv/kernel", "shape": [1, 1, 96, 24], "dtype": "float32", "quantization": {"dtype": "uint8", "min": -0.7187638465095969, "scale": 0.0077286435108558805, "original_dtype": "float32"}}, {"name": "expanded_conv_3_squeeze_excite_conv/bias", "shape": [24], "dtype": "float32", "quantization": {"dtype": "uint8", "min": -0.4820667869904462, "scale": 0.007304042227127973, "original_dtype": "float32"}}, {"name": "expanded_conv_3_squeeze_excite_conv_1/kernel", "shape": [1, 1, 24, 96], "dtype": "float32", "quantization": {"dtype": "uint8", "min": -0.5259202227872961, "scale": 0.004869631692474964, "original_dtype": "float32"}}, {"name": "expanded_conv_3_squeeze_excite_conv_1/bias", "shape": [96], "dtype": "float32", "quantization": {"dtype": "uint8", "min": -4.99115083357867, "scale": 0.0313908857457778, "original_dtype": "float32"}}, {"name": "expanded_conv_3_project/kernel", "shape": [1, 1, 96, 40], "dtype": "float32", "quantization": {"dtype": "uint8", "min": -1.8521321436938116, "scale": 0.015181411013883702, "original_dtype": "float32"}}, {"name": "expanded_conv_3_project_bn/gamma", "shape": [40], "dtype": "float32", "quantization": {"dtype": "uint8", "min": 3.3364858627319336, "scale": 0.02173510906743068, "original_dtype": "float32"}}, {"name": "expanded_conv_3_project_bn/beta", "shape": [40], "dtype": "float32", "quantization": {"dtype": "uint8", "min": -0.0066463034344362276, "scale": 6.452721781006046e-05, "original_dtype": "float32"}}, {"name": "expanded_conv_3_project_bn/moving_mean", "shape": [40], "dtype": "float32", "quantization": {"dtype": "uint8", "min": -12.383183198816635, "scale": 0.08599432776955997, "original_dtype": "float32"}}, {"name": "expanded_conv_3_project_bn/moving_variance", "shape": [40], "dtype": "float32", "quantization": {"dtype": "uint8", "min": 1.5985007286071777, "scale": 0.101247220880845, "original_dtype": "float32"}}, {"name": "expanded_conv_4_expand/kernel", "shape": [1, 1, 40, 240], "dtype": "float32", "quantization": {"dtype": "uint8", "min": -1.1489878993408353, "scale": 0.008266099995257807, "original_dtype": "float32"}}, {"name": "expanded_conv_4_expand_bn/gamma", "shape": [240], "dtype": "float32", "quantization": {"dtype": "uint8", "min": -0.6402395122191485, "scale": 0.018292557491975673, "original_dtype": "float32"}}, {"name": "expanded_conv_4_expand_bn/beta", "shape": [240], "dtype": "float32", "quantization": {"dtype": "uint8", "min": -5.3109121173035865, "scale": 0.04389183568019493, "original_dtype": "float32"}}, {"name": "expanded_conv_4_expand_bn/moving_mean", "shape": [240], "dtype": "float32", "quantization": {"dtype": "uint8", "min": -0.016702992436202133, "scale": 0.0001136257988857288, "original_dtype": "float32"}}, {"name": "expanded_conv_4_expand_bn/moving_variance", "shape": [240], "dtype": "float32", "quantization": {"dtype": "uint8", "min": 14.603363990783691, "scale": 0.5911496592502968, "original_dtype": "float32"}}, {"name": "expanded_conv_4_depthwise/kernel", "shape": [5, 5, 240, 1], "dtype": "float32", "quantization": {"dtype": "uint8", "min": -8.980103720870671, "scale": 0.07242019129734413, "original_dtype": "float32"}}, {"name": "expanded_conv_4_depthwise_bn/gamma", "shape": [240], "dtype": "float32", "quantization": {"dtype": "uint8", "min": -0.5012855693405749, "scale": 0.017285709287606033, "original_dtype": "float32"}}, {"name": "expanded_conv_4_depthwise_bn/beta", "shape": [240], "dtype": "float32", "quantization": {"dtype": "uint8", "min": -2.609799537004209, "scale": 0.014418781972398945, "original_dtype": "float32"}}, {"name": "expanded_conv_4_depthwise_bn/moving_mean", "shape": [240], "dtype": "float32", "quantization": {"dtype": "uint8", "min": -115.31035059760599, "scale": 0.5570548338048599, "original_dtype": "float32"}}, {"name": "expanded_conv_4_depthwise_bn/moving_variance", "shape": [240], "dtype": "float32", "quantization": {"dtype": "uint8", "min": 0.010185999795794487, "scale": 1.8342493663304578, "original_dtype": "float32"}}, {"name": "expanded_conv_4_squeeze_excite_conv/kernel", "shape": [1, 1, 240, 64], "dtype": "float32", "quantization": {"dtype": "uint8", "min": -1.5499423288831522, "scale": 0.010472583303264543, "original_dtype": "float32"}}, {"name": "expanded_conv_4_squeeze_excite_conv/bias", "shape": [64], "dtype": "float32", "quantization": {"dtype": "uint8", "min": -1.577199234681971, "scale": 0.011682957293940525, "original_dtype": "float32"}}, {"name": "expanded_conv_4_squeeze_excite_conv_1/kernel", "shape": [1, 1, 64, 240], "dtype": "float32", "quantization": {"dtype": "uint8", "min": -0.693367262915069, "scale": 0.006731720999175427, "original_dtype": "float32"}}, {"name": "expanded_conv_4_squeeze_excite_conv_1/bias", "shape": [240], "dtype": "float32", "quantization": {"dtype": "uint8", "min": -3.2296434337017583, "scale": 0.025837147469614068, "original_dtype": "float32"}}, {"name": "expanded_conv_4_project/kernel", "shape": [1, 1, 240, 40], "dtype": "float32", "quantization": {"dtype": "uint8", "min": -1.1554187251072303, "scale": 0.009026708789900237, "original_dtype": "float32"}}, {"name": "expanded_conv_4_project_bn/gamma", "shape": [40], "dtype": "float32", "quantization": {"dtype": "uint8", "min": 2.7545924186706543, "scale": 0.028453402425728594, "original_dtype": "float32"}}, {"name": "expanded_conv_4_project_bn/beta", "shape": [40], "dtype": "float32", "quantization": {"dtype": "uint8", "min": -0.006266967411719116, "scale": 5.310989331965353e-05, "original_dtype": "float32"}}, {"name": "expanded_conv_4_project_bn/moving_mean", "shape": [40], "dtype": "float32", "quantization": {"dtype": "uint8", "min": -0.5758063232197481, "scale": 0.0050509326598223514, "original_dtype": "float32"}}, {"name": "expanded_conv_4_project_bn/moving_variance", "shape": [40], "dtype": "float32", "quantization": {"dtype": "uint8", "min": 0.05546492338180542, "scale": 0.0009262370128257602, "original_dtype": "float32"}}, {"name": "expanded_conv_5_expand/kernel", "shape": [1, 1, 40, 240], "dtype": "float32", "quantization": {"dtype": "uint8", "min": -0.990485198357526, "scale": 0.007860993637758143, "original_dtype": "float32"}}, {"name": "expanded_conv_5_expand_bn/gamma", "shape": [240], "dtype": "float32", "quantization": {"dtype": "uint8", "min": -1.4234477678934734, "scale": 0.01674644432815851, "original_dtype": "float32"}}, {"name": "expanded_conv_5_expand_bn/beta", "shape": [240], "dtype": "float32", "quantization": {"dtype": "uint8", "min": -2.17731512855081, "scale": 0.025920418197033453, "original_dtype": "float32"}}, {"name": "expanded_conv_5_expand_bn/moving_mean", "shape": [240], "dtype": "float32", "quantization": {"dtype": "uint8", "min": -0.01674317117123043, "scale": 0.0001657739719923805, "original_dtype": "float32"}}, {"name": "expanded_conv_5_expand_bn/moving_variance", "shape": [240], "dtype": "float32", "quantization": {"dtype": "uint8", "min": 24.58257293701172, "scale": 1.137394475001915, "original_dtype": "float32"}}, {"name": "expanded_conv_5_depthwise/kernel", "shape": [5, 5, 240, 1], "dtype": "float32", "quantization": {"dtype": "uint8", "min": -8.897985952040727, "scale": 0.07061893612730737, "original_dtype": "float32"}}, {"name": "expanded_conv_5_depthwise_bn/gamma", "shape": [240], "dtype": "float32", "quantization": {"dtype": "uint8", "min": 0.08689974248409271, "scale": 0.017730548393492605, "original_dtype": "float32"}}, {"name": "expanded_conv_5_depthwise_bn/beta", "shape": [240], "dtype": "float32", "quantization": {"dtype": "uint8", "min": -6.6702926832086895, "scale": 0.03004636343787698, "original_dtype": "float32"}}, {"name": "expanded_conv_5_depthwise_bn/moving_mean", "shape": [240], "dtype": "float32", "quantization": {"dtype": "uint8", "min": -32.84546224556717, "scale": 0.2296885471717984, "original_dtype": "float32"}}, {"name": "expanded_conv_5_depthwise_bn/moving_variance", "shape": [240], "dtype": "float32", "quantization": {"dtype": "uint8", "min": 0.025645175948739052, "scale": 0.7171227738772538, "original_dtype": "float32"}}, {"name": "expanded_conv_5_squeeze_excite_conv/kernel", "shape": [1, 1, 240, 64], "dtype": "float32", "quantization": {"dtype": "uint8", "min": -1.4488003985554565, "scale": 0.008572783423405068, "original_dtype": "float32"}}, {"name": "expanded_conv_5_squeeze_excite_conv/bias", "shape": [64], "dtype": "float32", "quantization": {"dtype": "uint8", "min": -0.7584710602666818, "scale": 0.006712133276696299, "original_dtype": "float32"}}, {"name": "expanded_conv_5_squeeze_excite_conv_1/kernel", "shape": [1, 1, 64, 240], "dtype": "float32", "quantization": {"dtype": "uint8", "min": -0.7381503729259267, "scale": 0.0068986016161301554, "original_dtype": "float32"}}, {"name": "expanded_conv_5_squeeze_excite_conv_1/bias", "shape": [240], "dtype": "float32", "quantization": {"dtype": "uint8", "min": -3.9268126824322866, "scale": 0.026354447533102596, "original_dtype": "float32"}}, {"name": "expanded_conv_5_project/kernel", "shape": [1, 1, 240, 40], "dtype": "float32", "quantization": {"dtype": "uint8", "min": -1.0626069101632811, "scale": 0.008366983544592765, "original_dtype": "float32"}}, {"name": "expanded_conv_5_project_bn/gamma", "shape": [40], "dtype": "float32", "quantization": {"dtype": "uint8", "min": 1.7466485500335693, "scale": 0.03443295441421808, "original_dtype": "float32"}}, {"name": "expanded_conv_5_project_bn/beta", "shape": [40], "dtype": "float32", "quantization": {"dtype": "uint8", "min": -0.006542704807703986, "scale": 4.512210212209646e-05, "original_dtype": "float32"}}, {"name": "expanded_conv_5_project_bn/moving_mean", "shape": [40], "dtype": "float32", "quantization": {"dtype": "uint8", "min": -0.6534363632108651, "scale": 0.005782622683281992, "original_dtype": "float32"}}, {"name": "expanded_conv_5_project_bn/moving_variance", "shape": [40], "dtype": "float32", "quantization": {"dtype": "uint8", "min": 0.011985435150563717, "scale": 0.0001450172424608586, "original_dtype": "float32"}}, {"name": "expanded_conv_6_expand/kernel", "shape": [1, 1, 40, 120], "dtype": "float32", "quantization": {"dtype": "uint8", "min": -1.272394624410891, "scale": 0.0104294641345155, "original_dtype": "float32"}}, {"name": "expanded_conv_6_expand_bn/gamma", "shape": [120], "dtype": "float32", "quantization": {"dtype": "uint8", "min": -2.730503749847412, "scale": 0.022945409662583294, "original_dtype": "float32"}}, {"name": "expanded_conv_6_expand_bn/beta", "shape": [120], "dtype": "float32", "quantization": {"dtype": "uint8", "min": -1.3942630767822266, "scale": 0.029047147432963053, "original_dtype": "float32"}}, {"name": "expanded_conv_6_expand_bn/moving_mean", "shape": [120], "dtype": "float32", "quantization": {"dtype": "uint8", "min": -0.03734323017153086, "scale": 0.00027257832241993325, "original_dtype": "float32"}}, {"name": "expanded_conv_6_expand_bn/moving_variance", "shape": [120], "dtype": "float32", "quantization": {"dtype": "uint8", "min": 57.46568298339844, "scale": 1.4412720324946384, "original_dtype": "float32"}}, {"name": "expanded_conv_6_depthwise/kernel", "shape": [5, 5, 120, 1], "dtype": "float32", "quantization": {"dtype": "uint8", "min": -11.212405036477483, "scale": 0.09749917423023897, "original_dtype": "float32"}}, {"name": "expanded_conv_6_depthwise_bn/gamma", "shape": [120], "dtype": "float32", "quantization": {"dtype": "uint8", "min": 0.46075117588043213, "scale": 0.015709756869895786, "original_dtype": "float32"}}, {"name": "expanded_conv_6_depthwise_bn/beta", "shape": [120], "dtype": "float32", "quantization": {"dtype": "uint8", "min": -3.381560782825246, "scale": 0.0490081272873224, "original_dtype": "float32"}}, {"name": "expanded_conv_6_depthwise_bn/moving_mean", "shape": [120], "dtype": "float32", "quantization": {"dtype": "uint8", "min": -50.88053708543964, "scale": 0.38840104645373774, "original_dtype": "float32"}}, {"name": "expanded_conv_6_depthwise_bn/moving_variance", "shape": [120], "dtype": "float32", "quantization": {"dtype": "uint8", "min": 0.09015104919672012, "scale": 3.109842927870797, "original_dtype": "float32"}}, {"name": "expanded_conv_6_squeeze_excite_conv/kernel", "shape": [1, 1, 120, 32], "dtype": "float32", "quantization": {"dtype": "uint8", "min": -0.008905440511401085, "scale": 4.08506445477114e-05, "original_dtype": "float32"}}, {"name": "expanded_conv_6_squeeze_excite_conv/bias", "shape": [32], "dtype": "float32", "quantization": {"dtype": "uint8", "min": -0.5438659616545135, "scale": 0.005549652669944016, "original_dtype": "float32"}}, {"name": "expanded_conv_6_squeeze_excite_conv_1/kernel", "shape": [1, 1, 32, 120], "dtype": "float32", "quantization": {"dtype": "uint8", "min": -0.005962978475087998, "scale": 4.1699150175440546e-05, "original_dtype": "float32"}}, {"name": "expanded_conv_6_squeeze_excite_conv_1/bias", "shape": [120], "dtype": "float32", "quantization": {"dtype": "uint8", "min": -1.9622671370412788, "scale": 0.01962267137041279, "original_dtype": "float32"}}, {"name": "expanded_conv_6_project/kernel", "shape": [1, 1, 120, 48], "dtype": "float32", "quantization": {"dtype": "uint8", "min": -1.0688648616566379, "scale": 0.00989689686719109, "original_dtype": "float32"}}, {"name": "expanded_conv_6_project_bn/gamma", "shape": [48], "dtype": "float32", "quantization": {"dtype": "uint8", "min": 4.529703617095947, "scale": 0.014598754808014515, "original_dtype": "float32"}}, {"name": "expanded_conv_6_project_bn/beta", "shape": [48], "dtype": "float32", "quantization": {"dtype": "uint8", "min": -0.005660422895030649, "scale": 5.1458389954824075e-05, "original_dtype": "float32"}}, {"name": "expanded_conv_6_project_bn/moving_mean", "shape": [48], "dtype": "float32", "quantization": {"dtype": "uint8", "min": -8.55603853487501, "scale": 0.08306833529004863, "original_dtype": "float32"}}, {"name": "expanded_conv_6_project_bn/moving_variance", "shape": [48], "dtype": "float32", "quantization": {"dtype": "uint8", "min": 0.9764293432235718, "scale": 0.03172536597532385, "original_dtype": "float32"}}, {"name": "expanded_conv_7_expand/kernel", "shape": [1, 1, 48, 144], "dtype": "float32", "quantization": {"dtype": "uint8", "min": -1.2526381773107194, "scale": 0.008883958704331342, "original_dtype": "float32"}}, {"name": "expanded_conv_7_expand_bn/gamma", "shape": [144], "dtype": "float32", "quantization": {"dtype": "uint8", "min": -0.1277222839640636, "scale": 0.0182460405662948, "original_dtype": "float32"}}, {"name": "expanded_conv_7_expand_bn/beta", "shape": [144], "dtype": "float32", "quantization": {"dtype": "uint8", "min": -2.5305573379292206, "scale": 0.03374076450572294, "original_dtype": "float32"}}, {"name": "expanded_conv_7_expand_bn/moving_mean", "shape": [144], "dtype": "float32", "quantization": {"dtype": "uint8", "min": -0.009681429063864783, "scale": 8.204600901580325e-05, "original_dtype": "float32"}}, {"name": "expanded_conv_7_expand_bn/moving_variance", "shape": [144], "dtype": "float32", "quantization": {"dtype": "uint8", "min": 20.983598709106445, "scale": 0.379868802837297, "original_dtype": "float32"}}, {"name": "expanded_conv_7_depthwise/kernel", "shape": [5, 5, 144, 1], "dtype": "float32", "quantization": {"dtype": "uint8", "min": -8.191298709196202, "scale": 0.060676286734786686, "original_dtype": "float32"}}, {"name": "expanded_conv_7_depthwise_bn/gamma", "shape": [144], "dtype": "float32", "quantization": {"dtype": "uint8", "min": 0.20568181574344635, "scale": 0.022192474381596435, "original_dtype": "float32"}}, {"name": "expanded_conv_7_depthwise_bn/beta", "shape": [144], "dtype": "float32", "quantization": {"dtype": "uint8", "min": -5.555696461247463, "scale": 0.025484846152511297, "original_dtype": "float32"}}, {"name": "expanded_conv_7_depthwise_bn/moving_mean", "shape": [144], "dtype": "float32", "quantization": {"dtype": "uint8", "min": -160.2319102567785, "scale": 0.6966604793772978, "original_dtype": "float32"}}, {"name": "expanded_conv_7_depthwise_bn/moving_variance", "shape": [144], "dtype": "float32", "quantization": {"dtype": "uint8", "min": 0.01975024677813053, "scale": 6.305243856262635, "original_dtype": "float32"}}, {"name": "expanded_conv_7_squeeze_excite_conv/kernel", "shape": [1, 1, 144, 40], "dtype": "float32", "quantization": {"dtype": "uint8", "min": -0.9425577205770156, "scale": 0.006981909041311227, "original_dtype": "float32"}}, {"name": "expanded_conv_7_squeeze_excite_conv/bias", "shape": [40], "dtype": "float32", "quantization": {"dtype": "uint8", "min": -0.18879242329036486, "scale": 0.005394069236867568, "original_dtype": "float32"}}, {"name": "expanded_conv_7_squeeze_excite_conv_1/kernel", "shape": [1, 1, 40, 144], "dtype": "float32", "quantization": {"dtype": "uint8", "min": -0.6181894225232741, "scale": 0.005025930264416863, "original_dtype": "float32"}}, {"name": "expanded_conv_7_squeeze_excite_conv_1/bias", "shape": [144], "dtype": "float32", "quantization": {"dtype": "uint8", "min": -3.0624074318829706, "scale": 0.022853786805096796, "original_dtype": "float32"}}, {"name": "expanded_conv_7_project/kernel", "shape": [1, 1, 144, 48], "dtype": "float32", "quantization": {"dtype": "uint8", "min": -0.7549576380673576, "scale": 0.00618817736120785, "original_dtype": "float32"}}, {"name": "expanded_conv_7_project_bn/gamma", "shape": [48], "dtype": "float32", "quantization": {"dtype": "uint8", "min": 0.8671374320983887, "scale": 0.02625420140285118, "original_dtype": "float32"}}, {"name": "expanded_conv_7_project_bn/beta", "shape": [48], "dtype": "float32", "quantization": {"dtype": "uint8", "min": -0.004762387348740708, "scale": 4.4508292978885125e-05, "original_dtype": "float32"}}, {"name": "expanded_conv_7_project_bn/moving_mean", "shape": [48], "dtype": "float32", "quantization": {"dtype": "uint8", "min": -0.3977413828466453, "scale": 0.002990536713132671, "original_dtype": "float32"}}, {"name": "expanded_conv_7_project_bn/moving_variance", "shape": [48], "dtype": "float32", "quantization": {"dtype": "uint8", "min": 0.020118489861488342, "scale": 0.00033221925590552537, "original_dtype": "float32"}}, {"name": "expanded_conv_8_expand/kernel", "shape": [1, 1, 48, 288], "dtype": "float32", "quantization": {"dtype": "uint8", "min": -0.9235560309653188, "scale": 0.0073884482477225505, "original_dtype": "float32"}}, {"name": "expanded_conv_8_expand_bn/gamma", "shape": [288], "dtype": "float32", "quantization": {"dtype": "uint8", "min": -0.3800697021624621, "scale": 0.014076655635646746, "original_dtype": "float32"}}, {"name": "expanded_conv_8_expand_bn/beta", "shape": [288], "dtype": "float32", "quantization": {"dtype": "uint8", "min": -2.681440591812134, "scale": 0.03154635990367216, "original_dtype": "float32"}}, {"name": "expanded_conv_8_expand_bn/moving_mean", "shape": [288], "dtype": "float32", "quantization": {"dtype": "uint8", "min": -0.018531378928352805, "scale": 0.00017158684192919264, "original_dtype": "float32"}}, {"name": "expanded_conv_8_expand_bn/moving_variance", "shape": [288], "dtype": "float32", "quantization": {"dtype": "uint8", "min": 26.645387649536133, "scale": 0.5861916261560777, "original_dtype": "float32"}}, {"name": "expanded_conv_8_depthwise/kernel", "shape": [5, 5, 288, 1], "dtype": "float32", "quantization": {"dtype": "uint8", "min": -3.0605221187367158, "scale": 0.02283971730400534, "original_dtype": "float32"}}, {"name": "expanded_conv_8_depthwise_bn/gamma", "shape": [288], "dtype": "float32", "quantization": {"dtype": "uint8", "min": 0.33627229928970337, "scale": 0.006783172897264069, "original_dtype": "float32"}}, {"name": "expanded_conv_8_depthwise_bn/beta", "shape": [288], "dtype": "float32", "quantization": {"dtype": "uint8", "min": -1.491603165514329, "scale": 0.011386283706216251, "original_dtype": "float32"}}, {"name": "expanded_conv_8_depthwise_bn/moving_mean", "shape": [288], "dtype": "float32", "quantization": {"dtype": "uint8", "min": -60.436535824046416, "scale": 0.3730650359509038, "original_dtype": "float32"}}, {"name": "expanded_conv_8_depthwise_bn/moving_variance", "shape": [288], "dtype": "float32", "quantization": {"dtype": "uint8", "min": 0.02508372999727726, "scale": 2.51779570412256, "original_dtype": "float32"}}, {"name": "expanded_conv_8_squeeze_excite_conv/kernel", "shape": [1, 1, 288, 72], "dtype": "float32", "quantization": {"dtype": "uint8", "min": -0.901847644179475, "scale": 0.00784215342764761, "original_dtype": "float32"}}, {"name": "expanded_conv_8_squeeze_excite_conv/bias", "shape": [72], "dtype": "float32", "quantization": {"dtype": "uint8", "min": -3.166968130597881, "scale": 0.021841159521364697, "original_dtype": "float32"}}, {"name": "expanded_conv_8_squeeze_excite_conv_1/kernel", "shape": [1, 1, 72, 288], "dtype": "float32", "quantization": {"dtype": "uint8", "min": -0.9392823296434739, "scale": 0.005982689997729133, "original_dtype": "float32"}}, {"name": "expanded_conv_8_squeeze_excite_conv_1/bias", "shape": [288], "dtype": "float32", "quantization": {"dtype": "uint8", "min": -1.278451823720745, "scale": 0.0190813705032947, "original_dtype": "float32"}}, {"name": "expanded_conv_8_project/kernel", "shape": [1, 1, 288, 96], "dtype": "float32", "quantization": {"dtype": "uint8", "min": -0.8787448773197098, "scale": 0.006919251002517401, "original_dtype": "float32"}}, {"name": "expanded_conv_8_project_bn/gamma", "shape": [96], "dtype": "float32", "quantization": {"dtype": "uint8", "min": 2.6429953575134277, "scale": 0.011452665515974457, "original_dtype": "float32"}}, {"name": "expanded_conv_8_project_bn/beta", "shape": [96], "dtype": "float32", "quantization": {"dtype": "uint8", "min": -0.00844993369252074, "scale": 7.347768428278904e-05, "original_dtype": "float32"}}, {"name": "expanded_conv_8_project_bn/moving_mean", "shape": [96], "dtype": "float32", "quantization": {"dtype": "uint8", "min": -2.813441680459415, "scale": 0.018509484739864572, "original_dtype": "float32"}}, {"name": "expanded_conv_8_project_bn/moving_variance", "shape": [96], "dtype": "float32", "quantization": {"dtype": "uint8", "min": 0.45303910970687866, "scale": 0.016764760718626134, "original_dtype": "float32"}}, {"name": "expanded_conv_9_expand/kernel", "shape": [1, 1, 96, 576], "dtype": "float32", "quantization": {"dtype": "uint8", "min": -0.7263200441996256, "scale": 0.005340588560291365, "original_dtype": "float32"}}, {"name": "expanded_conv_9_expand_bn/gamma", "shape": [576], "dtype": "float32", "quantization": {"dtype": "uint8", "min": -0.12313381749040941, "scale": 0.013681535276712157, "original_dtype": "float32"}}, {"name": "expanded_conv_9_expand_bn/beta", "shape": [576], "dtype": "float32", "quantization": {"dtype": "uint8", "min": -3.1826422831591437, "scale": 0.02867245300143373, "original_dtype": "float32"}}, {"name": "expanded_conv_9_expand_bn/moving_mean", "shape": [576], "dtype": "float32", "quantization": {"dtype": "uint8", "min": -0.01428448467278013, "scale": 0.00010988065132907792, "original_dtype": "float32"}}, {"name": "expanded_conv_9_expand_bn/moving_variance", "shape": [576], "dtype": "float32", "quantization": {"dtype": "uint8", "min": 9.166470527648926, "scale": 0.1496221467560413, "original_dtype": "float32"}}, {"name": "expanded_conv_9_depthwise/kernel", "shape": [5, 5, 576, 1], "dtype": "float32", "quantization": {"dtype": "uint8", "min": -6.437090810139973, "scale": 0.04733155007455863, "original_dtype": "float32"}}, {"name": "expanded_conv_9_depthwise_bn/gamma", "shape": [576], "dtype": "float32", "quantization": {"dtype": "uint8", "min": 0.3314092755317688, "scale": 0.013139715147953408, "original_dtype": "float32"}}, {"name": "expanded_conv_9_depthwise_bn/beta", "shape": [576], "dtype": "float32", "quantization": {"dtype": "uint8", "min": -5.691354787817189, "scale": 0.02507204752342374, "original_dtype": "float32"}}, {"name": "expanded_conv_9_depthwise_bn/moving_mean", "shape": [576], "dtype": "float32", "quantization": {"dtype": "uint8", "min": -32.651946123908544, "scale": 0.18447427188648896, "original_dtype": "float32"}}, {"name": "expanded_conv_9_depthwise_bn/moving_variance", "shape": [576], "dtype": "float32", "quantization": {"dtype": "uint8", "min": 0.011730700731277466, "scale": 0.8000685877659741, "original_dtype": "float32"}}, {"name": "expanded_conv_9_squeeze_excite_conv/kernel", "shape": [1, 1, 576, 144], "dtype": "float32", "quantization": {"dtype": "uint8", "min": -0.75463387966156, "scale": 0.006678175926208496, "original_dtype": "float32"}}, {"name": "expanded_conv_9_squeeze_excite_conv/bias", "shape": [144], "dtype": "float32", "quantization": {"dtype": "uint8", "min": -1.3323088122349158, "scale": 0.01001735949048809, "original_dtype": "float32"}}, {"name": "expanded_conv_9_squeeze_excite_conv_1/kernel", "shape": [1, 1, 144, 576], "dtype": "float32", "quantization": {"dtype": "uint8", "min": -0.8610171360128066, "scale": 0.009566857066808963, "original_dtype": "float32"}}, {"name": "expanded_conv_9_squeeze_excite_conv_1/bias", "shape": [576], "dtype": "float32", "quantization": {"dtype": "uint8", "min": -3.0727591944675816, "scale": 0.02345617705700444, "original_dtype": "float32"}}, {"name": "expanded_conv_9_project/kernel", "shape": [1, 1, 576, 96], "dtype": "float32", "quantization": {"dtype": "uint8", "min": -0.6082238632089952, "scale": 0.005479494263144101, "original_dtype": "float32"}}, {"name": "expanded_conv_9_project_bn/gamma", "shape": [96], "dtype": "float32", "quantization": {"dtype": "uint8", "min": 1.6313490867614746, "scale": 0.013348895428227443, "original_dtype": "float32"}}, {"name": "expanded_conv_9_project_bn/beta", "shape": [96], "dtype": "float32", "quantization": {"dtype": "uint8", "min": -0.0074207490565730075, "scale": 5.797460200447662e-05, "original_dtype": "float32"}}, {"name": "expanded_conv_9_project_bn/moving_mean", "shape": [96], "dtype": "float32", "quantization": {"dtype": "uint8", "min": -0.38170598534976735, "scale": 0.0026507360093733843, "original_dtype": "float32"}}, {"name": "expanded_conv_9_project_bn/moving_variance", "shape": [96], "dtype": "float32", "quantization": {"dtype": "uint8", "min": 0.026354968547821045, "scale": 0.00015549902238097844, "original_dtype": "float32"}}, {"name": "expanded_conv_10_expand/kernel", "shape": [1, 1, 96, 576], "dtype": "float32", "quantization": {"dtype": "uint8", "min": -0.6090486704134475, "scale": 0.004545139331443637, "original_dtype": "float32"}}, {"name": "expanded_conv_10_expand_bn/gamma", "shape": [576], "dtype": "float32", "quantization": {"dtype": "uint8", "min": -0.8674695192598829, "scale": 0.033364212279226264, "original_dtype": "float32"}}, {"name": "expanded_conv_10_expand_bn/beta", "shape": [576], "dtype": "float32", "quantization": {"dtype": "uint8", "min": -20.810219904955698, "scale": 0.09373972930160224, "original_dtype": "float32"}}, {"name": "expanded_conv_10_expand_bn/moving_mean", "shape": [576], "dtype": "float32", "quantization": {"dtype": "uint8", "min": -0.02731443547150668, "scale": 0.0001870851744623745, "original_dtype": "float32"}}, {"name": "expanded_conv_10_expand_bn/moving_variance", "shape": [576], "dtype": "float32", "quantization": {"dtype": "uint8", "min": 10.826663970947266, "scale": 0.37317353790881586, "original_dtype": "float32"}}, {"name": "expanded_conv_10_depthwise/kernel", "shape": [5, 5, 576, 1], "dtype": "float32", "quantization": {"dtype": "uint8", "min": -7.781739730460971, "scale": 0.07272653953701842, "original_dtype": "float32"}}, {"name": "expanded_conv_10_depthwise_bn/gamma", "shape": [576], "dtype": "float32", "quantization": {"dtype": "uint8", "min": 0.1021026149392128, "scale": 0.04662503503701266, "original_dtype": "float32"}}, {"name": "expanded_conv_10_depthwise_bn/beta", "shape": [576], "dtype": "float32", "quantization": {"dtype": "uint8", "min": -11.584066907097313, "scale": 0.05171458440668443, "original_dtype": "float32"}}, {"name": "expanded_conv_10_depthwise_bn/moving_mean", "shape": [576], "dtype": "float32", "quantization": {"dtype": "uint8", "min": -33.777921126870545, "scale": 0.17501513537238625, "original_dtype": "float32"}}, {"name": "expanded_conv_10_depthwise_bn/moving_variance", "shape": [576], "dtype": "float32", "quantization": {"dtype": "uint8", "min": 0.010639595799148083, "scale": 5.576796032681915, "original_dtype": "float32"}}, {"name": "expanded_conv_10_squeeze_excite_conv/kernel", "shape": [1, 1, 576, 144], "dtype": "float32", "quantization": {"dtype": "uint8", "min": -0.6569612877041686, "scale": 0.006772796780455346, "original_dtype": "float32"}}, {"name": "expanded_conv_10_squeeze_excite_conv/bias", "shape": [144], "dtype": "float32", "quantization": {"dtype": "uint8", "min": -2.2134078156714345, "scale": 0.02030649372175628, "original_dtype": "float32"}}, {"name": "expanded_conv_10_squeeze_excite_conv_1/kernel", "shape": [1, 1, 144, 576], "dtype": "float32", "quantization": {"dtype": "uint8", "min": -0.793437437917672, "scale": 0.008719092724370022, "original_dtype": "float32"}}, {"name": "expanded_conv_10_squeeze_excite_conv_1/bias", "shape": [576], "dtype": "float32", "quantization": {"dtype": "uint8", "min": -3.548901557922363, "scale": 0.03286019961039225, "original_dtype": "float32"}}, {"name": "expanded_conv_10_project/kernel", "shape": [1, 1, 576, 96], "dtype": "float32", "quantization": {"dtype": "uint8", "min": -1.1364105673397287, "scale": 0.007891740050970339, "original_dtype": "float32"}}, {"name": "expanded_conv_10_project_bn/gamma", "shape": [96], "dtype": "float32", "quantization": {"dtype": "uint8", "min": 3.4573941230773926, "scale": 0.016066207137762332, "original_dtype": "float32"}}, {"name": "expanded_conv_10_project_bn/beta", "shape": [96], "dtype": "float32", "quantization": {"dtype": "uint8", "min": -0.006127192173153162, "scale": 4.004700766766773e-05, "original_dtype": "float32"}}, {"name": "expanded_conv_10_project_bn/moving_mean", "shape": [96], "dtype": "float32", "quantization": {"dtype": "uint8", "min": -0.6564671834309895, "scale": 0.004826964584051394, "original_dtype": "float32"}}, {"name": "expanded_conv_10_project_bn/moving_variance", "shape": [96], "dtype": "float32", "quantization": {"dtype": "uint8", "min": 0.46803954243659973, "scale": 0.007379615891213511, "original_dtype": "float32"}}, {"name": "conv_1/kernel", "shape": [1, 1, 96, 576], "dtype": "float32", "quantization": {"dtype": "uint8", "min": -0.7867720566543879, "scale": 0.006344935940761192, "original_dtype": "float32"}}, {"name": "conv_1_bn/gamma", "shape": [576], "dtype": "float32", "quantization": {"dtype": "uint8", "min": 2.4152729511260986, "scale": 0.03512698809305827, "original_dtype": "float32"}}, {"name": "conv_1_bn/beta", "shape": [576], "dtype": "float32", "quantization": {"dtype": "uint8", "min": -14.29807140827179, "scale": 0.06007593028685626, "original_dtype": "float32"}}, {"name": "conv_1_bn/moving_mean", "shape": [576], "dtype": "float32", "quantization": {"dtype": "uint8", "min": -0.0292031619916944, "scale": 0.0002474844236584271, "original_dtype": "float32"}}, {"name": "conv_1_bn/moving_variance", "shape": [576], "dtype": "float32", "quantization": {"dtype": "uint8", "min": 78.97274780273438, "scale": 4.045702765969669, "original_dtype": "float32"}}, {"name": "dense_8/kernel", "shape": [576, 1], "dtype": "float32", "quantization": {"dtype": "uint8", "min": -0.44370721204608093, "scale": 0.0034937575751659918, "original_dtype": "float32"}}, {"name": "dense_8/bias", "shape": [1], "dtype": "float32", "quantization": {"dtype": "uint8", "min": 0.04769451543688774, "scale": 1.0, "original_dtype": "float32"}}]}]}