{"format": "graph-model", "generatedBy": "2.18.0", "convertedBy": "TensorFlow.js Converter v4.21.0", "signature": {"inputs": {"input_layer_21": {"name": "input_layer_21:0", "dtype": "DT_FLOAT", "tensorShape": {"dim": [{"size": "-1"}, {"size": "224"}, {"size": "224"}, {"size": "3"}]}}}, "outputs": {"output_0": {"name": "Identity:0", "dtype": "DT_FLOAT", "tensorShape": {"dim": [{"size": "-1"}, {"size": "1"}]}}}}, "modelTopology": {"node": [{"name": "ConstantFolding/StatefulPartitionedCall/functional_24_1/MobileNetV3Small_1/activation_161_1/truediv_recip", "op": "Const", "attr": {"value": {"tensor": {"dtype": "DT_FLOAT", "tensorShape": {}}}, "dtype": {"type": "DT_FLOAT"}}}, {"name": "StatefulPartitionedCall/functional_24_1/MobileNetV3Small_1/expanded_conv_10_project_bn_1/batchnorm/sub", "op": "Const", "attr": {"value": {"tensor": {"dtype": "DT_FLOAT", "tensorShape": {"dim": [{"size": "96"}]}}}, "dtype": {"type": "DT_FLOAT"}}}, {"name": "StatefulPartitionedCall/functional_24_1/MobileNetV3Small_1/Const_17", "op": "Const", "attr": {"value": {"tensor": {"dtype": "DT_FLOAT", "tensorShape": {}}}, "dtype": {"type": "DT_FLOAT"}}}, {"name": "StatefulPartitionedCall/functional_24_1/MobileNetV3Small_1/expanded_conv_10_squeeze_excite_avg_pool_1/Mean/reduction_indices", "op": "Const", "attr": {"value": {"tensor": {"dtype": "DT_INT32", "tensorShape": {"dim": [{"size": "2"}]}}}, "dtype": {"type": "DT_INT32"}}}, {"name": "StatefulPartitionedCall/functional_24_1/MobileNetV3Small_1/expanded_conv_10_squeeze_excite_conv_1/convolution/ReadVariableOp", "op": "Const", "attr": {"value": {"tensor": {"dtype": "DT_FLOAT", "tensorShape": {"dim": [{"size": "1"}, {"size": "1"}, {"size": "576"}, {"size": "144"}]}}}, "dtype": {"type": "DT_FLOAT"}}}, {"name": "StatefulPartitionedCall/functional_24_1/MobileNetV3Small_1/expanded_conv_10_squeeze_excite_conv_1/Squeeze", "op": "Const", "attr": {"value": {"tensor": {"dtype": "DT_FLOAT", "tensorShape": {"dim": [{"size": "144"}]}}}, "dtype": {"type": "DT_FLOAT"}}}, {"name": "StatefulPartitionedCall/functional_24_1/MobileNetV3Small_1/expanded_conv_10_squeeze_excite_conv_1_2/convolution/ReadVariableOp", "op": "Const", "attr": {"value": {"tensor": {"dtype": "DT_FLOAT", "tensorShape": {"dim": [{"size": "1"}, {"size": "1"}, {"size": "144"}, {"size": "576"}]}}}, "dtype": {"type": "DT_FLOAT"}}}, {"name": "StatefulPartitionedCall/functional_24_1/MobileNetV3Small_1/expanded_conv_10_squeeze_excite_conv_1_2/Squeeze", "op": "Const", "attr": {"value": {"tensor": {"dtype": "DT_FLOAT", "tensorShape": {"dim": [{"size": "576"}]}}}, "dtype": {"type": "DT_FLOAT"}}}, {"name": "StatefulPartitionedCall/functional_24_1/MobileNetV3Small_1/Const_16", "op": "Const", "attr": {"value": {"tensor": {"dtype": "DT_FLOAT", "tensorShape": {}}}, "dtype": {"type": "DT_FLOAT"}}}, {"name": "ConstantFolding/StatefulPartitionedCall/functional_24_1/MobileNetV3Small_1/activation_160_1/truediv_recip", "op": "Const", "attr": {"value": {"tensor": {"dtype": "DT_FLOAT", "tensorShape": {}}}, "dtype": {"type": "DT_FLOAT"}}}, {"name": "ConstantFolding/StatefulPartitionedCall/functional_24_1/MobileNetV3Small_1/activation_159_1/truediv_recip", "op": "Const", "attr": {"value": {"tensor": {"dtype": "DT_FLOAT", "tensorShape": {}}}, "dtype": {"type": "DT_FLOAT"}}}, {"name": "StatefulPartitionedCall/functional_24_1/MobileNetV3Small_1/expanded_conv_9_project_bn_1/batchnorm/sub", "op": "Const", "attr": {"value": {"tensor": {"dtype": "DT_FLOAT", "tensorShape": {"dim": [{"size": "96"}]}}}, "dtype": {"type": "DT_FLOAT"}}}, {"name": "StatefulPartitionedCall/functional_24_1/MobileNetV3Small_1/Const_15", "op": "Const", "attr": {"value": {"tensor": {"dtype": "DT_FLOAT", "tensorShape": {}}}, "dtype": {"type": "DT_FLOAT"}}}, {"name": "StatefulPartitionedCall/functional_24_1/MobileNetV3Small_1/expanded_conv_9_squeeze_excite_avg_pool_1/Mean/reduction_indices", "op": "Const", "attr": {"value": {"tensor": {"dtype": "DT_INT32", "tensorShape": {"dim": [{"size": "2"}]}}}, "dtype": {"type": "DT_INT32"}}}, {"name": "StatefulPartitionedCall/functional_24_1/MobileNetV3Small_1/expanded_conv_9_squeeze_excite_conv_1/convolution/ReadVariableOp", "op": "Const", "attr": {"value": {"tensor": {"dtype": "DT_FLOAT", "tensorShape": {"dim": [{"size": "1"}, {"size": "1"}, {"size": "576"}, {"size": "144"}]}}}, "dtype": {"type": "DT_FLOAT"}}}, {"name": "StatefulPartitionedCall/functional_24_1/MobileNetV3Small_1/expanded_conv_9_squeeze_excite_conv_1/Squeeze", "op": "Const", "attr": {"value": {"tensor": {"dtype": "DT_FLOAT", "tensorShape": {"dim": [{"size": "144"}]}}}, "dtype": {"type": "DT_FLOAT"}}}, {"name": "StatefulPartitionedCall/functional_24_1/MobileNetV3Small_1/expanded_conv_9_squeeze_excite_conv_1_2/convolution/ReadVariableOp", "op": "Const", "attr": {"value": {"tensor": {"dtype": "DT_FLOAT", "tensorShape": {"dim": [{"size": "1"}, {"size": "1"}, {"size": "144"}, {"size": "576"}]}}}, "dtype": {"type": "DT_FLOAT"}}}, {"name": "StatefulPartitionedCall/functional_24_1/MobileNetV3Small_1/expanded_conv_9_squeeze_excite_conv_1_2/Squeeze", "op": "Const", "attr": {"value": {"tensor": {"dtype": "DT_FLOAT", "tensorShape": {"dim": [{"size": "576"}]}}}, "dtype": {"type": "DT_FLOAT"}}}, {"name": "StatefulPartitionedCall/functional_24_1/MobileNetV3Small_1/Const_14", "op": "Const", "attr": {"value": {"tensor": {"dtype": "DT_FLOAT", "tensorShape": {}}}, "dtype": {"type": "DT_FLOAT"}}}, {"name": "ConstantFolding/StatefulPartitionedCall/functional_24_1/MobileNetV3Small_1/activation_158_1/truediv_recip", "op": "Const", "attr": {"value": {"tensor": {"dtype": "DT_FLOAT", "tensorShape": {}}}, "dtype": {"type": "DT_FLOAT"}}}, {"name": "ConstantFolding/StatefulPartitionedCall/functional_24_1/MobileNetV3Small_1/activation_157_1/truediv_recip", "op": "Const", "attr": {"value": {"tensor": {"dtype": "DT_FLOAT", "tensorShape": {}}}, "dtype": {"type": "DT_FLOAT"}}}, {"name": "StatefulPartitionedCall/functional_24_1/MobileNetV3Small_1/Const_13", "op": "Const", "attr": {"value": {"tensor": {"dtype": "DT_FLOAT", "tensorShape": {}}}, "dtype": {"type": "DT_FLOAT"}}}, {"name": "StatefulPartitionedCall/functional_24_1/MobileNetV3Small_1/expanded_conv_8_squeeze_excite_avg_pool_1/Mean/reduction_indices", "op": "Const", "attr": {"value": {"tensor": {"dtype": "DT_INT32", "tensorShape": {"dim": [{"size": "2"}]}}}, "dtype": {"type": "DT_INT32"}}}, {"name": "StatefulPartitionedCall/functional_24_1/MobileNetV3Small_1/expanded_conv_8_squeeze_excite_conv_1/convolution/ReadVariableOp", "op": "Const", "attr": {"value": {"tensor": {"dtype": "DT_FLOAT", "tensorShape": {"dim": [{"size": "1"}, {"size": "1"}, {"size": "288"}, {"size": "72"}]}}}, "dtype": {"type": "DT_FLOAT"}}}, {"name": "StatefulPartitionedCall/functional_24_1/MobileNetV3Small_1/expanded_conv_8_squeeze_excite_conv_1/Squeeze", "op": "Const", "attr": {"value": {"tensor": {"dtype": "DT_FLOAT", "tensorShape": {"dim": [{"size": "72"}]}}}, "dtype": {"type": "DT_FLOAT"}}}, {"name": "StatefulPartitionedCall/functional_24_1/MobileNetV3Small_1/expanded_conv_8_squeeze_excite_conv_1_2/convolution/ReadVariableOp", "op": "Const", "attr": {"value": {"tensor": {"dtype": "DT_FLOAT", "tensorShape": {"dim": [{"size": "1"}, {"size": "1"}, {"size": "72"}, {"size": "288"}]}}}, "dtype": {"type": "DT_FLOAT"}}}, {"name": "StatefulPartitionedCall/functional_24_1/MobileNetV3Small_1/expanded_conv_8_squeeze_excite_conv_1_2/Squeeze", "op": "Const", "attr": {"value": {"tensor": {"dtype": "DT_FLOAT", "tensorShape": {"dim": [{"size": "288"}]}}}, "dtype": {"type": "DT_FLOAT"}}}, {"name": "StatefulPartitionedCall/functional_24_1/MobileNetV3Small_1/Const_12", "op": "Const", "attr": {"value": {"tensor": {"dtype": "DT_FLOAT", "tensorShape": {}}}, "dtype": {"type": "DT_FLOAT"}}}, {"name": "ConstantFolding/StatefulPartitionedCall/functional_24_1/MobileNetV3Small_1/activation_156_1/truediv_recip", "op": "Const", "attr": {"value": {"tensor": {"dtype": "DT_FLOAT", "tensorShape": {}}}, "dtype": {"type": "DT_FLOAT"}}}, {"name": "ConstantFolding/StatefulPartitionedCall/functional_24_1/MobileNetV3Small_1/activation_155_1/truediv_recip", "op": "Const", "attr": {"value": {"tensor": {"dtype": "DT_FLOAT", "tensorShape": {}}}, "dtype": {"type": "DT_FLOAT"}}}, {"name": "StatefulPartitionedCall/functional_24_1/MobileNetV3Small_1/expanded_conv_7_project_bn_1/batchnorm/sub", "op": "Const", "attr": {"value": {"tensor": {"dtype": "DT_FLOAT", "tensorShape": {"dim": [{"size": "48"}]}}}, "dtype": {"type": "DT_FLOAT"}}}, {"name": "StatefulPartitionedCall/functional_24_1/MobileNetV3Small_1/Const_11", "op": "Const", "attr": {"value": {"tensor": {"dtype": "DT_FLOAT", "tensorShape": {}}}, "dtype": {"type": "DT_FLOAT"}}}, {"name": "StatefulPartitionedCall/functional_24_1/MobileNetV3Small_1/expanded_conv_7_squeeze_excite_avg_pool_1/Mean/reduction_indices", "op": "Const", "attr": {"value": {"tensor": {"dtype": "DT_INT32", "tensorShape": {"dim": [{"size": "2"}]}}}, "dtype": {"type": "DT_INT32"}}}, {"name": "StatefulPartitionedCall/functional_24_1/MobileNetV3Small_1/expanded_conv_7_squeeze_excite_conv_1/convolution/ReadVariableOp", "op": "Const", "attr": {"value": {"tensor": {"dtype": "DT_FLOAT", "tensorShape": {"dim": [{"size": "1"}, {"size": "1"}, {"size": "144"}, {"size": "40"}]}}}, "dtype": {"type": "DT_FLOAT"}}}, {"name": "StatefulPartitionedCall/functional_24_1/MobileNetV3Small_1/expanded_conv_7_squeeze_excite_conv_1/Squeeze", "op": "Const", "attr": {"value": {"tensor": {"dtype": "DT_FLOAT", "tensorShape": {"dim": [{"size": "40"}]}}}, "dtype": {"type": "DT_FLOAT"}}}, {"name": "StatefulPartitionedCall/functional_24_1/MobileNetV3Small_1/expanded_conv_7_squeeze_excite_conv_1_2/convolution/ReadVariableOp", "op": "Const", "attr": {"value": {"tensor": {"dtype": "DT_FLOAT", "tensorShape": {"dim": [{"size": "1"}, {"size": "1"}, {"size": "40"}, {"size": "144"}]}}}, "dtype": {"type": "DT_FLOAT"}}}, {"name": "StatefulPartitionedCall/functional_24_1/MobileNetV3Small_1/expanded_conv_7_squeeze_excite_conv_1_2/Squeeze", "op": "Const", "attr": {"value": {"tensor": {"dtype": "DT_FLOAT", "tensorShape": {"dim": [{"size": "144"}]}}}, "dtype": {"type": "DT_FLOAT"}}}, {"name": "StatefulPartitionedCall/functional_24_1/MobileNetV3Small_1/Const_10", "op": "Const", "attr": {"value": {"tensor": {"dtype": "DT_FLOAT", "tensorShape": {}}}, "dtype": {"type": "DT_FLOAT"}}}, {"name": "ConstantFolding/StatefulPartitionedCall/functional_24_1/MobileNetV3Small_1/activation_154_1/truediv_recip", "op": "Const", "attr": {"value": {"tensor": {"dtype": "DT_FLOAT", "tensorShape": {}}}, "dtype": {"type": "DT_FLOAT"}}}, {"name": "ConstantFolding/StatefulPartitionedCall/functional_24_1/MobileNetV3Small_1/activation_153_1/truediv_recip", "op": "Const", "attr": {"value": {"tensor": {"dtype": "DT_FLOAT", "tensorShape": {}}}, "dtype": {"type": "DT_FLOAT"}}}, {"name": "StatefulPartitionedCall/functional_24_1/MobileNetV3Small_1/Const_9", "op": "Const", "attr": {"value": {"tensor": {"dtype": "DT_FLOAT", "tensorShape": {}}}, "dtype": {"type": "DT_FLOAT"}}}, {"name": "StatefulPartitionedCall/functional_24_1/MobileNetV3Small_1/expanded_conv_6_squeeze_excite_avg_pool_1/Mean/reduction_indices", "op": "Const", "attr": {"value": {"tensor": {"dtype": "DT_INT32", "tensorShape": {"dim": [{"size": "2"}]}}}, "dtype": {"type": "DT_INT32"}}}, {"name": "StatefulPartitionedCall/functional_24_1/MobileNetV3Small_1/expanded_conv_6_squeeze_excite_conv_1/convolution/ReadVariableOp", "op": "Const", "attr": {"value": {"tensor": {"dtype": "DT_FLOAT", "tensorShape": {"dim": [{"size": "1"}, {"size": "1"}, {"size": "120"}, {"size": "32"}]}}}, "dtype": {"type": "DT_FLOAT"}}}, {"name": "StatefulPartitionedCall/functional_24_1/MobileNetV3Small_1/expanded_conv_6_squeeze_excite_conv_1/Squeeze", "op": "Const", "attr": {"value": {"tensor": {"dtype": "DT_FLOAT", "tensorShape": {"dim": [{"size": "32"}]}}}, "dtype": {"type": "DT_FLOAT"}}}, {"name": "StatefulPartitionedCall/functional_24_1/MobileNetV3Small_1/expanded_conv_6_squeeze_excite_conv_1_2/convolution/ReadVariableOp", "op": "Const", "attr": {"value": {"tensor": {"dtype": "DT_FLOAT", "tensorShape": {"dim": [{"size": "1"}, {"size": "1"}, {"size": "32"}, {"size": "120"}]}}}, "dtype": {"type": "DT_FLOAT"}}}, {"name": "StatefulPartitionedCall/functional_24_1/MobileNetV3Small_1/expanded_conv_6_squeeze_excite_conv_1_2/Squeeze", "op": "Const", "attr": {"value": {"tensor": {"dtype": "DT_FLOAT", "tensorShape": {"dim": [{"size": "120"}]}}}, "dtype": {"type": "DT_FLOAT"}}}, {"name": "StatefulPartitionedCall/functional_24_1/MobileNetV3Small_1/Const_8", "op": "Const", "attr": {"value": {"tensor": {"dtype": "DT_FLOAT", "tensorShape": {}}}, "dtype": {"type": "DT_FLOAT"}}}, {"name": "ConstantFolding/StatefulPartitionedCall/functional_24_1/MobileNetV3Small_1/activation_152_1/truediv_recip", "op": "Const", "attr": {"value": {"tensor": {"dtype": "DT_FLOAT", "tensorShape": {}}}, "dtype": {"type": "DT_FLOAT"}}}, {"name": "ConstantFolding/StatefulPartitionedCall/functional_24_1/MobileNetV3Small_1/activation_151_1/truediv_recip", "op": "Const", "attr": {"value": {"tensor": {"dtype": "DT_FLOAT", "tensorShape": {}}}, "dtype": {"type": "DT_FLOAT"}}}, {"name": "StatefulPartitionedCall/functional_24_1/MobileNetV3Small_1/expanded_conv_5_project_bn_1/batchnorm/sub", "op": "Const", "attr": {"value": {"tensor": {"dtype": "DT_FLOAT", "tensorShape": {"dim": [{"size": "40"}]}}}, "dtype": {"type": "DT_FLOAT"}}}, {"name": "StatefulPartitionedCall/functional_24_1/MobileNetV3Small_1/Const_7", "op": "Const", "attr": {"value": {"tensor": {"dtype": "DT_FLOAT", "tensorShape": {}}}, "dtype": {"type": "DT_FLOAT"}}}, {"name": "StatefulPartitionedCall/functional_24_1/MobileNetV3Small_1/expanded_conv_5_squeeze_excite_avg_pool_1/Mean/reduction_indices", "op": "Const", "attr": {"value": {"tensor": {"dtype": "DT_INT32", "tensorShape": {"dim": [{"size": "2"}]}}}, "dtype": {"type": "DT_INT32"}}}, {"name": "StatefulPartitionedCall/functional_24_1/MobileNetV3Small_1/expanded_conv_5_squeeze_excite_conv_1/convolution/ReadVariableOp", "op": "Const", "attr": {"value": {"tensor": {"dtype": "DT_FLOAT", "tensorShape": {"dim": [{"size": "1"}, {"size": "1"}, {"size": "240"}, {"size": "64"}]}}}, "dtype": {"type": "DT_FLOAT"}}}, {"name": "StatefulPartitionedCall/functional_24_1/MobileNetV3Small_1/expanded_conv_5_squeeze_excite_conv_1/Squeeze", "op": "Const", "attr": {"value": {"tensor": {"dtype": "DT_FLOAT", "tensorShape": {"dim": [{"size": "64"}]}}}, "dtype": {"type": "DT_FLOAT"}}}, {"name": "StatefulPartitionedCall/functional_24_1/MobileNetV3Small_1/expanded_conv_5_squeeze_excite_conv_1_2/convolution/ReadVariableOp", "op": "Const", "attr": {"value": {"tensor": {"dtype": "DT_FLOAT", "tensorShape": {"dim": [{"size": "1"}, {"size": "1"}, {"size": "64"}, {"size": "240"}]}}}, "dtype": {"type": "DT_FLOAT"}}}, {"name": "StatefulPartitionedCall/functional_24_1/MobileNetV3Small_1/expanded_conv_5_squeeze_excite_conv_1_2/Squeeze", "op": "Const", "attr": {"value": {"tensor": {"dtype": "DT_FLOAT", "tensorShape": {"dim": [{"size": "240"}]}}}, "dtype": {"type": "DT_FLOAT"}}}, {"name": "StatefulPartitionedCall/functional_24_1/MobileNetV3Small_1/Const_6", "op": "Const", "attr": {"value": {"tensor": {"dtype": "DT_FLOAT", "tensorShape": {}}}, "dtype": {"type": "DT_FLOAT"}}}, {"name": "ConstantFolding/StatefulPartitionedCall/functional_24_1/MobileNetV3Small_1/activation_150_1/truediv_recip", "op": "Const", "attr": {"value": {"tensor": {"dtype": "DT_FLOAT", "tensorShape": {}}}, "dtype": {"type": "DT_FLOAT"}}}, {"name": "ConstantFolding/StatefulPartitionedCall/functional_24_1/MobileNetV3Small_1/activation_149_1/truediv_recip", "op": "Const", "attr": {"value": {"tensor": {"dtype": "DT_FLOAT", "tensorShape": {}}}, "dtype": {"type": "DT_FLOAT"}}}, {"name": "StatefulPartitionedCall/functional_24_1/MobileNetV3Small_1/expanded_conv_4_project_bn_1/batchnorm/sub", "op": "Const", "attr": {"value": {"tensor": {"dtype": "DT_FLOAT", "tensorShape": {"dim": [{"size": "40"}]}}}, "dtype": {"type": "DT_FLOAT"}}}, {"name": "StatefulPartitionedCall/functional_24_1/MobileNetV3Small_1/Const_5", "op": "Const", "attr": {"value": {"tensor": {"dtype": "DT_FLOAT", "tensorShape": {}}}, "dtype": {"type": "DT_FLOAT"}}}, {"name": "StatefulPartitionedCall/functional_24_1/MobileNetV3Small_1/expanded_conv_4_squeeze_excite_avg_pool_1/Mean/reduction_indices", "op": "Const", "attr": {"value": {"tensor": {"dtype": "DT_INT32", "tensorShape": {"dim": [{"size": "2"}]}}}, "dtype": {"type": "DT_INT32"}}}, {"name": "StatefulPartitionedCall/functional_24_1/MobileNetV3Small_1/expanded_conv_4_squeeze_excite_conv_1/convolution/ReadVariableOp", "op": "Const", "attr": {"value": {"tensor": {"dtype": "DT_FLOAT", "tensorShape": {"dim": [{"size": "1"}, {"size": "1"}, {"size": "240"}, {"size": "64"}]}}}, "dtype": {"type": "DT_FLOAT"}}}, {"name": "StatefulPartitionedCall/functional_24_1/MobileNetV3Small_1/expanded_conv_4_squeeze_excite_conv_1/Squeeze", "op": "Const", "attr": {"value": {"tensor": {"dtype": "DT_FLOAT", "tensorShape": {"dim": [{"size": "64"}]}}}, "dtype": {"type": "DT_FLOAT"}}}, {"name": "StatefulPartitionedCall/functional_24_1/MobileNetV3Small_1/expanded_conv_4_squeeze_excite_conv_1_2/convolution/ReadVariableOp", "op": "Const", "attr": {"value": {"tensor": {"dtype": "DT_FLOAT", "tensorShape": {"dim": [{"size": "1"}, {"size": "1"}, {"size": "64"}, {"size": "240"}]}}}, "dtype": {"type": "DT_FLOAT"}}}, {"name": "StatefulPartitionedCall/functional_24_1/MobileNetV3Small_1/expanded_conv_4_squeeze_excite_conv_1_2/Squeeze", "op": "Const", "attr": {"value": {"tensor": {"dtype": "DT_FLOAT", "tensorShape": {"dim": [{"size": "240"}]}}}, "dtype": {"type": "DT_FLOAT"}}}, {"name": "StatefulPartitionedCall/functional_24_1/MobileNetV3Small_1/Const_4", "op": "Const", "attr": {"value": {"tensor": {"dtype": "DT_FLOAT", "tensorShape": {}}}, "dtype": {"type": "DT_FLOAT"}}}, {"name": "ConstantFolding/StatefulPartitionedCall/functional_24_1/MobileNetV3Small_1/activation_148_1/truediv_recip", "op": "Const", "attr": {"value": {"tensor": {"dtype": "DT_FLOAT", "tensorShape": {}}}, "dtype": {"type": "DT_FLOAT"}}}, {"name": "ConstantFolding/StatefulPartitionedCall/functional_24_1/MobileNetV3Small_1/activation_147_1/truediv_recip", "op": "Const", "attr": {"value": {"tensor": {"dtype": "DT_FLOAT", "tensorShape": {}}}, "dtype": {"type": "DT_FLOAT"}}}, {"name": "StatefulPartitionedCall/functional_24_1/MobileNetV3Small_1/Const_3", "op": "Const", "attr": {"value": {"tensor": {"dtype": "DT_FLOAT", "tensorShape": {}}}, "dtype": {"type": "DT_FLOAT"}}}, {"name": "StatefulPartitionedCall/functional_24_1/MobileNetV3Small_1/expanded_conv_3_squeeze_excite_avg_pool_1/Mean/reduction_indices", "op": "Const", "attr": {"value": {"tensor": {"dtype": "DT_INT32", "tensorShape": {"dim": [{"size": "2"}]}}}, "dtype": {"type": "DT_INT32"}}}, {"name": "StatefulPartitionedCall/functional_24_1/MobileNetV3Small_1/expanded_conv_3_squeeze_excite_conv_1/convolution/ReadVariableOp", "op": "Const", "attr": {"value": {"tensor": {"dtype": "DT_FLOAT", "tensorShape": {"dim": [{"size": "1"}, {"size": "1"}, {"size": "96"}, {"size": "24"}]}}}, "dtype": {"type": "DT_FLOAT"}}}, {"name": "StatefulPartitionedCall/functional_24_1/MobileNetV3Small_1/expanded_conv_3_squeeze_excite_conv_1/Squeeze", "op": "Const", "attr": {"value": {"tensor": {"dtype": "DT_FLOAT", "tensorShape": {"dim": [{"size": "24"}]}}}, "dtype": {"type": "DT_FLOAT"}}}, {"name": "StatefulPartitionedCall/functional_24_1/MobileNetV3Small_1/expanded_conv_3_squeeze_excite_conv_1_2/convolution/ReadVariableOp", "op": "Const", "attr": {"value": {"tensor": {"dtype": "DT_FLOAT", "tensorShape": {"dim": [{"size": "1"}, {"size": "1"}, {"size": "24"}, {"size": "96"}]}}}, "dtype": {"type": "DT_FLOAT"}}}, {"name": "StatefulPartitionedCall/functional_24_1/MobileNetV3Small_1/expanded_conv_3_squeeze_excite_conv_1_2/Squeeze", "op": "Const", "attr": {"value": {"tensor": {"dtype": "DT_FLOAT", "tensorShape": {"dim": [{"size": "96"}]}}}, "dtype": {"type": "DT_FLOAT"}}}, {"name": "StatefulPartitionedCall/functional_24_1/MobileNetV3Small_1/Const_2", "op": "Const", "attr": {"value": {"tensor": {"dtype": "DT_FLOAT", "tensorShape": {}}}, "dtype": {"type": "DT_FLOAT"}}}, {"name": "ConstantFolding/StatefulPartitionedCall/functional_24_1/MobileNetV3Small_1/activation_146_1/truediv_recip", "op": "Const", "attr": {"value": {"tensor": {"dtype": "DT_FLOAT", "tensorShape": {}}}, "dtype": {"type": "DT_FLOAT"}}}, {"name": "ConstantFolding/StatefulPartitionedCall/functional_24_1/MobileNetV3Small_1/activation_145_1/truediv_recip", "op": "Const", "attr": {"value": {"tensor": {"dtype": "DT_FLOAT", "tensorShape": {}}}, "dtype": {"type": "DT_FLOAT"}}}, {"name": "StatefulPartitionedCall/functional_24_1/MobileNetV3Small_1/expanded_conv_2_project_bn_1/batchnorm/sub", "op": "Const", "attr": {"value": {"tensor": {"dtype": "DT_FLOAT", "tensorShape": {"dim": [{"size": "24"}]}}}, "dtype": {"type": "DT_FLOAT"}}}, {"name": "StatefulPartitionedCall/functional_24_1/MobileNetV3Small_1/Const_1", "op": "Const", "attr": {"value": {"tensor": {"dtype": "DT_FLOAT", "tensorShape": {}}}, "dtype": {"type": "DT_FLOAT"}}}, {"name": "StatefulPartitionedCall/functional_24_1/MobileNetV3Small_1/expanded_conv_squeeze_excite_avg_pool_1/Mean/reduction_indices", "op": "Const", "attr": {"value": {"tensor": {"dtype": "DT_INT32", "tensorShape": {"dim": [{"size": "2"}]}}}, "dtype": {"type": "DT_INT32"}}}, {"name": "StatefulPartitionedCall/functional_24_1/MobileNetV3Small_1/expanded_conv_squeeze_excite_conv_1/convolution/ReadVariableOp", "op": "Const", "attr": {"value": {"tensor": {"dtype": "DT_FLOAT", "tensorShape": {"dim": [{"size": "1"}, {"size": "1"}, {"size": "16"}, {"size": "8"}]}}}, "dtype": {"type": "DT_FLOAT"}}}, {"name": "StatefulPartitionedCall/functional_24_1/MobileNetV3Small_1/expanded_conv_squeeze_excite_conv_1/Squeeze", "op": "Const", "attr": {"value": {"tensor": {"dtype": "DT_FLOAT", "tensorShape": {"dim": [{"size": "8"}]}}}, "dtype": {"type": "DT_FLOAT"}}}, {"name": "StatefulPartitionedCall/functional_24_1/MobileNetV3Small_1/expanded_conv_squeeze_excite_conv_1_2/convolution/ReadVariableOp", "op": "Const", "attr": {"value": {"tensor": {"dtype": "DT_FLOAT", "tensorShape": {"dim": [{"size": "1"}, {"size": "1"}, {"size": "8"}, {"size": "16"}]}}}, "dtype": {"type": "DT_FLOAT"}}}, {"name": "StatefulPartitionedCall/functional_24_1/MobileNetV3Small_1/expanded_conv_squeeze_excite_conv_1_2/Squeeze", "op": "Const", "attr": {"value": {"tensor": {"dtype": "DT_FLOAT", "tensorShape": {"dim": [{"size": "16"}]}}}, "dtype": {"type": "DT_FLOAT"}}}, {"name": "StatefulPartitionedCall/functional_24_1/MobileNetV3Small_1/Const", "op": "Const", "attr": {"value": {"tensor": {"dtype": "DT_FLOAT", "tensorShape": {}}}, "dtype": {"type": "DT_FLOAT"}}}, {"name": "ConstantFolding/StatefulPartitionedCall/functional_24_1/MobileNetV3Small_1/activation_144_1/truediv_recip", "op": "Const", "attr": {"value": {"tensor": {"dtype": "DT_FLOAT", "tensorShape": {}}}, "dtype": {"type": "DT_FLOAT"}}}, {"name": "StatefulPartitionedCall/functional_24_1/MobileNetV3Small_1/rescaling_8_1/Cast/x", "op": "Const", "attr": {"value": {"tensor": {"dtype": "DT_FLOAT", "tensorShape": {}}}, "dtype": {"type": "DT_FLOAT"}}}, {"name": "StatefulPartitionedCall/functional_24_1/MobileNetV3Small_1/rescaling_8_1/Cast_1/x", "op": "Const", "attr": {"value": {"tensor": {"dtype": "DT_FLOAT", "tensorShape": {}}}, "dtype": {"type": "DT_FLOAT"}}}, {"name": "StatefulPartitionedCall/functional_24_1/MobileNetV3Small_1/conv_1/convolution/merged_input", "op": "Const", "attr": {"value": {"tensor": {"dtype": "DT_FLOAT", "tensorShape": {"dim": [{"size": "3"}, {"size": "3"}, {"size": "3"}, {"size": "16"}]}}}, "dtype": {"type": "DT_FLOAT"}}}, {"name": "StatefulPartitionedCall/functional_24_1/MobileNetV3Small_1/conv_bn_1/batchnorm/sub", "op": "Const", "attr": {"value": {"tensor": {"dtype": "DT_FLOAT", "tensorShape": {"dim": [{"size": "16"}]}}}, "dtype": {"type": "DT_FLOAT"}}}, {"name": "StatefulPartitionedCall/functional_24_1/MobileNetV3Small_1/activation_144_1/Const", "op": "Const", "attr": {"value": {"tensor": {"dtype": "DT_FLOAT", "tensorShape": {}}}, "dtype": {"type": "DT_FLOAT"}}}, {"name": "StatefulPartitionedCall/functional_24_1/MobileNetV3Small_1/expanded_conv_depthwise_pad_1/Const", "op": "Const", "attr": {"value": {"tensor": {"dtype": "DT_INT32", "tensorShape": {"dim": [{"size": "4"}, {"size": "2"}]}}}, "dtype": {"type": "DT_INT32"}}}, {"name": "StatefulPartitionedCall/functional_24_1/MobileNetV3Small_1/expanded_conv_depthwise_1/depthwise/ReadVariableOp", "op": "Const", "attr": {"value": {"tensor": {"dtype": "DT_FLOAT", "tensorShape": {"dim": [{"size": "3"}, {"size": "3"}, {"size": "16"}, {"size": "1"}]}}}, "dtype": {"type": "DT_FLOAT"}}}, {"name": "StatefulPartitionedCall/functional_24_1/MobileNetV3Small_1/expanded_conv_depthwise_bn_1/batchnorm/mul", "op": "Const", "attr": {"value": {"tensor": {"dtype": "DT_FLOAT", "tensorShape": {"dim": [{"size": "16"}]}}}, "dtype": {"type": "DT_FLOAT"}}}, {"name": "StatefulPartitionedCall/functional_24_1/MobileNetV3Small_1/expanded_conv_depthwise_bn_1/batchnorm/sub", "op": "Const", "attr": {"value": {"tensor": {"dtype": "DT_FLOAT", "tensorShape": {"dim": [{"size": "16"}]}}}, "dtype": {"type": "DT_FLOAT"}}}, {"name": "StatefulPartitionedCall/functional_24_1/MobileNetV3Small_1/expanded_conv_project_1/convolution/merged_input", "op": "Const", "attr": {"value": {"tensor": {"dtype": "DT_FLOAT", "tensorShape": {"dim": [{"size": "1"}, {"size": "1"}, {"size": "16"}, {"size": "16"}]}}}, "dtype": {"type": "DT_FLOAT"}}}, {"name": "StatefulPartitionedCall/functional_24_1/MobileNetV3Small_1/expanded_conv_project_bn_1/batchnorm/sub", "op": "Const", "attr": {"value": {"tensor": {"dtype": "DT_FLOAT", "tensorShape": {"dim": [{"size": "16"}]}}}, "dtype": {"type": "DT_FLOAT"}}}, {"name": "StatefulPartitionedCall/functional_24_1/MobileNetV3Small_1/expanded_conv_1_expand_1/convolution/merged_input", "op": "Const", "attr": {"value": {"tensor": {"dtype": "DT_FLOAT", "tensorShape": {"dim": [{"size": "1"}, {"size": "1"}, {"size": "16"}, {"size": "72"}]}}}, "dtype": {"type": "DT_FLOAT"}}}, {"name": "StatefulPartitionedCall/functional_24_1/MobileNetV3Small_1/expanded_conv_1_expand_bn_1/batchnorm/sub", "op": "Const", "attr": {"value": {"tensor": {"dtype": "DT_FLOAT", "tensorShape": {"dim": [{"size": "72"}]}}}, "dtype": {"type": "DT_FLOAT"}}}, {"name": "StatefulPartitionedCall/functional_24_1/MobileNetV3Small_1/expanded_conv_1_depthwise_pad_1/Const", "op": "Const", "attr": {"value": {"tensor": {"dtype": "DT_INT32", "tensorShape": {"dim": [{"size": "4"}, {"size": "2"}]}}}, "dtype": {"type": "DT_INT32"}}}, {"name": "StatefulPartitionedCall/functional_24_1/MobileNetV3Small_1/expanded_conv_1_depthwise_1/depthwise/ReadVariableOp", "op": "Const", "attr": {"value": {"tensor": {"dtype": "DT_FLOAT", "tensorShape": {"dim": [{"size": "3"}, {"size": "3"}, {"size": "72"}, {"size": "1"}]}}}, "dtype": {"type": "DT_FLOAT"}}}, {"name": "StatefulPartitionedCall/functional_24_1/MobileNetV3Small_1/expanded_conv_1_depthwise_bn_1/batchnorm/mul", "op": "Const", "attr": {"value": {"tensor": {"dtype": "DT_FLOAT", "tensorShape": {"dim": [{"size": "72"}]}}}, "dtype": {"type": "DT_FLOAT"}}}, {"name": "StatefulPartitionedCall/functional_24_1/MobileNetV3Small_1/expanded_conv_1_depthwise_bn_1/batchnorm/sub", "op": "Const", "attr": {"value": {"tensor": {"dtype": "DT_FLOAT", "tensorShape": {"dim": [{"size": "72"}]}}}, "dtype": {"type": "DT_FLOAT"}}}, {"name": "StatefulPartitionedCall/functional_24_1/MobileNetV3Small_1/expanded_conv_1_project_1/convolution/merged_input", "op": "Const", "attr": {"value": {"tensor": {"dtype": "DT_FLOAT", "tensorShape": {"dim": [{"size": "1"}, {"size": "1"}, {"size": "72"}, {"size": "24"}]}}}, "dtype": {"type": "DT_FLOAT"}}}, {"name": "StatefulPartitionedCall/functional_24_1/MobileNetV3Small_1/expanded_conv_1_project_bn_1/batchnorm/sub", "op": "Const", "attr": {"value": {"tensor": {"dtype": "DT_FLOAT", "tensorShape": {"dim": [{"size": "24"}]}}}, "dtype": {"type": "DT_FLOAT"}}}, {"name": "StatefulPartitionedCall/functional_24_1/MobileNetV3Small_1/expanded_conv_2_expand_1/convolution/merged_input", "op": "Const", "attr": {"value": {"tensor": {"dtype": "DT_FLOAT", "tensorShape": {"dim": [{"size": "1"}, {"size": "1"}, {"size": "24"}, {"size": "88"}]}}}, "dtype": {"type": "DT_FLOAT"}}}, {"name": "StatefulPartitionedCall/functional_24_1/MobileNetV3Small_1/expanded_conv_2_expand_bn_1/batchnorm/sub", "op": "Const", "attr": {"value": {"tensor": {"dtype": "DT_FLOAT", "tensorShape": {"dim": [{"size": "88"}]}}}, "dtype": {"type": "DT_FLOAT"}}}, {"name": "StatefulPartitionedCall/functional_24_1/MobileNetV3Small_1/expanded_conv_2_depthwise_1/depthwise/ReadVariableOp", "op": "Const", "attr": {"value": {"tensor": {"dtype": "DT_FLOAT", "tensorShape": {"dim": [{"size": "3"}, {"size": "3"}, {"size": "88"}, {"size": "1"}]}}}, "dtype": {"type": "DT_FLOAT"}}}, {"name": "StatefulPartitionedCall/functional_24_1/MobileNetV3Small_1/expanded_conv_2_depthwise_bn_1/batchnorm/mul", "op": "Const", "attr": {"value": {"tensor": {"dtype": "DT_FLOAT", "tensorShape": {"dim": [{"size": "88"}]}}}, "dtype": {"type": "DT_FLOAT"}}}, {"name": "StatefulPartitionedCall/functional_24_1/MobileNetV3Small_1/expanded_conv_2_depthwise_bn_1/batchnorm/sub", "op": "Const", "attr": {"value": {"tensor": {"dtype": "DT_FLOAT", "tensorShape": {"dim": [{"size": "88"}]}}}, "dtype": {"type": "DT_FLOAT"}}}, {"name": "StatefulPartitionedCall/functional_24_1/MobileNetV3Small_1/expanded_conv_2_project_1/convolution/merged_input", "op": "Const", "attr": {"value": {"tensor": {"dtype": "DT_FLOAT", "tensorShape": {"dim": [{"size": "1"}, {"size": "1"}, {"size": "88"}, {"size": "24"}]}}}, "dtype": {"type": "DT_FLOAT"}}}, {"name": "StatefulPartitionedCall/functional_24_1/MobileNetV3Small_1/expanded_conv_3_expand_1/convolution/merged_input", "op": "Const", "attr": {"value": {"tensor": {"dtype": "DT_FLOAT", "tensorShape": {"dim": [{"size": "1"}, {"size": "1"}, {"size": "24"}, {"size": "96"}]}}}, "dtype": {"type": "DT_FLOAT"}}}, {"name": "StatefulPartitionedCall/functional_24_1/MobileNetV3Small_1/expanded_conv_3_expand_bn_1/batchnorm/sub", "op": "Const", "attr": {"value": {"tensor": {"dtype": "DT_FLOAT", "tensorShape": {"dim": [{"size": "96"}]}}}, "dtype": {"type": "DT_FLOAT"}}}, {"name": "StatefulPartitionedCall/functional_24_1/MobileNetV3Small_1/activation_145_1/Const", "op": "Const", "attr": {"value": {"tensor": {"dtype": "DT_FLOAT", "tensorShape": {}}}, "dtype": {"type": "DT_FLOAT"}}}, {"name": "StatefulPartitionedCall/functional_24_1/MobileNetV3Small_1/expanded_conv_3_depthwise_pad_1/Const", "op": "Const", "attr": {"value": {"tensor": {"dtype": "DT_INT32", "tensorShape": {"dim": [{"size": "4"}, {"size": "2"}]}}}, "dtype": {"type": "DT_INT32"}}}, {"name": "StatefulPartitionedCall/functional_24_1/MobileNetV3Small_1/expanded_conv_3_depthwise_1/depthwise/ReadVariableOp", "op": "Const", "attr": {"value": {"tensor": {"dtype": "DT_FLOAT", "tensorShape": {"dim": [{"size": "5"}, {"size": "5"}, {"size": "96"}, {"size": "1"}]}}}, "dtype": {"type": "DT_FLOAT"}}}, {"name": "StatefulPartitionedCall/functional_24_1/MobileNetV3Small_1/expanded_conv_3_depthwise_bn_1/batchnorm/mul", "op": "Const", "attr": {"value": {"tensor": {"dtype": "DT_FLOAT", "tensorShape": {"dim": [{"size": "96"}]}}}, "dtype": {"type": "DT_FLOAT"}}}, {"name": "StatefulPartitionedCall/functional_24_1/MobileNetV3Small_1/expanded_conv_3_depthwise_bn_1/batchnorm/sub", "op": "Const", "attr": {"value": {"tensor": {"dtype": "DT_FLOAT", "tensorShape": {"dim": [{"size": "96"}]}}}, "dtype": {"type": "DT_FLOAT"}}}, {"name": "StatefulPartitionedCall/functional_24_1/MobileNetV3Small_1/activation_146_1/Const", "op": "Const", "attr": {"value": {"tensor": {"dtype": "DT_FLOAT", "tensorShape": {}}}, "dtype": {"type": "DT_FLOAT"}}}, {"name": "StatefulPartitionedCall/functional_24_1/MobileNetV3Small_1/expanded_conv_3_project_1/convolution/merged_input", "op": "Const", "attr": {"value": {"tensor": {"dtype": "DT_FLOAT", "tensorShape": {"dim": [{"size": "1"}, {"size": "1"}, {"size": "96"}, {"size": "40"}]}}}, "dtype": {"type": "DT_FLOAT"}}}, {"name": "StatefulPartitionedCall/functional_24_1/MobileNetV3Small_1/expanded_conv_3_project_bn_1/batchnorm/sub", "op": "Const", "attr": {"value": {"tensor": {"dtype": "DT_FLOAT", "tensorShape": {"dim": [{"size": "40"}]}}}, "dtype": {"type": "DT_FLOAT"}}}, {"name": "StatefulPartitionedCall/functional_24_1/MobileNetV3Small_1/expanded_conv_4_expand_1/convolution/merged_input", "op": "Const", "attr": {"value": {"tensor": {"dtype": "DT_FLOAT", "tensorShape": {"dim": [{"size": "1"}, {"size": "1"}, {"size": "40"}, {"size": "240"}]}}}, "dtype": {"type": "DT_FLOAT"}}}, {"name": "StatefulPartitionedCall/functional_24_1/MobileNetV3Small_1/expanded_conv_4_expand_bn_1/batchnorm/sub", "op": "Const", "attr": {"value": {"tensor": {"dtype": "DT_FLOAT", "tensorShape": {"dim": [{"size": "240"}]}}}, "dtype": {"type": "DT_FLOAT"}}}, {"name": "StatefulPartitionedCall/functional_24_1/MobileNetV3Small_1/activation_147_1/Const", "op": "Const", "attr": {"value": {"tensor": {"dtype": "DT_FLOAT", "tensorShape": {}}}, "dtype": {"type": "DT_FLOAT"}}}, {"name": "StatefulPartitionedCall/functional_24_1/MobileNetV3Small_1/expanded_conv_4_depthwise_1/depthwise/ReadVariableOp", "op": "Const", "attr": {"value": {"tensor": {"dtype": "DT_FLOAT", "tensorShape": {"dim": [{"size": "5"}, {"size": "5"}, {"size": "240"}, {"size": "1"}]}}}, "dtype": {"type": "DT_FLOAT"}}}, {"name": "StatefulPartitionedCall/functional_24_1/MobileNetV3Small_1/expanded_conv_4_depthwise_bn_1/batchnorm/mul", "op": "Const", "attr": {"value": {"tensor": {"dtype": "DT_FLOAT", "tensorShape": {"dim": [{"size": "240"}]}}}, "dtype": {"type": "DT_FLOAT"}}}, {"name": "StatefulPartitionedCall/functional_24_1/MobileNetV3Small_1/expanded_conv_4_depthwise_bn_1/batchnorm/sub", "op": "Const", "attr": {"value": {"tensor": {"dtype": "DT_FLOAT", "tensorShape": {"dim": [{"size": "240"}]}}}, "dtype": {"type": "DT_FLOAT"}}}, {"name": "StatefulPartitionedCall/functional_24_1/MobileNetV3Small_1/activation_148_1/Const", "op": "Const", "attr": {"value": {"tensor": {"dtype": "DT_FLOAT", "tensorShape": {}}}, "dtype": {"type": "DT_FLOAT"}}}, {"name": "StatefulPartitionedCall/functional_24_1/MobileNetV3Small_1/expanded_conv_4_project_1/convolution/merged_input", "op": "Const", "attr": {"value": {"tensor": {"dtype": "DT_FLOAT", "tensorShape": {"dim": [{"size": "1"}, {"size": "1"}, {"size": "240"}, {"size": "40"}]}}}, "dtype": {"type": "DT_FLOAT"}}}, {"name": "StatefulPartitionedCall/functional_24_1/MobileNetV3Small_1/expanded_conv_5_expand_1/convolution/merged_input", "op": "Const", "attr": {"value": {"tensor": {"dtype": "DT_FLOAT", "tensorShape": {"dim": [{"size": "1"}, {"size": "1"}, {"size": "40"}, {"size": "240"}]}}}, "dtype": {"type": "DT_FLOAT"}}}, {"name": "StatefulPartitionedCall/functional_24_1/MobileNetV3Small_1/expanded_conv_5_expand_bn_1/batchnorm/sub", "op": "Const", "attr": {"value": {"tensor": {"dtype": "DT_FLOAT", "tensorShape": {"dim": [{"size": "240"}]}}}, "dtype": {"type": "DT_FLOAT"}}}, {"name": "StatefulPartitionedCall/functional_24_1/MobileNetV3Small_1/activation_149_1/Const", "op": "Const", "attr": {"value": {"tensor": {"dtype": "DT_FLOAT", "tensorShape": {}}}, "dtype": {"type": "DT_FLOAT"}}}, {"name": "StatefulPartitionedCall/functional_24_1/MobileNetV3Small_1/expanded_conv_5_depthwise_1/depthwise/ReadVariableOp", "op": "Const", "attr": {"value": {"tensor": {"dtype": "DT_FLOAT", "tensorShape": {"dim": [{"size": "5"}, {"size": "5"}, {"size": "240"}, {"size": "1"}]}}}, "dtype": {"type": "DT_FLOAT"}}}, {"name": "StatefulPartitionedCall/functional_24_1/MobileNetV3Small_1/expanded_conv_5_depthwise_bn_1/batchnorm/mul", "op": "Const", "attr": {"value": {"tensor": {"dtype": "DT_FLOAT", "tensorShape": {"dim": [{"size": "240"}]}}}, "dtype": {"type": "DT_FLOAT"}}}, {"name": "StatefulPartitionedCall/functional_24_1/MobileNetV3Small_1/expanded_conv_5_depthwise_bn_1/batchnorm/sub", "op": "Const", "attr": {"value": {"tensor": {"dtype": "DT_FLOAT", "tensorShape": {"dim": [{"size": "240"}]}}}, "dtype": {"type": "DT_FLOAT"}}}, {"name": "StatefulPartitionedCall/functional_24_1/MobileNetV3Small_1/activation_150_1/Const", "op": "Const", "attr": {"value": {"tensor": {"dtype": "DT_FLOAT", "tensorShape": {}}}, "dtype": {"type": "DT_FLOAT"}}}, {"name": "StatefulPartitionedCall/functional_24_1/MobileNetV3Small_1/expanded_conv_5_project_1/convolution/merged_input", "op": "Const", "attr": {"value": {"tensor": {"dtype": "DT_FLOAT", "tensorShape": {"dim": [{"size": "1"}, {"size": "1"}, {"size": "240"}, {"size": "40"}]}}}, "dtype": {"type": "DT_FLOAT"}}}, {"name": "StatefulPartitionedCall/functional_24_1/MobileNetV3Small_1/expanded_conv_6_expand_1/convolution/merged_input", "op": "Const", "attr": {"value": {"tensor": {"dtype": "DT_FLOAT", "tensorShape": {"dim": [{"size": "1"}, {"size": "1"}, {"size": "40"}, {"size": "120"}]}}}, "dtype": {"type": "DT_FLOAT"}}}, {"name": "StatefulPartitionedCall/functional_24_1/MobileNetV3Small_1/expanded_conv_6_expand_bn_1/batchnorm/sub", "op": "Const", "attr": {"value": {"tensor": {"dtype": "DT_FLOAT", "tensorShape": {"dim": [{"size": "120"}]}}}, "dtype": {"type": "DT_FLOAT"}}}, {"name": "StatefulPartitionedCall/functional_24_1/MobileNetV3Small_1/activation_151_1/Const", "op": "Const", "attr": {"value": {"tensor": {"dtype": "DT_FLOAT", "tensorShape": {}}}, "dtype": {"type": "DT_FLOAT"}}}, {"name": "StatefulPartitionedCall/functional_24_1/MobileNetV3Small_1/expanded_conv_6_depthwise_1/depthwise/ReadVariableOp", "op": "Const", "attr": {"value": {"tensor": {"dtype": "DT_FLOAT", "tensorShape": {"dim": [{"size": "5"}, {"size": "5"}, {"size": "120"}, {"size": "1"}]}}}, "dtype": {"type": "DT_FLOAT"}}}, {"name": "StatefulPartitionedCall/functional_24_1/MobileNetV3Small_1/expanded_conv_6_depthwise_bn_1/batchnorm/mul", "op": "Const", "attr": {"value": {"tensor": {"dtype": "DT_FLOAT", "tensorShape": {"dim": [{"size": "120"}]}}}, "dtype": {"type": "DT_FLOAT"}}}, {"name": "StatefulPartitionedCall/functional_24_1/MobileNetV3Small_1/expanded_conv_6_depthwise_bn_1/batchnorm/sub", "op": "Const", "attr": {"value": {"tensor": {"dtype": "DT_FLOAT", "tensorShape": {"dim": [{"size": "120"}]}}}, "dtype": {"type": "DT_FLOAT"}}}, {"name": "StatefulPartitionedCall/functional_24_1/MobileNetV3Small_1/activation_152_1/Const", "op": "Const", "attr": {"value": {"tensor": {"dtype": "DT_FLOAT", "tensorShape": {}}}, "dtype": {"type": "DT_FLOAT"}}}, {"name": "StatefulPartitionedCall/functional_24_1/MobileNetV3Small_1/expanded_conv_6_project_1/convolution/merged_input", "op": "Const", "attr": {"value": {"tensor": {"dtype": "DT_FLOAT", "tensorShape": {"dim": [{"size": "1"}, {"size": "1"}, {"size": "120"}, {"size": "48"}]}}}, "dtype": {"type": "DT_FLOAT"}}}, {"name": "StatefulPartitionedCall/functional_24_1/MobileNetV3Small_1/expanded_conv_6_project_bn_1/batchnorm/sub", "op": "Const", "attr": {"value": {"tensor": {"dtype": "DT_FLOAT", "tensorShape": {"dim": [{"size": "48"}]}}}, "dtype": {"type": "DT_FLOAT"}}}, {"name": "StatefulPartitionedCall/functional_24_1/MobileNetV3Small_1/expanded_conv_7_expand_1/convolution/merged_input", "op": "Const", "attr": {"value": {"tensor": {"dtype": "DT_FLOAT", "tensorShape": {"dim": [{"size": "1"}, {"size": "1"}, {"size": "48"}, {"size": "144"}]}}}, "dtype": {"type": "DT_FLOAT"}}}, {"name": "StatefulPartitionedCall/functional_24_1/MobileNetV3Small_1/expanded_conv_7_expand_bn_1/batchnorm/sub", "op": "Const", "attr": {"value": {"tensor": {"dtype": "DT_FLOAT", "tensorShape": {"dim": [{"size": "144"}]}}}, "dtype": {"type": "DT_FLOAT"}}}, {"name": "StatefulPartitionedCall/functional_24_1/MobileNetV3Small_1/activation_153_1/Const", "op": "Const", "attr": {"value": {"tensor": {"dtype": "DT_FLOAT", "tensorShape": {}}}, "dtype": {"type": "DT_FLOAT"}}}, {"name": "StatefulPartitionedCall/functional_24_1/MobileNetV3Small_1/expanded_conv_7_depthwise_1/depthwise/ReadVariableOp", "op": "Const", "attr": {"value": {"tensor": {"dtype": "DT_FLOAT", "tensorShape": {"dim": [{"size": "5"}, {"size": "5"}, {"size": "144"}, {"size": "1"}]}}}, "dtype": {"type": "DT_FLOAT"}}}, {"name": "StatefulPartitionedCall/functional_24_1/MobileNetV3Small_1/expanded_conv_7_depthwise_bn_1/batchnorm/mul", "op": "Const", "attr": {"value": {"tensor": {"dtype": "DT_FLOAT", "tensorShape": {"dim": [{"size": "144"}]}}}, "dtype": {"type": "DT_FLOAT"}}}, {"name": "StatefulPartitionedCall/functional_24_1/MobileNetV3Small_1/expanded_conv_7_depthwise_bn_1/batchnorm/sub", "op": "Const", "attr": {"value": {"tensor": {"dtype": "DT_FLOAT", "tensorShape": {"dim": [{"size": "144"}]}}}, "dtype": {"type": "DT_FLOAT"}}}, {"name": "StatefulPartitionedCall/functional_24_1/MobileNetV3Small_1/activation_154_1/Const", "op": "Const", "attr": {"value": {"tensor": {"dtype": "DT_FLOAT", "tensorShape": {}}}, "dtype": {"type": "DT_FLOAT"}}}, {"name": "StatefulPartitionedCall/functional_24_1/MobileNetV3Small_1/expanded_conv_7_project_1/convolution/merged_input", "op": "Const", "attr": {"value": {"tensor": {"dtype": "DT_FLOAT", "tensorShape": {"dim": [{"size": "1"}, {"size": "1"}, {"size": "144"}, {"size": "48"}]}}}, "dtype": {"type": "DT_FLOAT"}}}, {"name": "StatefulPartitionedCall/functional_24_1/MobileNetV3Small_1/expanded_conv_8_expand_1/convolution/merged_input", "op": "Const", "attr": {"value": {"tensor": {"dtype": "DT_FLOAT", "tensorShape": {"dim": [{"size": "1"}, {"size": "1"}, {"size": "48"}, {"size": "288"}]}}}, "dtype": {"type": "DT_FLOAT"}}}, {"name": "StatefulPartitionedCall/functional_24_1/MobileNetV3Small_1/expanded_conv_8_expand_bn_1/batchnorm/sub", "op": "Const", "attr": {"value": {"tensor": {"dtype": "DT_FLOAT", "tensorShape": {"dim": [{"size": "288"}]}}}, "dtype": {"type": "DT_FLOAT"}}}, {"name": "StatefulPartitionedCall/functional_24_1/MobileNetV3Small_1/activation_155_1/Const", "op": "Const", "attr": {"value": {"tensor": {"dtype": "DT_FLOAT", "tensorShape": {}}}, "dtype": {"type": "DT_FLOAT"}}}, {"name": "StatefulPartitionedCall/functional_24_1/MobileNetV3Small_1/expanded_conv_8_depthwise_pad_1/Const", "op": "Const", "attr": {"value": {"tensor": {"dtype": "DT_INT32", "tensorShape": {"dim": [{"size": "4"}, {"size": "2"}]}}}, "dtype": {"type": "DT_INT32"}}}, {"name": "StatefulPartitionedCall/functional_24_1/MobileNetV3Small_1/expanded_conv_8_depthwise_1/depthwise/ReadVariableOp", "op": "Const", "attr": {"value": {"tensor": {"dtype": "DT_FLOAT", "tensorShape": {"dim": [{"size": "5"}, {"size": "5"}, {"size": "288"}, {"size": "1"}]}}}, "dtype": {"type": "DT_FLOAT"}}}, {"name": "StatefulPartitionedCall/functional_24_1/MobileNetV3Small_1/expanded_conv_8_depthwise_bn_1/batchnorm/mul", "op": "Const", "attr": {"value": {"tensor": {"dtype": "DT_FLOAT", "tensorShape": {"dim": [{"size": "288"}]}}}, "dtype": {"type": "DT_FLOAT"}}}, {"name": "StatefulPartitionedCall/functional_24_1/MobileNetV3Small_1/expanded_conv_8_depthwise_bn_1/batchnorm/sub", "op": "Const", "attr": {"value": {"tensor": {"dtype": "DT_FLOAT", "tensorShape": {"dim": [{"size": "288"}]}}}, "dtype": {"type": "DT_FLOAT"}}}, {"name": "StatefulPartitionedCall/functional_24_1/MobileNetV3Small_1/activation_156_1/Const", "op": "Const", "attr": {"value": {"tensor": {"dtype": "DT_FLOAT", "tensorShape": {}}}, "dtype": {"type": "DT_FLOAT"}}}, {"name": "StatefulPartitionedCall/functional_24_1/MobileNetV3Small_1/expanded_conv_8_project_1/convolution/merged_input", "op": "Const", "attr": {"value": {"tensor": {"dtype": "DT_FLOAT", "tensorShape": {"dim": [{"size": "1"}, {"size": "1"}, {"size": "288"}, {"size": "96"}]}}}, "dtype": {"type": "DT_FLOAT"}}}, {"name": "StatefulPartitionedCall/functional_24_1/MobileNetV3Small_1/expanded_conv_8_project_bn_1/batchnorm/sub", "op": "Const", "attr": {"value": {"tensor": {"dtype": "DT_FLOAT", "tensorShape": {"dim": [{"size": "96"}]}}}, "dtype": {"type": "DT_FLOAT"}}}, {"name": "StatefulPartitionedCall/functional_24_1/MobileNetV3Small_1/expanded_conv_9_expand_1/convolution/merged_input", "op": "Const", "attr": {"value": {"tensor": {"dtype": "DT_FLOAT", "tensorShape": {"dim": [{"size": "1"}, {"size": "1"}, {"size": "96"}, {"size": "576"}]}}}, "dtype": {"type": "DT_FLOAT"}}}, {"name": "StatefulPartitionedCall/functional_24_1/MobileNetV3Small_1/expanded_conv_9_expand_bn_1/batchnorm/sub", "op": "Const", "attr": {"value": {"tensor": {"dtype": "DT_FLOAT", "tensorShape": {"dim": [{"size": "576"}]}}}, "dtype": {"type": "DT_FLOAT"}}}, {"name": "StatefulPartitionedCall/functional_24_1/MobileNetV3Small_1/activation_157_1/Const", "op": "Const", "attr": {"value": {"tensor": {"dtype": "DT_FLOAT", "tensorShape": {}}}, "dtype": {"type": "DT_FLOAT"}}}, {"name": "StatefulPartitionedCall/functional_24_1/MobileNetV3Small_1/expanded_conv_9_depthwise_1/depthwise/ReadVariableOp", "op": "Const", "attr": {"value": {"tensor": {"dtype": "DT_FLOAT", "tensorShape": {"dim": [{"size": "5"}, {"size": "5"}, {"size": "576"}, {"size": "1"}]}}}, "dtype": {"type": "DT_FLOAT"}}}, {"name": "StatefulPartitionedCall/functional_24_1/MobileNetV3Small_1/expanded_conv_9_depthwise_bn_1/batchnorm/mul", "op": "Const", "attr": {"value": {"tensor": {"dtype": "DT_FLOAT", "tensorShape": {"dim": [{"size": "576"}]}}}, "dtype": {"type": "DT_FLOAT"}}}, {"name": "StatefulPartitionedCall/functional_24_1/MobileNetV3Small_1/expanded_conv_9_depthwise_bn_1/batchnorm/sub", "op": "Const", "attr": {"value": {"tensor": {"dtype": "DT_FLOAT", "tensorShape": {"dim": [{"size": "576"}]}}}, "dtype": {"type": "DT_FLOAT"}}}, {"name": "StatefulPartitionedCall/functional_24_1/MobileNetV3Small_1/activation_158_1/Const", "op": "Const", "attr": {"value": {"tensor": {"dtype": "DT_FLOAT", "tensorShape": {}}}, "dtype": {"type": "DT_FLOAT"}}}, {"name": "StatefulPartitionedCall/functional_24_1/MobileNetV3Small_1/expanded_conv_9_project_1/convolution/merged_input", "op": "Const", "attr": {"value": {"tensor": {"dtype": "DT_FLOAT", "tensorShape": {"dim": [{"size": "1"}, {"size": "1"}, {"size": "576"}, {"size": "96"}]}}}, "dtype": {"type": "DT_FLOAT"}}}, {"name": "StatefulPartitionedCall/functional_24_1/MobileNetV3Small_1/expanded_conv_10_expand_1/convolution/merged_input", "op": "Const", "attr": {"value": {"tensor": {"dtype": "DT_FLOAT", "tensorShape": {"dim": [{"size": "1"}, {"size": "1"}, {"size": "96"}, {"size": "576"}]}}}, "dtype": {"type": "DT_FLOAT"}}}, {"name": "StatefulPartitionedCall/functional_24_1/MobileNetV3Small_1/expanded_conv_10_expand_bn_1/batchnorm/sub", "op": "Const", "attr": {"value": {"tensor": {"dtype": "DT_FLOAT", "tensorShape": {"dim": [{"size": "576"}]}}}, "dtype": {"type": "DT_FLOAT"}}}, {"name": "StatefulPartitionedCall/functional_24_1/MobileNetV3Small_1/activation_159_1/Const", "op": "Const", "attr": {"value": {"tensor": {"dtype": "DT_FLOAT", "tensorShape": {}}}, "dtype": {"type": "DT_FLOAT"}}}, {"name": "StatefulPartitionedCall/functional_24_1/MobileNetV3Small_1/expanded_conv_10_depthwise_1/depthwise/ReadVariableOp", "op": "Const", "attr": {"value": {"tensor": {"dtype": "DT_FLOAT", "tensorShape": {"dim": [{"size": "5"}, {"size": "5"}, {"size": "576"}, {"size": "1"}]}}}, "dtype": {"type": "DT_FLOAT"}}}, {"name": "StatefulPartitionedCall/functional_24_1/MobileNetV3Small_1/expanded_conv_10_depthwise_bn_1/batchnorm/mul", "op": "Const", "attr": {"value": {"tensor": {"dtype": "DT_FLOAT", "tensorShape": {"dim": [{"size": "576"}]}}}, "dtype": {"type": "DT_FLOAT"}}}, {"name": "StatefulPartitionedCall/functional_24_1/MobileNetV3Small_1/expanded_conv_10_depthwise_bn_1/batchnorm/sub", "op": "Const", "attr": {"value": {"tensor": {"dtype": "DT_FLOAT", "tensorShape": {"dim": [{"size": "576"}]}}}, "dtype": {"type": "DT_FLOAT"}}}, {"name": "StatefulPartitionedCall/functional_24_1/MobileNetV3Small_1/activation_160_1/Const", "op": "Const", "attr": {"value": {"tensor": {"dtype": "DT_FLOAT", "tensorShape": {}}}, "dtype": {"type": "DT_FLOAT"}}}, {"name": "StatefulPartitionedCall/functional_24_1/MobileNetV3Small_1/expanded_conv_10_project_1/convolution/merged_input", "op": "Const", "attr": {"value": {"tensor": {"dtype": "DT_FLOAT", "tensorShape": {"dim": [{"size": "1"}, {"size": "1"}, {"size": "576"}, {"size": "96"}]}}}, "dtype": {"type": "DT_FLOAT"}}}, {"name": "StatefulPartitionedCall/functional_24_1/MobileNetV3Small_1/conv_1_2/convolution/merged_input", "op": "Const", "attr": {"value": {"tensor": {"dtype": "DT_FLOAT", "tensorShape": {"dim": [{"size": "1"}, {"size": "1"}, {"size": "96"}, {"size": "576"}]}}}, "dtype": {"type": "DT_FLOAT"}}}, {"name": "StatefulPartitionedCall/functional_24_1/MobileNetV3Small_1/conv_1_bn_1/batchnorm/sub", "op": "Const", "attr": {"value": {"tensor": {"dtype": "DT_FLOAT", "tensorShape": {"dim": [{"size": "576"}]}}}, "dtype": {"type": "DT_FLOAT"}}}, {"name": "StatefulPartitionedCall/functional_24_1/MobileNetV3Small_1/activation_161_1/Const", "op": "Const", "attr": {"value": {"tensor": {"dtype": "DT_FLOAT", "tensorShape": {}}}, "dtype": {"type": "DT_FLOAT"}}}, {"name": "StatefulPartitionedCall/functional_24_1/global_average_pooling2d_8_1/Mean/reduction_indices", "op": "Const", "attr": {"value": {"tensor": {"dtype": "DT_INT32", "tensorShape": {"dim": [{"size": "2"}]}}}, "dtype": {"type": "DT_INT32"}}}, {"name": "StatefulPartitionedCall/functional_24_1/dense_8_1/Cast/ReadVariableOp", "op": "Const", "attr": {"value": {"tensor": {"dtype": "DT_FLOAT", "tensorShape": {"dim": [{"size": "576"}, {"size": "1"}]}}}, "dtype": {"type": "DT_FLOAT"}}}, {"name": "StatefulPartitionedCall/functional_24_1/dense_8_1/Add/ReadVariableOp", "op": "Const", "attr": {"value": {"tensor": {"dtype": "DT_FLOAT", "tensorShape": {"dim": [{"size": "1"}]}}}, "dtype": {"type": "DT_FLOAT"}}}, {"name": "input_layer_21", "op": "Placeholder", "attr": {"shape": {"shape": {"dim": [{"size": "-1"}, {"size": "224"}, {"size": "224"}, {"size": "3"}]}}, "dtype": {"type": "DT_FLOAT"}}}, {"name": "StatefulPartitionedCall/functional_24_1/MobileNetV3Small_1/rescaling_8_1/mul", "op": "Mul", "input": ["input_layer_21", "StatefulPartitionedCall/functional_24_1/MobileNetV3Small_1/rescaling_8_1/Cast/x"], "attr": {"T": {"type": "DT_FLOAT"}}}, {"name": "StatefulPartitionedCall/functional_24_1/MobileNetV3Small_1/rescaling_8_1/add", "op": "AddV2", "input": ["StatefulPartitionedCall/functional_24_1/MobileNetV3Small_1/rescaling_8_1/mul", "StatefulPartitionedCall/functional_24_1/MobileNetV3Small_1/rescaling_8_1/Cast_1/x"], "attr": {"T": {"type": "DT_FLOAT"}}}, {"name": "StatefulPartitionedCall/functional_24_1/MobileNetV3Small_1/conv_bn_1/batchnorm/add_1", "op": "_FusedConv2D", "input": ["StatefulPartitionedCall/functional_24_1/MobileNetV3Small_1/rescaling_8_1/add", "StatefulPartitionedCall/functional_24_1/MobileNetV3Small_1/conv_1/convolution/merged_input", "StatefulPartitionedCall/functional_24_1/MobileNetV3Small_1/conv_bn_1/batchnorm/sub"], "device": "/device:CPU:0", "attr": {"num_host_args": {"i": "0"}, "data_format": {"s": "TkhXQw=="}, "filter_format": {"s": "SFdJTw=="}, "strides": {"list": {"i": ["1", "2", "2", "1"]}}, "num_args": {"i": "1"}, "fused_ops": {"list": {"s": ["Qmlhc0FkZA=="]}}, "TArgs": {"list": {"type": ["DT_FLOAT"]}}, "padding": {"s": "U0FNRQ=="}, "use_cudnn_on_gpu": {"b": true}, "leakyrelu_alpha": {"f": 0.2}, "epsilon": {"f": 0.0}, "T": {"type": "DT_FLOAT"}, "explicit_paddings": {"list": {}}, "dilations": {"list": {"i": ["1", "1", "1", "1"]}}}}, {"name": "StatefulPartitionedCall/functional_24_1/MobileNetV3Small_1/activation_144_1/truediv", "op": "Mul", "input": ["ConstantFolding/StatefulPartitionedCall/functional_24_1/MobileNetV3Small_1/activation_144_1/truediv_recip", "StatefulPartitionedCall/functional_24_1/MobileNetV3Small_1/conv_bn_1/batchnorm/add_1"], "attr": {"_grappler_ArithmeticOptimizer_MinimizeBroadcasts": {"b": true}, "T": {"type": "DT_FLOAT"}}}, {"name": "StatefulPartitionedCall/functional_24_1/MobileNetV3Small_1/activation_144_1/add", "op": "AddV2", "input": ["StatefulPartitionedCall/functional_24_1/MobileNetV3Small_1/conv_bn_1/batchnorm/add_1", "StatefulPartitionedCall/functional_24_1/MobileNetV3Small_1/activation_144_1/Const"], "attr": {"T": {"type": "DT_FLOAT"}}}, {"name": "StatefulPartitionedCall/functional_24_1/MobileNetV3Small_1/activation_144_1/Relu6", "op": "Relu6", "input": ["StatefulPartitionedCall/functional_24_1/MobileNetV3Small_1/activation_144_1/add"], "attr": {"T": {"type": "DT_FLOAT"}}}, {"name": "StatefulPartitionedCall/functional_24_1/MobileNetV3Small_1/activation_144_1/mul", "op": "Mul", "input": ["StatefulPartitionedCall/functional_24_1/MobileNetV3Small_1/activation_144_1/truediv", "StatefulPartitionedCall/functional_24_1/MobileNetV3Small_1/activation_144_1/Relu6"], "attr": {"_grappler_ArithmeticOptimizer_MinimizeBroadcasts": {"b": true}, "T": {"type": "DT_FLOAT"}}}, {"name": "StatefulPartitionedCall/functional_24_1/MobileNetV3Small_1/expanded_conv_depthwise_pad_1/Pad", "op": "Pad", "input": ["StatefulPartitionedCall/functional_24_1/MobileNetV3Small_1/activation_144_1/mul", "StatefulPartitionedCall/functional_24_1/MobileNetV3Small_1/expanded_conv_depthwise_pad_1/Const"], "attr": {"Tpaddings": {"type": "DT_INT32"}, "T": {"type": "DT_FLOAT"}}}, {"name": "StatefulPartitionedCall/functional_24_1/MobileNetV3Small_1/expanded_conv_depthwise_1/depthwise", "op": "DepthwiseConv2dNative", "input": ["StatefulPartitionedCall/functional_24_1/MobileNetV3Small_1/expanded_conv_depthwise_pad_1/Pad", "StatefulPartitionedCall/functional_24_1/MobileNetV3Small_1/expanded_conv_depthwise_1/depthwise/ReadVariableOp"], "attr": {"padding": {"s": "VkFMSUQ="}, "data_format": {"s": "TkhXQw=="}, "T": {"type": "DT_FLOAT"}, "explicit_paddings": {"list": {}}, "dilations": {"list": {"i": ["1", "1", "1", "1"]}}, "strides": {"list": {"i": ["1", "2", "2", "1"]}}}}, {"name": "StatefulPartitionedCall/functional_24_1/MobileNetV3Small_1/expanded_conv_depthwise_bn_1/batchnorm/mul_1", "op": "Mul", "input": ["StatefulPartitionedCall/functional_24_1/MobileNetV3Small_1/expanded_conv_depthwise_1/depthwise", "StatefulPartitionedCall/functional_24_1/MobileNetV3Small_1/expanded_conv_depthwise_bn_1/batchnorm/mul"], "attr": {"T": {"type": "DT_FLOAT"}}}, {"name": "StatefulPartitionedCall/functional_24_1/MobileNetV3Small_1/expanded_conv_depthwise_bn_1/batchnorm/add_1", "op": "AddV2", "input": ["StatefulPartitionedCall/functional_24_1/MobileNetV3Small_1/expanded_conv_depthwise_bn_1/batchnorm/mul_1", "StatefulPartitionedCall/functional_24_1/MobileNetV3Small_1/expanded_conv_depthwise_bn_1/batchnorm/sub"], "attr": {"T": {"type": "DT_FLOAT"}}}, {"name": "StatefulPartitionedCall/functional_24_1/MobileNetV3Small_1/re_lu_112_1/Relu", "op": "Relu", "input": ["StatefulPartitionedCall/functional_24_1/MobileNetV3Small_1/expanded_conv_depthwise_bn_1/batchnorm/add_1"], "attr": {"T": {"type": "DT_FLOAT"}}}, {"name": "StatefulPartitionedCall/functional_24_1/MobileNetV3Small_1/expanded_conv_squeeze_excite_avg_pool_1/Mean", "op": "Mean", "input": ["StatefulPartitionedCall/functional_24_1/MobileNetV3Small_1/re_lu_112_1/Relu", "StatefulPartitionedCall/functional_24_1/MobileNetV3Small_1/expanded_conv_squeeze_excite_avg_pool_1/Mean/reduction_indices"], "attr": {"T": {"type": "DT_FLOAT"}, "Tidx": {"type": "DT_INT32"}, "keep_dims": {"b": true}}}, {"name": "StatefulPartitionedCall/functional_24_1/MobileNetV3Small_1/expanded_conv_squeeze_excite_relu_1/Relu", "op": "_FusedConv2D", "input": ["StatefulPartitionedCall/functional_24_1/MobileNetV3Small_1/expanded_conv_squeeze_excite_avg_pool_1/Mean", "StatefulPartitionedCall/functional_24_1/MobileNetV3Small_1/expanded_conv_squeeze_excite_conv_1/convolution/ReadVariableOp", "StatefulPartitionedCall/functional_24_1/MobileNetV3Small_1/expanded_conv_squeeze_excite_conv_1/Squeeze"], "device": "/device:CPU:0", "attr": {"num_host_args": {"i": "0"}, "data_format": {"s": "TkhXQw=="}, "filter_format": {"s": "SFdJTw=="}, "strides": {"list": {"i": ["1", "1", "1", "1"]}}, "num_args": {"i": "1"}, "fused_ops": {"list": {"s": ["Qmlhc0FkZA==", "UmVsdQ=="]}}, "TArgs": {"list": {"type": ["DT_FLOAT"]}}, "padding": {"s": "U0FNRQ=="}, "use_cudnn_on_gpu": {"b": true}, "leakyrelu_alpha": {"f": 0.2}, "epsilon": {"f": 0.0}, "T": {"type": "DT_FLOAT"}, "explicit_paddings": {"list": {}}, "dilations": {"list": {"i": ["1", "1", "1", "1"]}}}}, {"name": "StatefulPartitionedCall/functional_24_1/MobileNetV3Small_1/expanded_conv_squeeze_excite_conv_1_2/BiasAdd", "op": "_FusedConv2D", "input": ["StatefulPartitionedCall/functional_24_1/MobileNetV3Small_1/expanded_conv_squeeze_excite_relu_1/Relu", "StatefulPartitionedCall/functional_24_1/MobileNetV3Small_1/expanded_conv_squeeze_excite_conv_1_2/convolution/ReadVariableOp", "StatefulPartitionedCall/functional_24_1/MobileNetV3Small_1/expanded_conv_squeeze_excite_conv_1_2/Squeeze"], "device": "/device:CPU:0", "attr": {"num_host_args": {"i": "0"}, "data_format": {"s": "TkhXQw=="}, "filter_format": {"s": "SFdJTw=="}, "strides": {"list": {"i": ["1", "1", "1", "1"]}}, "num_args": {"i": "1"}, "fused_ops": {"list": {"s": ["Qmlhc0FkZA=="]}}, "TArgs": {"list": {"type": ["DT_FLOAT"]}}, "padding": {"s": "U0FNRQ=="}, "use_cudnn_on_gpu": {"b": true}, "leakyrelu_alpha": {"f": 0.2}, "epsilon": {"f": 0.0}, "T": {"type": "DT_FLOAT"}, "explicit_paddings": {"list": {}}, "dilations": {"list": {"i": ["1", "1", "1", "1"]}}}}, {"name": "StatefulPartitionedCall/functional_24_1/MobileNetV3Small_1/Add", "op": "AddV2", "input": ["StatefulPartitionedCall/functional_24_1/MobileNetV3Small_1/expanded_conv_squeeze_excite_conv_1_2/BiasAdd", "StatefulPartitionedCall/functional_24_1/MobileNetV3Small_1/Const"], "attr": {"T": {"type": "DT_FLOAT"}}}, {"name": "StatefulPartitionedCall/functional_24_1/MobileNetV3Small_1/re_lu_113_1/Relu6", "op": "Relu6", "input": ["StatefulPartitionedCall/functional_24_1/MobileNetV3Small_1/Add"], "attr": {"T": {"type": "DT_FLOAT"}}}, {"name": "StatefulPartitionedCall/functional_24_1/MobileNetV3Small_1/Mul", "op": "Mul", "input": ["StatefulPartitionedCall/functional_24_1/MobileNetV3Small_1/Const_1", "StatefulPartitionedCall/functional_24_1/MobileNetV3Small_1/re_lu_113_1/Relu6"], "attr": {"_grappler_ArithmeticOptimizer_MinimizeBroadcasts": {"b": true}, "T": {"type": "DT_FLOAT"}}}, {"name": "StatefulPartitionedCall/functional_24_1/MobileNetV3Small_1/expanded_conv_squeeze_excite_mul_1/Mul", "op": "Mul", "input": ["StatefulPartitionedCall/functional_24_1/MobileNetV3Small_1/Mul", "StatefulPartitionedCall/functional_24_1/MobileNetV3Small_1/re_lu_112_1/Relu"], "attr": {"_grappler_ArithmeticOptimizer_MinimizeBroadcasts": {"b": true}, "T": {"type": "DT_FLOAT"}}}, {"name": "StatefulPartitionedCall/functional_24_1/MobileNetV3Small_1/expanded_conv_project_bn_1/batchnorm/add_1", "op": "_FusedConv2D", "input": ["StatefulPartitionedCall/functional_24_1/MobileNetV3Small_1/expanded_conv_squeeze_excite_mul_1/Mul", "StatefulPartitionedCall/functional_24_1/MobileNetV3Small_1/expanded_conv_project_1/convolution/merged_input", "StatefulPartitionedCall/functional_24_1/MobileNetV3Small_1/expanded_conv_project_bn_1/batchnorm/sub"], "device": "/device:CPU:0", "attr": {"num_host_args": {"i": "0"}, "data_format": {"s": "TkhXQw=="}, "filter_format": {"s": "SFdJTw=="}, "strides": {"list": {"i": ["1", "1", "1", "1"]}}, "num_args": {"i": "1"}, "fused_ops": {"list": {"s": ["Qmlhc0FkZA=="]}}, "TArgs": {"list": {"type": ["DT_FLOAT"]}}, "padding": {"s": "U0FNRQ=="}, "use_cudnn_on_gpu": {"b": true}, "leakyrelu_alpha": {"f": 0.2}, "epsilon": {"f": 0.0}, "T": {"type": "DT_FLOAT"}, "explicit_paddings": {"list": {}}, "dilations": {"list": {"i": ["1", "1", "1", "1"]}}}}, {"name": "StatefulPartitionedCall/functional_24_1/MobileNetV3Small_1/re_lu_114_1/Relu", "op": "_FusedConv2D", "input": ["StatefulPartitionedCall/functional_24_1/MobileNetV3Small_1/expanded_conv_project_bn_1/batchnorm/add_1", "StatefulPartitionedCall/functional_24_1/MobileNetV3Small_1/expanded_conv_1_expand_1/convolution/merged_input", "StatefulPartitionedCall/functional_24_1/MobileNetV3Small_1/expanded_conv_1_expand_bn_1/batchnorm/sub"], "device": "/device:CPU:0", "attr": {"num_host_args": {"i": "0"}, "data_format": {"s": "TkhXQw=="}, "filter_format": {"s": "SFdJTw=="}, "strides": {"list": {"i": ["1", "1", "1", "1"]}}, "num_args": {"i": "1"}, "fused_ops": {"list": {"s": ["Qmlhc0FkZA==", "UmVsdQ=="]}}, "TArgs": {"list": {"type": ["DT_FLOAT"]}}, "padding": {"s": "U0FNRQ=="}, "use_cudnn_on_gpu": {"b": true}, "leakyrelu_alpha": {"f": 0.2}, "epsilon": {"f": 0.0}, "T": {"type": "DT_FLOAT"}, "explicit_paddings": {"list": {}}, "dilations": {"list": {"i": ["1", "1", "1", "1"]}}}}, {"name": "StatefulPartitionedCall/functional_24_1/MobileNetV3Small_1/expanded_conv_1_depthwise_pad_1/Pad", "op": "Pad", "input": ["StatefulPartitionedCall/functional_24_1/MobileNetV3Small_1/re_lu_114_1/Relu", "StatefulPartitionedCall/functional_24_1/MobileNetV3Small_1/expanded_conv_1_depthwise_pad_1/Const"], "attr": {"Tpaddings": {"type": "DT_INT32"}, "T": {"type": "DT_FLOAT"}}}, {"name": "StatefulPartitionedCall/functional_24_1/MobileNetV3Small_1/expanded_conv_1_depthwise_1/depthwise", "op": "DepthwiseConv2dNative", "input": ["StatefulPartitionedCall/functional_24_1/MobileNetV3Small_1/expanded_conv_1_depthwise_pad_1/Pad", "StatefulPartitionedCall/functional_24_1/MobileNetV3Small_1/expanded_conv_1_depthwise_1/depthwise/ReadVariableOp"], "attr": {"padding": {"s": "VkFMSUQ="}, "data_format": {"s": "TkhXQw=="}, "T": {"type": "DT_FLOAT"}, "explicit_paddings": {"list": {}}, "dilations": {"list": {"i": ["1", "1", "1", "1"]}}, "strides": {"list": {"i": ["1", "2", "2", "1"]}}}}, {"name": "StatefulPartitionedCall/functional_24_1/MobileNetV3Small_1/expanded_conv_1_depthwise_bn_1/batchnorm/mul_1", "op": "Mul", "input": ["StatefulPartitionedCall/functional_24_1/MobileNetV3Small_1/expanded_conv_1_depthwise_1/depthwise", "StatefulPartitionedCall/functional_24_1/MobileNetV3Small_1/expanded_conv_1_depthwise_bn_1/batchnorm/mul"], "attr": {"T": {"type": "DT_FLOAT"}}}, {"name": "StatefulPartitionedCall/functional_24_1/MobileNetV3Small_1/expanded_conv_1_depthwise_bn_1/batchnorm/add_1", "op": "AddV2", "input": ["StatefulPartitionedCall/functional_24_1/MobileNetV3Small_1/expanded_conv_1_depthwise_bn_1/batchnorm/mul_1", "StatefulPartitionedCall/functional_24_1/MobileNetV3Small_1/expanded_conv_1_depthwise_bn_1/batchnorm/sub"], "attr": {"T": {"type": "DT_FLOAT"}}}, {"name": "StatefulPartitionedCall/functional_24_1/MobileNetV3Small_1/re_lu_115_1/Relu", "op": "Relu", "input": ["StatefulPartitionedCall/functional_24_1/MobileNetV3Small_1/expanded_conv_1_depthwise_bn_1/batchnorm/add_1"], "attr": {"T": {"type": "DT_FLOAT"}}}, {"name": "StatefulPartitionedCall/functional_24_1/MobileNetV3Small_1/expanded_conv_1_project_bn_1/batchnorm/add_1", "op": "_FusedConv2D", "input": ["StatefulPartitionedCall/functional_24_1/MobileNetV3Small_1/re_lu_115_1/Relu", "StatefulPartitionedCall/functional_24_1/MobileNetV3Small_1/expanded_conv_1_project_1/convolution/merged_input", "StatefulPartitionedCall/functional_24_1/MobileNetV3Small_1/expanded_conv_1_project_bn_1/batchnorm/sub"], "device": "/device:CPU:0", "attr": {"num_host_args": {"i": "0"}, "data_format": {"s": "TkhXQw=="}, "filter_format": {"s": "SFdJTw=="}, "fused_ops": {"list": {"s": ["Qmlhc0FkZA=="]}}, "num_args": {"i": "1"}, "strides": {"list": {"i": ["1", "1", "1", "1"]}}, "TArgs": {"list": {"type": ["DT_FLOAT"]}}, "padding": {"s": "U0FNRQ=="}, "use_cudnn_on_gpu": {"b": true}, "leakyrelu_alpha": {"f": 0.2}, "epsilon": {"f": 0.0}, "T": {"type": "DT_FLOAT"}, "explicit_paddings": {"list": {}}, "dilations": {"list": {"i": ["1", "1", "1", "1"]}}}}, {"name": "StatefulPartitionedCall/functional_24_1/MobileNetV3Small_1/re_lu_116_1/Relu", "op": "_FusedConv2D", "input": ["StatefulPartitionedCall/functional_24_1/MobileNetV3Small_1/expanded_conv_1_project_bn_1/batchnorm/add_1", "StatefulPartitionedCall/functional_24_1/MobileNetV3Small_1/expanded_conv_2_expand_1/convolution/merged_input", "StatefulPartitionedCall/functional_24_1/MobileNetV3Small_1/expanded_conv_2_expand_bn_1/batchnorm/sub"], "device": "/device:CPU:0", "attr": {"num_host_args": {"i": "0"}, "data_format": {"s": "TkhXQw=="}, "filter_format": {"s": "SFdJTw=="}, "strides": {"list": {"i": ["1", "1", "1", "1"]}}, "num_args": {"i": "1"}, "fused_ops": {"list": {"s": ["Qmlhc0FkZA==", "UmVsdQ=="]}}, "TArgs": {"list": {"type": ["DT_FLOAT"]}}, "padding": {"s": "U0FNRQ=="}, "use_cudnn_on_gpu": {"b": true}, "leakyrelu_alpha": {"f": 0.2}, "epsilon": {"f": 0.0}, "T": {"type": "DT_FLOAT"}, "explicit_paddings": {"list": {}}, "dilations": {"list": {"i": ["1", "1", "1", "1"]}}}}, {"name": "StatefulPartitionedCall/functional_24_1/MobileNetV3Small_1/expanded_conv_2_depthwise_1/depthwise", "op": "DepthwiseConv2dNative", "input": ["StatefulPartitionedCall/functional_24_1/MobileNetV3Small_1/re_lu_116_1/Relu", "StatefulPartitionedCall/functional_24_1/MobileNetV3Small_1/expanded_conv_2_depthwise_1/depthwise/ReadVariableOp"], "attr": {"padding": {"s": "U0FNRQ=="}, "data_format": {"s": "TkhXQw=="}, "T": {"type": "DT_FLOAT"}, "explicit_paddings": {"list": {}}, "dilations": {"list": {"i": ["1", "1", "1", "1"]}}, "strides": {"list": {"i": ["1", "1", "1", "1"]}}}}, {"name": "StatefulPartitionedCall/functional_24_1/MobileNetV3Small_1/expanded_conv_2_depthwise_bn_1/batchnorm/mul_1", "op": "Mul", "input": ["StatefulPartitionedCall/functional_24_1/MobileNetV3Small_1/expanded_conv_2_depthwise_1/depthwise", "StatefulPartitionedCall/functional_24_1/MobileNetV3Small_1/expanded_conv_2_depthwise_bn_1/batchnorm/mul"], "attr": {"T": {"type": "DT_FLOAT"}}}, {"name": "StatefulPartitionedCall/functional_24_1/MobileNetV3Small_1/expanded_conv_2_depthwise_bn_1/batchnorm/add_1", "op": "AddV2", "input": ["StatefulPartitionedCall/functional_24_1/MobileNetV3Small_1/expanded_conv_2_depthwise_bn_1/batchnorm/mul_1", "StatefulPartitionedCall/functional_24_1/MobileNetV3Small_1/expanded_conv_2_depthwise_bn_1/batchnorm/sub"], "attr": {"T": {"type": "DT_FLOAT"}}}, {"name": "StatefulPartitionedCall/functional_24_1/MobileNetV3Small_1/re_lu_117_1/Relu", "op": "Relu", "input": ["StatefulPartitionedCall/functional_24_1/MobileNetV3Small_1/expanded_conv_2_depthwise_bn_1/batchnorm/add_1"], "attr": {"T": {"type": "DT_FLOAT"}}}, {"name": "StatefulPartitionedCall/functional_24_1/MobileNetV3Small_1/expanded_conv_2_project_bn_1/batchnorm/mul_1", "op": "Conv2D", "input": ["StatefulPartitionedCall/functional_24_1/MobileNetV3Small_1/re_lu_117_1/Relu", "StatefulPartitionedCall/functional_24_1/MobileNetV3Small_1/expanded_conv_2_project_1/convolution/merged_input"], "device": "/device:CPU:0", "attr": {"padding": {"s": "U0FNRQ=="}, "data_format": {"s": "TkhXQw=="}, "strides": {"list": {"i": ["1", "1", "1", "1"]}}, "use_cudnn_on_gpu": {"b": true}, "T": {"type": "DT_FLOAT"}, "explicit_paddings": {"list": {}}, "dilations": {"list": {"i": ["1", "1", "1", "1"]}}}}, {"name": "StatefulPartitionedCall/functional_24_1/MobileNetV3Small_1/expanded_conv_2_add_1/ArithmeticOptimizer/AddOpsRewrite_Leaf_1_Add", "op": "AddN", "input": ["StatefulPartitionedCall/functional_24_1/MobileNetV3Small_1/expanded_conv_1_project_bn_1/batchnorm/add_1", "StatefulPartitionedCall/functional_24_1/MobileNetV3Small_1/expanded_conv_2_project_bn_1/batchnorm/mul_1"], "attr": {"N": {"i": "2"}, "T": {"type": "DT_FLOAT"}, "_grappler_ArithmeticOptimizer_AddOpsRewriteStage": {"b": true}}}, {"name": "StatefulPartitionedCall/functional_24_1/MobileNetV3Small_1/expanded_conv_2_add_1/ArithmeticOptimizer/AddOpsRewrite_Add", "op": "AddV2", "input": ["StatefulPartitionedCall/functional_24_1/MobileNetV3Small_1/expanded_conv_2_project_bn_1/batchnorm/sub", "StatefulPartitionedCall/functional_24_1/MobileNetV3Small_1/expanded_conv_2_add_1/ArithmeticOptimizer/AddOpsRewrite_Leaf_1_Add"], "attr": {"T": {"type": "DT_FLOAT"}, "_grappler_ArithmeticOptimizer_AddOpsRewriteStage": {"b": true}}}, {"name": "StatefulPartitionedCall/functional_24_1/MobileNetV3Small_1/expanded_conv_3_expand_bn_1/batchnorm/add_1", "op": "_FusedConv2D", "input": ["StatefulPartitionedCall/functional_24_1/MobileNetV3Small_1/expanded_conv_2_add_1/ArithmeticOptimizer/AddOpsRewrite_Add", "StatefulPartitionedCall/functional_24_1/MobileNetV3Small_1/expanded_conv_3_expand_1/convolution/merged_input", "StatefulPartitionedCall/functional_24_1/MobileNetV3Small_1/expanded_conv_3_expand_bn_1/batchnorm/sub"], "device": "/device:CPU:0", "attr": {"num_host_args": {"i": "0"}, "data_format": {"s": "TkhXQw=="}, "filter_format": {"s": "SFdJTw=="}, "strides": {"list": {"i": ["1", "1", "1", "1"]}}, "num_args": {"i": "1"}, "fused_ops": {"list": {"s": ["Qmlhc0FkZA=="]}}, "TArgs": {"list": {"type": ["DT_FLOAT"]}}, "padding": {"s": "U0FNRQ=="}, "use_cudnn_on_gpu": {"b": true}, "leakyrelu_alpha": {"f": 0.2}, "epsilon": {"f": 0.0}, "T": {"type": "DT_FLOAT"}, "explicit_paddings": {"list": {}}, "dilations": {"list": {"i": ["1", "1", "1", "1"]}}}}, {"name": "StatefulPartitionedCall/functional_24_1/MobileNetV3Small_1/activation_145_1/truediv", "op": "Mul", "input": ["ConstantFolding/StatefulPartitionedCall/functional_24_1/MobileNetV3Small_1/activation_145_1/truediv_recip", "StatefulPartitionedCall/functional_24_1/MobileNetV3Small_1/expanded_conv_3_expand_bn_1/batchnorm/add_1"], "attr": {"_grappler_ArithmeticOptimizer_MinimizeBroadcasts": {"b": true}, "T": {"type": "DT_FLOAT"}}}, {"name": "StatefulPartitionedCall/functional_24_1/MobileNetV3Small_1/activation_145_1/add", "op": "AddV2", "input": ["StatefulPartitionedCall/functional_24_1/MobileNetV3Small_1/expanded_conv_3_expand_bn_1/batchnorm/add_1", "StatefulPartitionedCall/functional_24_1/MobileNetV3Small_1/activation_145_1/Const"], "attr": {"T": {"type": "DT_FLOAT"}}}, {"name": "StatefulPartitionedCall/functional_24_1/MobileNetV3Small_1/activation_145_1/Relu6", "op": "Relu6", "input": ["StatefulPartitionedCall/functional_24_1/MobileNetV3Small_1/activation_145_1/add"], "attr": {"T": {"type": "DT_FLOAT"}}}, {"name": "StatefulPartitionedCall/functional_24_1/MobileNetV3Small_1/activation_145_1/mul", "op": "Mul", "input": ["StatefulPartitionedCall/functional_24_1/MobileNetV3Small_1/activation_145_1/truediv", "StatefulPartitionedCall/functional_24_1/MobileNetV3Small_1/activation_145_1/Relu6"], "attr": {"_grappler_ArithmeticOptimizer_MinimizeBroadcasts": {"b": true}, "T": {"type": "DT_FLOAT"}}}, {"name": "StatefulPartitionedCall/functional_24_1/MobileNetV3Small_1/expanded_conv_3_depthwise_pad_1/Pad", "op": "Pad", "input": ["StatefulPartitionedCall/functional_24_1/MobileNetV3Small_1/activation_145_1/mul", "StatefulPartitionedCall/functional_24_1/MobileNetV3Small_1/expanded_conv_3_depthwise_pad_1/Const"], "attr": {"Tpaddings": {"type": "DT_INT32"}, "T": {"type": "DT_FLOAT"}}}, {"name": "StatefulPartitionedCall/functional_24_1/MobileNetV3Small_1/expanded_conv_3_depthwise_1/depthwise", "op": "DepthwiseConv2dNative", "input": ["StatefulPartitionedCall/functional_24_1/MobileNetV3Small_1/expanded_conv_3_depthwise_pad_1/Pad", "StatefulPartitionedCall/functional_24_1/MobileNetV3Small_1/expanded_conv_3_depthwise_1/depthwise/ReadVariableOp"], "attr": {"padding": {"s": "VkFMSUQ="}, "data_format": {"s": "TkhXQw=="}, "T": {"type": "DT_FLOAT"}, "explicit_paddings": {"list": {}}, "dilations": {"list": {"i": ["1", "1", "1", "1"]}}, "strides": {"list": {"i": ["1", "2", "2", "1"]}}}}, {"name": "StatefulPartitionedCall/functional_24_1/MobileNetV3Small_1/expanded_conv_3_depthwise_bn_1/batchnorm/mul_1", "op": "Mul", "input": ["StatefulPartitionedCall/functional_24_1/MobileNetV3Small_1/expanded_conv_3_depthwise_1/depthwise", "StatefulPartitionedCall/functional_24_1/MobileNetV3Small_1/expanded_conv_3_depthwise_bn_1/batchnorm/mul"], "attr": {"T": {"type": "DT_FLOAT"}}}, {"name": "StatefulPartitionedCall/functional_24_1/MobileNetV3Small_1/expanded_conv_3_depthwise_bn_1/batchnorm/add_1", "op": "AddV2", "input": ["StatefulPartitionedCall/functional_24_1/MobileNetV3Small_1/expanded_conv_3_depthwise_bn_1/batchnorm/mul_1", "StatefulPartitionedCall/functional_24_1/MobileNetV3Small_1/expanded_conv_3_depthwise_bn_1/batchnorm/sub"], "attr": {"T": {"type": "DT_FLOAT"}}}, {"name": "StatefulPartitionedCall/functional_24_1/MobileNetV3Small_1/activation_146_1/truediv", "op": "Mul", "input": ["ConstantFolding/StatefulPartitionedCall/functional_24_1/MobileNetV3Small_1/activation_146_1/truediv_recip", "StatefulPartitionedCall/functional_24_1/MobileNetV3Small_1/expanded_conv_3_depthwise_bn_1/batchnorm/add_1"], "attr": {"_grappler_ArithmeticOptimizer_MinimizeBroadcasts": {"b": true}, "T": {"type": "DT_FLOAT"}}}, {"name": "StatefulPartitionedCall/functional_24_1/MobileNetV3Small_1/activation_146_1/add", "op": "AddV2", "input": ["StatefulPartitionedCall/functional_24_1/MobileNetV3Small_1/expanded_conv_3_depthwise_bn_1/batchnorm/add_1", "StatefulPartitionedCall/functional_24_1/MobileNetV3Small_1/activation_146_1/Const"], "attr": {"T": {"type": "DT_FLOAT"}}}, {"name": "StatefulPartitionedCall/functional_24_1/MobileNetV3Small_1/activation_146_1/Relu6", "op": "Relu6", "input": ["StatefulPartitionedCall/functional_24_1/MobileNetV3Small_1/activation_146_1/add"], "attr": {"T": {"type": "DT_FLOAT"}}}, {"name": "StatefulPartitionedCall/functional_24_1/MobileNetV3Small_1/activation_146_1/mul", "op": "Mul", "input": ["StatefulPartitionedCall/functional_24_1/MobileNetV3Small_1/activation_146_1/truediv", "StatefulPartitionedCall/functional_24_1/MobileNetV3Small_1/activation_146_1/Relu6"], "attr": {"_grappler_ArithmeticOptimizer_MinimizeBroadcasts": {"b": true}, "T": {"type": "DT_FLOAT"}}}, {"name": "StatefulPartitionedCall/functional_24_1/MobileNetV3Small_1/expanded_conv_3_squeeze_excite_avg_pool_1/Mean", "op": "Mean", "input": ["StatefulPartitionedCall/functional_24_1/MobileNetV3Small_1/activation_146_1/mul", "StatefulPartitionedCall/functional_24_1/MobileNetV3Small_1/expanded_conv_3_squeeze_excite_avg_pool_1/Mean/reduction_indices"], "attr": {"T": {"type": "DT_FLOAT"}, "Tidx": {"type": "DT_INT32"}, "keep_dims": {"b": true}}}, {"name": "StatefulPartitionedCall/functional_24_1/MobileNetV3Small_1/expanded_conv_3_squeeze_excite_relu_1/Relu", "op": "_FusedConv2D", "input": ["StatefulPartitionedCall/functional_24_1/MobileNetV3Small_1/expanded_conv_3_squeeze_excite_avg_pool_1/Mean", "StatefulPartitionedCall/functional_24_1/MobileNetV3Small_1/expanded_conv_3_squeeze_excite_conv_1/convolution/ReadVariableOp", "StatefulPartitionedCall/functional_24_1/MobileNetV3Small_1/expanded_conv_3_squeeze_excite_conv_1/Squeeze"], "device": "/device:CPU:0", "attr": {"num_host_args": {"i": "0"}, "data_format": {"s": "TkhXQw=="}, "filter_format": {"s": "SFdJTw=="}, "fused_ops": {"list": {"s": ["Qmlhc0FkZA==", "UmVsdQ=="]}}, "num_args": {"i": "1"}, "strides": {"list": {"i": ["1", "1", "1", "1"]}}, "TArgs": {"list": {"type": ["DT_FLOAT"]}}, "padding": {"s": "U0FNRQ=="}, "use_cudnn_on_gpu": {"b": true}, "leakyrelu_alpha": {"f": 0.2}, "epsilon": {"f": 0.0}, "T": {"type": "DT_FLOAT"}, "explicit_paddings": {"list": {}}, "dilations": {"list": {"i": ["1", "1", "1", "1"]}}}}, {"name": "StatefulPartitionedCall/functional_24_1/MobileNetV3Small_1/expanded_conv_3_squeeze_excite_conv_1_2/BiasAdd", "op": "_FusedConv2D", "input": ["StatefulPartitionedCall/functional_24_1/MobileNetV3Small_1/expanded_conv_3_squeeze_excite_relu_1/Relu", "StatefulPartitionedCall/functional_24_1/MobileNetV3Small_1/expanded_conv_3_squeeze_excite_conv_1_2/convolution/ReadVariableOp", "StatefulPartitionedCall/functional_24_1/MobileNetV3Small_1/expanded_conv_3_squeeze_excite_conv_1_2/Squeeze"], "device": "/device:CPU:0", "attr": {"num_host_args": {"i": "0"}, "data_format": {"s": "TkhXQw=="}, "filter_format": {"s": "SFdJTw=="}, "strides": {"list": {"i": ["1", "1", "1", "1"]}}, "num_args": {"i": "1"}, "fused_ops": {"list": {"s": ["Qmlhc0FkZA=="]}}, "TArgs": {"list": {"type": ["DT_FLOAT"]}}, "padding": {"s": "U0FNRQ=="}, "use_cudnn_on_gpu": {"b": true}, "leakyrelu_alpha": {"f": 0.2}, "epsilon": {"f": 0.0}, "T": {"type": "DT_FLOAT"}, "explicit_paddings": {"list": {}}, "dilations": {"list": {"i": ["1", "1", "1", "1"]}}}}, {"name": "StatefulPartitionedCall/functional_24_1/MobileNetV3Small_1/Add_1", "op": "AddV2", "input": ["StatefulPartitionedCall/functional_24_1/MobileNetV3Small_1/expanded_conv_3_squeeze_excite_conv_1_2/BiasAdd", "StatefulPartitionedCall/functional_24_1/MobileNetV3Small_1/Const_2"], "attr": {"T": {"type": "DT_FLOAT"}}}, {"name": "StatefulPartitionedCall/functional_24_1/MobileNetV3Small_1/re_lu_118_1/Relu6", "op": "Relu6", "input": ["StatefulPartitionedCall/functional_24_1/MobileNetV3Small_1/Add_1"], "attr": {"T": {"type": "DT_FLOAT"}}}, {"name": "StatefulPartitionedCall/functional_24_1/MobileNetV3Small_1/Mul_1", "op": "Mul", "input": ["StatefulPartitionedCall/functional_24_1/MobileNetV3Small_1/Const_3", "StatefulPartitionedCall/functional_24_1/MobileNetV3Small_1/re_lu_118_1/Relu6"], "attr": {"_grappler_ArithmeticOptimizer_MinimizeBroadcasts": {"b": true}, "T": {"type": "DT_FLOAT"}}}, {"name": "StatefulPartitionedCall/functional_24_1/MobileNetV3Small_1/expanded_conv_3_squeeze_excite_mul_1/Mul", "op": "Mul", "input": ["StatefulPartitionedCall/functional_24_1/MobileNetV3Small_1/Mul_1", "StatefulPartitionedCall/functional_24_1/MobileNetV3Small_1/activation_146_1/mul"], "attr": {"_grappler_ArithmeticOptimizer_MinimizeBroadcasts": {"b": true}, "T": {"type": "DT_FLOAT"}}}, {"name": "StatefulPartitionedCall/functional_24_1/MobileNetV3Small_1/expanded_conv_3_project_bn_1/batchnorm/add_1", "op": "_FusedConv2D", "input": ["StatefulPartitionedCall/functional_24_1/MobileNetV3Small_1/expanded_conv_3_squeeze_excite_mul_1/Mul", "StatefulPartitionedCall/functional_24_1/MobileNetV3Small_1/expanded_conv_3_project_1/convolution/merged_input", "StatefulPartitionedCall/functional_24_1/MobileNetV3Small_1/expanded_conv_3_project_bn_1/batchnorm/sub"], "device": "/device:CPU:0", "attr": {"num_host_args": {"i": "0"}, "data_format": {"s": "TkhXQw=="}, "filter_format": {"s": "SFdJTw=="}, "fused_ops": {"list": {"s": ["Qmlhc0FkZA=="]}}, "num_args": {"i": "1"}, "strides": {"list": {"i": ["1", "1", "1", "1"]}}, "TArgs": {"list": {"type": ["DT_FLOAT"]}}, "padding": {"s": "U0FNRQ=="}, "use_cudnn_on_gpu": {"b": true}, "leakyrelu_alpha": {"f": 0.2}, "epsilon": {"f": 0.0}, "T": {"type": "DT_FLOAT"}, "explicit_paddings": {"list": {}}, "dilations": {"list": {"i": ["1", "1", "1", "1"]}}}}, {"name": "StatefulPartitionedCall/functional_24_1/MobileNetV3Small_1/expanded_conv_4_expand_bn_1/batchnorm/add_1", "op": "_FusedConv2D", "input": ["StatefulPartitionedCall/functional_24_1/MobileNetV3Small_1/expanded_conv_3_project_bn_1/batchnorm/add_1", "StatefulPartitionedCall/functional_24_1/MobileNetV3Small_1/expanded_conv_4_expand_1/convolution/merged_input", "StatefulPartitionedCall/functional_24_1/MobileNetV3Small_1/expanded_conv_4_expand_bn_1/batchnorm/sub"], "device": "/device:CPU:0", "attr": {"num_host_args": {"i": "0"}, "data_format": {"s": "TkhXQw=="}, "filter_format": {"s": "SFdJTw=="}, "strides": {"list": {"i": ["1", "1", "1", "1"]}}, "num_args": {"i": "1"}, "fused_ops": {"list": {"s": ["Qmlhc0FkZA=="]}}, "TArgs": {"list": {"type": ["DT_FLOAT"]}}, "padding": {"s": "U0FNRQ=="}, "use_cudnn_on_gpu": {"b": true}, "leakyrelu_alpha": {"f": 0.2}, "epsilon": {"f": 0.0}, "T": {"type": "DT_FLOAT"}, "explicit_paddings": {"list": {}}, "dilations": {"list": {"i": ["1", "1", "1", "1"]}}}}, {"name": "StatefulPartitionedCall/functional_24_1/MobileNetV3Small_1/activation_147_1/truediv", "op": "Mul", "input": ["ConstantFolding/StatefulPartitionedCall/functional_24_1/MobileNetV3Small_1/activation_147_1/truediv_recip", "StatefulPartitionedCall/functional_24_1/MobileNetV3Small_1/expanded_conv_4_expand_bn_1/batchnorm/add_1"], "attr": {"_grappler_ArithmeticOptimizer_MinimizeBroadcasts": {"b": true}, "T": {"type": "DT_FLOAT"}}}, {"name": "StatefulPartitionedCall/functional_24_1/MobileNetV3Small_1/activation_147_1/add", "op": "AddV2", "input": ["StatefulPartitionedCall/functional_24_1/MobileNetV3Small_1/expanded_conv_4_expand_bn_1/batchnorm/add_1", "StatefulPartitionedCall/functional_24_1/MobileNetV3Small_1/activation_147_1/Const"], "attr": {"T": {"type": "DT_FLOAT"}}}, {"name": "StatefulPartitionedCall/functional_24_1/MobileNetV3Small_1/activation_147_1/Relu6", "op": "Relu6", "input": ["StatefulPartitionedCall/functional_24_1/MobileNetV3Small_1/activation_147_1/add"], "attr": {"T": {"type": "DT_FLOAT"}}}, {"name": "StatefulPartitionedCall/functional_24_1/MobileNetV3Small_1/activation_147_1/mul", "op": "Mul", "input": ["StatefulPartitionedCall/functional_24_1/MobileNetV3Small_1/activation_147_1/truediv", "StatefulPartitionedCall/functional_24_1/MobileNetV3Small_1/activation_147_1/Relu6"], "attr": {"_grappler_ArithmeticOptimizer_MinimizeBroadcasts": {"b": true}, "T": {"type": "DT_FLOAT"}}}, {"name": "StatefulPartitionedCall/functional_24_1/MobileNetV3Small_1/expanded_conv_4_depthwise_1/depthwise", "op": "DepthwiseConv2dNative", "input": ["StatefulPartitionedCall/functional_24_1/MobileNetV3Small_1/activation_147_1/mul", "StatefulPartitionedCall/functional_24_1/MobileNetV3Small_1/expanded_conv_4_depthwise_1/depthwise/ReadVariableOp"], "attr": {"padding": {"s": "U0FNRQ=="}, "data_format": {"s": "TkhXQw=="}, "T": {"type": "DT_FLOAT"}, "explicit_paddings": {"list": {}}, "dilations": {"list": {"i": ["1", "1", "1", "1"]}}, "strides": {"list": {"i": ["1", "1", "1", "1"]}}}}, {"name": "StatefulPartitionedCall/functional_24_1/MobileNetV3Small_1/expanded_conv_4_depthwise_bn_1/batchnorm/mul_1", "op": "Mul", "input": ["StatefulPartitionedCall/functional_24_1/MobileNetV3Small_1/expanded_conv_4_depthwise_1/depthwise", "StatefulPartitionedCall/functional_24_1/MobileNetV3Small_1/expanded_conv_4_depthwise_bn_1/batchnorm/mul"], "attr": {"T": {"type": "DT_FLOAT"}}}, {"name": "StatefulPartitionedCall/functional_24_1/MobileNetV3Small_1/expanded_conv_4_depthwise_bn_1/batchnorm/add_1", "op": "AddV2", "input": ["StatefulPartitionedCall/functional_24_1/MobileNetV3Small_1/expanded_conv_4_depthwise_bn_1/batchnorm/mul_1", "StatefulPartitionedCall/functional_24_1/MobileNetV3Small_1/expanded_conv_4_depthwise_bn_1/batchnorm/sub"], "attr": {"T": {"type": "DT_FLOAT"}}}, {"name": "StatefulPartitionedCall/functional_24_1/MobileNetV3Small_1/activation_148_1/truediv", "op": "Mul", "input": ["ConstantFolding/StatefulPartitionedCall/functional_24_1/MobileNetV3Small_1/activation_148_1/truediv_recip", "StatefulPartitionedCall/functional_24_1/MobileNetV3Small_1/expanded_conv_4_depthwise_bn_1/batchnorm/add_1"], "attr": {"_grappler_ArithmeticOptimizer_MinimizeBroadcasts": {"b": true}, "T": {"type": "DT_FLOAT"}}}, {"name": "StatefulPartitionedCall/functional_24_1/MobileNetV3Small_1/activation_148_1/add", "op": "AddV2", "input": ["StatefulPartitionedCall/functional_24_1/MobileNetV3Small_1/expanded_conv_4_depthwise_bn_1/batchnorm/add_1", "StatefulPartitionedCall/functional_24_1/MobileNetV3Small_1/activation_148_1/Const"], "attr": {"T": {"type": "DT_FLOAT"}}}, {"name": "StatefulPartitionedCall/functional_24_1/MobileNetV3Small_1/activation_148_1/Relu6", "op": "Relu6", "input": ["StatefulPartitionedCall/functional_24_1/MobileNetV3Small_1/activation_148_1/add"], "attr": {"T": {"type": "DT_FLOAT"}}}, {"name": "StatefulPartitionedCall/functional_24_1/MobileNetV3Small_1/activation_148_1/mul", "op": "Mul", "input": ["StatefulPartitionedCall/functional_24_1/MobileNetV3Small_1/activation_148_1/truediv", "StatefulPartitionedCall/functional_24_1/MobileNetV3Small_1/activation_148_1/Relu6"], "attr": {"_grappler_ArithmeticOptimizer_MinimizeBroadcasts": {"b": true}, "T": {"type": "DT_FLOAT"}}}, {"name": "StatefulPartitionedCall/functional_24_1/MobileNetV3Small_1/expanded_conv_4_squeeze_excite_avg_pool_1/Mean", "op": "Mean", "input": ["StatefulPartitionedCall/functional_24_1/MobileNetV3Small_1/activation_148_1/mul", "StatefulPartitionedCall/functional_24_1/MobileNetV3Small_1/expanded_conv_4_squeeze_excite_avg_pool_1/Mean/reduction_indices"], "attr": {"Tidx": {"type": "DT_INT32"}, "T": {"type": "DT_FLOAT"}, "keep_dims": {"b": true}}}, {"name": "StatefulPartitionedCall/functional_24_1/MobileNetV3Small_1/expanded_conv_4_squeeze_excite_relu_1/Relu", "op": "_FusedConv2D", "input": ["StatefulPartitionedCall/functional_24_1/MobileNetV3Small_1/expanded_conv_4_squeeze_excite_avg_pool_1/Mean", "StatefulPartitionedCall/functional_24_1/MobileNetV3Small_1/expanded_conv_4_squeeze_excite_conv_1/convolution/ReadVariableOp", "StatefulPartitionedCall/functional_24_1/MobileNetV3Small_1/expanded_conv_4_squeeze_excite_conv_1/Squeeze"], "device": "/device:CPU:0", "attr": {"num_host_args": {"i": "0"}, "data_format": {"s": "TkhXQw=="}, "filter_format": {"s": "SFdJTw=="}, "strides": {"list": {"i": ["1", "1", "1", "1"]}}, "num_args": {"i": "1"}, "fused_ops": {"list": {"s": ["Qmlhc0FkZA==", "UmVsdQ=="]}}, "TArgs": {"list": {"type": ["DT_FLOAT"]}}, "padding": {"s": "U0FNRQ=="}, "use_cudnn_on_gpu": {"b": true}, "leakyrelu_alpha": {"f": 0.2}, "epsilon": {"f": 0.0}, "T": {"type": "DT_FLOAT"}, "explicit_paddings": {"list": {}}, "dilations": {"list": {"i": ["1", "1", "1", "1"]}}}}, {"name": "StatefulPartitionedCall/functional_24_1/MobileNetV3Small_1/expanded_conv_4_squeeze_excite_conv_1_2/BiasAdd", "op": "_FusedConv2D", "input": ["StatefulPartitionedCall/functional_24_1/MobileNetV3Small_1/expanded_conv_4_squeeze_excite_relu_1/Relu", "StatefulPartitionedCall/functional_24_1/MobileNetV3Small_1/expanded_conv_4_squeeze_excite_conv_1_2/convolution/ReadVariableOp", "StatefulPartitionedCall/functional_24_1/MobileNetV3Small_1/expanded_conv_4_squeeze_excite_conv_1_2/Squeeze"], "device": "/device:CPU:0", "attr": {"num_host_args": {"i": "0"}, "data_format": {"s": "TkhXQw=="}, "filter_format": {"s": "SFdJTw=="}, "strides": {"list": {"i": ["1", "1", "1", "1"]}}, "num_args": {"i": "1"}, "fused_ops": {"list": {"s": ["Qmlhc0FkZA=="]}}, "TArgs": {"list": {"type": ["DT_FLOAT"]}}, "padding": {"s": "U0FNRQ=="}, "use_cudnn_on_gpu": {"b": true}, "leakyrelu_alpha": {"f": 0.2}, "epsilon": {"f": 0.0}, "T": {"type": "DT_FLOAT"}, "explicit_paddings": {"list": {}}, "dilations": {"list": {"i": ["1", "1", "1", "1"]}}}}, {"name": "StatefulPartitionedCall/functional_24_1/MobileNetV3Small_1/Add_2", "op": "AddV2", "input": ["StatefulPartitionedCall/functional_24_1/MobileNetV3Small_1/expanded_conv_4_squeeze_excite_conv_1_2/BiasAdd", "StatefulPartitionedCall/functional_24_1/MobileNetV3Small_1/Const_4"], "attr": {"T": {"type": "DT_FLOAT"}}}, {"name": "StatefulPartitionedCall/functional_24_1/MobileNetV3Small_1/re_lu_119_1/Relu6", "op": "Relu6", "input": ["StatefulPartitionedCall/functional_24_1/MobileNetV3Small_1/Add_2"], "attr": {"T": {"type": "DT_FLOAT"}}}, {"name": "StatefulPartitionedCall/functional_24_1/MobileNetV3Small_1/Mul_2", "op": "Mul", "input": ["StatefulPartitionedCall/functional_24_1/MobileNetV3Small_1/Const_5", "StatefulPartitionedCall/functional_24_1/MobileNetV3Small_1/re_lu_119_1/Relu6"], "attr": {"_grappler_ArithmeticOptimizer_MinimizeBroadcasts": {"b": true}, "T": {"type": "DT_FLOAT"}}}, {"name": "StatefulPartitionedCall/functional_24_1/MobileNetV3Small_1/expanded_conv_4_squeeze_excite_mul_1/Mul", "op": "Mul", "input": ["StatefulPartitionedCall/functional_24_1/MobileNetV3Small_1/Mul_2", "StatefulPartitionedCall/functional_24_1/MobileNetV3Small_1/activation_148_1/mul"], "attr": {"_grappler_ArithmeticOptimizer_MinimizeBroadcasts": {"b": true}, "T": {"type": "DT_FLOAT"}}}, {"name": "StatefulPartitionedCall/functional_24_1/MobileNetV3Small_1/expanded_conv_4_project_bn_1/batchnorm/mul_1", "op": "Conv2D", "input": ["StatefulPartitionedCall/functional_24_1/MobileNetV3Small_1/expanded_conv_4_squeeze_excite_mul_1/Mul", "StatefulPartitionedCall/functional_24_1/MobileNetV3Small_1/expanded_conv_4_project_1/convolution/merged_input"], "device": "/device:CPU:0", "attr": {"padding": {"s": "U0FNRQ=="}, "data_format": {"s": "TkhXQw=="}, "use_cudnn_on_gpu": {"b": true}, "strides": {"list": {"i": ["1", "1", "1", "1"]}}, "T": {"type": "DT_FLOAT"}, "explicit_paddings": {"list": {}}, "dilations": {"list": {"i": ["1", "1", "1", "1"]}}}}, {"name": "StatefulPartitionedCall/functional_24_1/MobileNetV3Small_1/expanded_conv_4_add_1/ArithmeticOptimizer/AddOpsRewrite_Leaf_1_Add", "op": "AddN", "input": ["StatefulPartitionedCall/functional_24_1/MobileNetV3Small_1/expanded_conv_3_project_bn_1/batchnorm/add_1", "StatefulPartitionedCall/functional_24_1/MobileNetV3Small_1/expanded_conv_4_project_bn_1/batchnorm/mul_1"], "attr": {"N": {"i": "2"}, "T": {"type": "DT_FLOAT"}, "_grappler_ArithmeticOptimizer_AddOpsRewriteStage": {"b": true}}}, {"name": "StatefulPartitionedCall/functional_24_1/MobileNetV3Small_1/expanded_conv_4_add_1/ArithmeticOptimizer/AddOpsRewrite_Add", "op": "AddV2", "input": ["StatefulPartitionedCall/functional_24_1/MobileNetV3Small_1/expanded_conv_4_project_bn_1/batchnorm/sub", "StatefulPartitionedCall/functional_24_1/MobileNetV3Small_1/expanded_conv_4_add_1/ArithmeticOptimizer/AddOpsRewrite_Leaf_1_Add"], "attr": {"T": {"type": "DT_FLOAT"}, "_grappler_ArithmeticOptimizer_AddOpsRewriteStage": {"b": true}}}, {"name": "StatefulPartitionedCall/functional_24_1/MobileNetV3Small_1/expanded_conv_5_expand_bn_1/batchnorm/add_1", "op": "_FusedConv2D", "input": ["StatefulPartitionedCall/functional_24_1/MobileNetV3Small_1/expanded_conv_4_add_1/ArithmeticOptimizer/AddOpsRewrite_Add", "StatefulPartitionedCall/functional_24_1/MobileNetV3Small_1/expanded_conv_5_expand_1/convolution/merged_input", "StatefulPartitionedCall/functional_24_1/MobileNetV3Small_1/expanded_conv_5_expand_bn_1/batchnorm/sub"], "device": "/device:CPU:0", "attr": {"num_host_args": {"i": "0"}, "data_format": {"s": "TkhXQw=="}, "filter_format": {"s": "SFdJTw=="}, "strides": {"list": {"i": ["1", "1", "1", "1"]}}, "num_args": {"i": "1"}, "fused_ops": {"list": {"s": ["Qmlhc0FkZA=="]}}, "TArgs": {"list": {"type": ["DT_FLOAT"]}}, "padding": {"s": "U0FNRQ=="}, "use_cudnn_on_gpu": {"b": true}, "leakyrelu_alpha": {"f": 0.2}, "epsilon": {"f": 0.0}, "T": {"type": "DT_FLOAT"}, "explicit_paddings": {"list": {}}, "dilations": {"list": {"i": ["1", "1", "1", "1"]}}}}, {"name": "StatefulPartitionedCall/functional_24_1/MobileNetV3Small_1/activation_149_1/truediv", "op": "Mul", "input": ["ConstantFolding/StatefulPartitionedCall/functional_24_1/MobileNetV3Small_1/activation_149_1/truediv_recip", "StatefulPartitionedCall/functional_24_1/MobileNetV3Small_1/expanded_conv_5_expand_bn_1/batchnorm/add_1"], "attr": {"_grappler_ArithmeticOptimizer_MinimizeBroadcasts": {"b": true}, "T": {"type": "DT_FLOAT"}}}, {"name": "StatefulPartitionedCall/functional_24_1/MobileNetV3Small_1/activation_149_1/add", "op": "AddV2", "input": ["StatefulPartitionedCall/functional_24_1/MobileNetV3Small_1/expanded_conv_5_expand_bn_1/batchnorm/add_1", "StatefulPartitionedCall/functional_24_1/MobileNetV3Small_1/activation_149_1/Const"], "attr": {"T": {"type": "DT_FLOAT"}}}, {"name": "StatefulPartitionedCall/functional_24_1/MobileNetV3Small_1/activation_149_1/Relu6", "op": "Relu6", "input": ["StatefulPartitionedCall/functional_24_1/MobileNetV3Small_1/activation_149_1/add"], "attr": {"T": {"type": "DT_FLOAT"}}}, {"name": "StatefulPartitionedCall/functional_24_1/MobileNetV3Small_1/activation_149_1/mul", "op": "Mul", "input": ["StatefulPartitionedCall/functional_24_1/MobileNetV3Small_1/activation_149_1/truediv", "StatefulPartitionedCall/functional_24_1/MobileNetV3Small_1/activation_149_1/Relu6"], "attr": {"_grappler_ArithmeticOptimizer_MinimizeBroadcasts": {"b": true}, "T": {"type": "DT_FLOAT"}}}, {"name": "StatefulPartitionedCall/functional_24_1/MobileNetV3Small_1/expanded_conv_5_depthwise_1/depthwise", "op": "DepthwiseConv2dNative", "input": ["StatefulPartitionedCall/functional_24_1/MobileNetV3Small_1/activation_149_1/mul", "StatefulPartitionedCall/functional_24_1/MobileNetV3Small_1/expanded_conv_5_depthwise_1/depthwise/ReadVariableOp"], "attr": {"padding": {"s": "U0FNRQ=="}, "data_format": {"s": "TkhXQw=="}, "T": {"type": "DT_FLOAT"}, "explicit_paddings": {"list": {}}, "dilations": {"list": {"i": ["1", "1", "1", "1"]}}, "strides": {"list": {"i": ["1", "1", "1", "1"]}}}}, {"name": "StatefulPartitionedCall/functional_24_1/MobileNetV3Small_1/expanded_conv_5_depthwise_bn_1/batchnorm/mul_1", "op": "Mul", "input": ["StatefulPartitionedCall/functional_24_1/MobileNetV3Small_1/expanded_conv_5_depthwise_1/depthwise", "StatefulPartitionedCall/functional_24_1/MobileNetV3Small_1/expanded_conv_5_depthwise_bn_1/batchnorm/mul"], "attr": {"T": {"type": "DT_FLOAT"}}}, {"name": "StatefulPartitionedCall/functional_24_1/MobileNetV3Small_1/expanded_conv_5_depthwise_bn_1/batchnorm/add_1", "op": "AddV2", "input": ["StatefulPartitionedCall/functional_24_1/MobileNetV3Small_1/expanded_conv_5_depthwise_bn_1/batchnorm/mul_1", "StatefulPartitionedCall/functional_24_1/MobileNetV3Small_1/expanded_conv_5_depthwise_bn_1/batchnorm/sub"], "attr": {"T": {"type": "DT_FLOAT"}}}, {"name": "StatefulPartitionedCall/functional_24_1/MobileNetV3Small_1/activation_150_1/truediv", "op": "Mul", "input": ["ConstantFolding/StatefulPartitionedCall/functional_24_1/MobileNetV3Small_1/activation_150_1/truediv_recip", "StatefulPartitionedCall/functional_24_1/MobileNetV3Small_1/expanded_conv_5_depthwise_bn_1/batchnorm/add_1"], "attr": {"_grappler_ArithmeticOptimizer_MinimizeBroadcasts": {"b": true}, "T": {"type": "DT_FLOAT"}}}, {"name": "StatefulPartitionedCall/functional_24_1/MobileNetV3Small_1/activation_150_1/add", "op": "AddV2", "input": ["StatefulPartitionedCall/functional_24_1/MobileNetV3Small_1/expanded_conv_5_depthwise_bn_1/batchnorm/add_1", "StatefulPartitionedCall/functional_24_1/MobileNetV3Small_1/activation_150_1/Const"], "attr": {"T": {"type": "DT_FLOAT"}}}, {"name": "StatefulPartitionedCall/functional_24_1/MobileNetV3Small_1/activation_150_1/Relu6", "op": "Relu6", "input": ["StatefulPartitionedCall/functional_24_1/MobileNetV3Small_1/activation_150_1/add"], "attr": {"T": {"type": "DT_FLOAT"}}}, {"name": "StatefulPartitionedCall/functional_24_1/MobileNetV3Small_1/activation_150_1/mul", "op": "Mul", "input": ["StatefulPartitionedCall/functional_24_1/MobileNetV3Small_1/activation_150_1/truediv", "StatefulPartitionedCall/functional_24_1/MobileNetV3Small_1/activation_150_1/Relu6"], "attr": {"_grappler_ArithmeticOptimizer_MinimizeBroadcasts": {"b": true}, "T": {"type": "DT_FLOAT"}}}, {"name": "StatefulPartitionedCall/functional_24_1/MobileNetV3Small_1/expanded_conv_5_squeeze_excite_avg_pool_1/Mean", "op": "Mean", "input": ["StatefulPartitionedCall/functional_24_1/MobileNetV3Small_1/activation_150_1/mul", "StatefulPartitionedCall/functional_24_1/MobileNetV3Small_1/expanded_conv_5_squeeze_excite_avg_pool_1/Mean/reduction_indices"], "attr": {"Tidx": {"type": "DT_INT32"}, "T": {"type": "DT_FLOAT"}, "keep_dims": {"b": true}}}, {"name": "StatefulPartitionedCall/functional_24_1/MobileNetV3Small_1/expanded_conv_5_squeeze_excite_relu_1/Relu", "op": "_FusedConv2D", "input": ["StatefulPartitionedCall/functional_24_1/MobileNetV3Small_1/expanded_conv_5_squeeze_excite_avg_pool_1/Mean", "StatefulPartitionedCall/functional_24_1/MobileNetV3Small_1/expanded_conv_5_squeeze_excite_conv_1/convolution/ReadVariableOp", "StatefulPartitionedCall/functional_24_1/MobileNetV3Small_1/expanded_conv_5_squeeze_excite_conv_1/Squeeze"], "device": "/device:CPU:0", "attr": {"num_host_args": {"i": "0"}, "data_format": {"s": "TkhXQw=="}, "filter_format": {"s": "SFdJTw=="}, "fused_ops": {"list": {"s": ["Qmlhc0FkZA==", "UmVsdQ=="]}}, "num_args": {"i": "1"}, "strides": {"list": {"i": ["1", "1", "1", "1"]}}, "TArgs": {"list": {"type": ["DT_FLOAT"]}}, "padding": {"s": "U0FNRQ=="}, "use_cudnn_on_gpu": {"b": true}, "leakyrelu_alpha": {"f": 0.2}, "epsilon": {"f": 0.0}, "T": {"type": "DT_FLOAT"}, "explicit_paddings": {"list": {}}, "dilations": {"list": {"i": ["1", "1", "1", "1"]}}}}, {"name": "StatefulPartitionedCall/functional_24_1/MobileNetV3Small_1/expanded_conv_5_squeeze_excite_conv_1_2/BiasAdd", "op": "_FusedConv2D", "input": ["StatefulPartitionedCall/functional_24_1/MobileNetV3Small_1/expanded_conv_5_squeeze_excite_relu_1/Relu", "StatefulPartitionedCall/functional_24_1/MobileNetV3Small_1/expanded_conv_5_squeeze_excite_conv_1_2/convolution/ReadVariableOp", "StatefulPartitionedCall/functional_24_1/MobileNetV3Small_1/expanded_conv_5_squeeze_excite_conv_1_2/Squeeze"], "device": "/device:CPU:0", "attr": {"num_host_args": {"i": "0"}, "data_format": {"s": "TkhXQw=="}, "filter_format": {"s": "SFdJTw=="}, "strides": {"list": {"i": ["1", "1", "1", "1"]}}, "num_args": {"i": "1"}, "fused_ops": {"list": {"s": ["Qmlhc0FkZA=="]}}, "TArgs": {"list": {"type": ["DT_FLOAT"]}}, "padding": {"s": "U0FNRQ=="}, "use_cudnn_on_gpu": {"b": true}, "leakyrelu_alpha": {"f": 0.2}, "epsilon": {"f": 0.0}, "T": {"type": "DT_FLOAT"}, "explicit_paddings": {"list": {}}, "dilations": {"list": {"i": ["1", "1", "1", "1"]}}}}, {"name": "StatefulPartitionedCall/functional_24_1/MobileNetV3Small_1/Add_3", "op": "AddV2", "input": ["StatefulPartitionedCall/functional_24_1/MobileNetV3Small_1/expanded_conv_5_squeeze_excite_conv_1_2/BiasAdd", "StatefulPartitionedCall/functional_24_1/MobileNetV3Small_1/Const_6"], "attr": {"T": {"type": "DT_FLOAT"}}}, {"name": "StatefulPartitionedCall/functional_24_1/MobileNetV3Small_1/re_lu_120_1/Relu6", "op": "Relu6", "input": ["StatefulPartitionedCall/functional_24_1/MobileNetV3Small_1/Add_3"], "attr": {"T": {"type": "DT_FLOAT"}}}, {"name": "StatefulPartitionedCall/functional_24_1/MobileNetV3Small_1/Mul_3", "op": "Mul", "input": ["StatefulPartitionedCall/functional_24_1/MobileNetV3Small_1/Const_7", "StatefulPartitionedCall/functional_24_1/MobileNetV3Small_1/re_lu_120_1/Relu6"], "attr": {"_grappler_ArithmeticOptimizer_MinimizeBroadcasts": {"b": true}, "T": {"type": "DT_FLOAT"}}}, {"name": "StatefulPartitionedCall/functional_24_1/MobileNetV3Small_1/expanded_conv_5_squeeze_excite_mul_1/Mul", "op": "Mul", "input": ["StatefulPartitionedCall/functional_24_1/MobileNetV3Small_1/Mul_3", "StatefulPartitionedCall/functional_24_1/MobileNetV3Small_1/activation_150_1/mul"], "attr": {"_grappler_ArithmeticOptimizer_MinimizeBroadcasts": {"b": true}, "T": {"type": "DT_FLOAT"}}}, {"name": "StatefulPartitionedCall/functional_24_1/MobileNetV3Small_1/expanded_conv_5_project_bn_1/batchnorm/mul_1", "op": "Conv2D", "input": ["StatefulPartitionedCall/functional_24_1/MobileNetV3Small_1/expanded_conv_5_squeeze_excite_mul_1/Mul", "StatefulPartitionedCall/functional_24_1/MobileNetV3Small_1/expanded_conv_5_project_1/convolution/merged_input"], "device": "/device:CPU:0", "attr": {"padding": {"s": "U0FNRQ=="}, "data_format": {"s": "TkhXQw=="}, "strides": {"list": {"i": ["1", "1", "1", "1"]}}, "use_cudnn_on_gpu": {"b": true}, "T": {"type": "DT_FLOAT"}, "explicit_paddings": {"list": {}}, "dilations": {"list": {"i": ["1", "1", "1", "1"]}}}}, {"name": "StatefulPartitionedCall/functional_24_1/MobileNetV3Small_1/expanded_conv_5_add_1/ArithmeticOptimizer/AddOpsRewrite_Leaf_1_Add", "op": "AddN", "input": ["StatefulPartitionedCall/functional_24_1/MobileNetV3Small_1/expanded_conv_4_add_1/ArithmeticOptimizer/AddOpsRewrite_Add", "StatefulPartitionedCall/functional_24_1/MobileNetV3Small_1/expanded_conv_5_project_bn_1/batchnorm/mul_1"], "attr": {"N": {"i": "2"}, "T": {"type": "DT_FLOAT"}, "_grappler_ArithmeticOptimizer_AddOpsRewriteStage": {"b": true}}}, {"name": "StatefulPartitionedCall/functional_24_1/MobileNetV3Small_1/expanded_conv_5_add_1/ArithmeticOptimizer/AddOpsRewrite_Add", "op": "AddV2", "input": ["StatefulPartitionedCall/functional_24_1/MobileNetV3Small_1/expanded_conv_5_project_bn_1/batchnorm/sub", "StatefulPartitionedCall/functional_24_1/MobileNetV3Small_1/expanded_conv_5_add_1/ArithmeticOptimizer/AddOpsRewrite_Leaf_1_Add"], "attr": {"T": {"type": "DT_FLOAT"}, "_grappler_ArithmeticOptimizer_AddOpsRewriteStage": {"b": true}}}, {"name": "StatefulPartitionedCall/functional_24_1/MobileNetV3Small_1/expanded_conv_6_expand_bn_1/batchnorm/add_1", "op": "_FusedConv2D", "input": ["StatefulPartitionedCall/functional_24_1/MobileNetV3Small_1/expanded_conv_5_add_1/ArithmeticOptimizer/AddOpsRewrite_Add", "StatefulPartitionedCall/functional_24_1/MobileNetV3Small_1/expanded_conv_6_expand_1/convolution/merged_input", "StatefulPartitionedCall/functional_24_1/MobileNetV3Small_1/expanded_conv_6_expand_bn_1/batchnorm/sub"], "device": "/device:CPU:0", "attr": {"num_host_args": {"i": "0"}, "data_format": {"s": "TkhXQw=="}, "filter_format": {"s": "SFdJTw=="}, "fused_ops": {"list": {"s": ["Qmlhc0FkZA=="]}}, "num_args": {"i": "1"}, "strides": {"list": {"i": ["1", "1", "1", "1"]}}, "TArgs": {"list": {"type": ["DT_FLOAT"]}}, "padding": {"s": "U0FNRQ=="}, "use_cudnn_on_gpu": {"b": true}, "leakyrelu_alpha": {"f": 0.2}, "epsilon": {"f": 0.0}, "T": {"type": "DT_FLOAT"}, "explicit_paddings": {"list": {}}, "dilations": {"list": {"i": ["1", "1", "1", "1"]}}}}, {"name": "StatefulPartitionedCall/functional_24_1/MobileNetV3Small_1/activation_151_1/truediv", "op": "Mul", "input": ["ConstantFolding/StatefulPartitionedCall/functional_24_1/MobileNetV3Small_1/activation_151_1/truediv_recip", "StatefulPartitionedCall/functional_24_1/MobileNetV3Small_1/expanded_conv_6_expand_bn_1/batchnorm/add_1"], "attr": {"_grappler_ArithmeticOptimizer_MinimizeBroadcasts": {"b": true}, "T": {"type": "DT_FLOAT"}}}, {"name": "StatefulPartitionedCall/functional_24_1/MobileNetV3Small_1/activation_151_1/add", "op": "AddV2", "input": ["StatefulPartitionedCall/functional_24_1/MobileNetV3Small_1/expanded_conv_6_expand_bn_1/batchnorm/add_1", "StatefulPartitionedCall/functional_24_1/MobileNetV3Small_1/activation_151_1/Const"], "attr": {"T": {"type": "DT_FLOAT"}}}, {"name": "StatefulPartitionedCall/functional_24_1/MobileNetV3Small_1/activation_151_1/Relu6", "op": "Relu6", "input": ["StatefulPartitionedCall/functional_24_1/MobileNetV3Small_1/activation_151_1/add"], "attr": {"T": {"type": "DT_FLOAT"}}}, {"name": "StatefulPartitionedCall/functional_24_1/MobileNetV3Small_1/activation_151_1/mul", "op": "Mul", "input": ["StatefulPartitionedCall/functional_24_1/MobileNetV3Small_1/activation_151_1/truediv", "StatefulPartitionedCall/functional_24_1/MobileNetV3Small_1/activation_151_1/Relu6"], "attr": {"_grappler_ArithmeticOptimizer_MinimizeBroadcasts": {"b": true}, "T": {"type": "DT_FLOAT"}}}, {"name": "StatefulPartitionedCall/functional_24_1/MobileNetV3Small_1/expanded_conv_6_depthwise_1/depthwise", "op": "DepthwiseConv2dNative", "input": ["StatefulPartitionedCall/functional_24_1/MobileNetV3Small_1/activation_151_1/mul", "StatefulPartitionedCall/functional_24_1/MobileNetV3Small_1/expanded_conv_6_depthwise_1/depthwise/ReadVariableOp"], "attr": {"padding": {"s": "U0FNRQ=="}, "data_format": {"s": "TkhXQw=="}, "T": {"type": "DT_FLOAT"}, "explicit_paddings": {"list": {}}, "dilations": {"list": {"i": ["1", "1", "1", "1"]}}, "strides": {"list": {"i": ["1", "1", "1", "1"]}}}}, {"name": "StatefulPartitionedCall/functional_24_1/MobileNetV3Small_1/expanded_conv_6_depthwise_bn_1/batchnorm/mul_1", "op": "Mul", "input": ["StatefulPartitionedCall/functional_24_1/MobileNetV3Small_1/expanded_conv_6_depthwise_1/depthwise", "StatefulPartitionedCall/functional_24_1/MobileNetV3Small_1/expanded_conv_6_depthwise_bn_1/batchnorm/mul"], "attr": {"T": {"type": "DT_FLOAT"}}}, {"name": "StatefulPartitionedCall/functional_24_1/MobileNetV3Small_1/expanded_conv_6_depthwise_bn_1/batchnorm/add_1", "op": "AddV2", "input": ["StatefulPartitionedCall/functional_24_1/MobileNetV3Small_1/expanded_conv_6_depthwise_bn_1/batchnorm/mul_1", "StatefulPartitionedCall/functional_24_1/MobileNetV3Small_1/expanded_conv_6_depthwise_bn_1/batchnorm/sub"], "attr": {"T": {"type": "DT_FLOAT"}}}, {"name": "StatefulPartitionedCall/functional_24_1/MobileNetV3Small_1/activation_152_1/truediv", "op": "Mul", "input": ["ConstantFolding/StatefulPartitionedCall/functional_24_1/MobileNetV3Small_1/activation_152_1/truediv_recip", "StatefulPartitionedCall/functional_24_1/MobileNetV3Small_1/expanded_conv_6_depthwise_bn_1/batchnorm/add_1"], "attr": {"_grappler_ArithmeticOptimizer_MinimizeBroadcasts": {"b": true}, "T": {"type": "DT_FLOAT"}}}, {"name": "StatefulPartitionedCall/functional_24_1/MobileNetV3Small_1/activation_152_1/add", "op": "AddV2", "input": ["StatefulPartitionedCall/functional_24_1/MobileNetV3Small_1/expanded_conv_6_depthwise_bn_1/batchnorm/add_1", "StatefulPartitionedCall/functional_24_1/MobileNetV3Small_1/activation_152_1/Const"], "attr": {"T": {"type": "DT_FLOAT"}}}, {"name": "StatefulPartitionedCall/functional_24_1/MobileNetV3Small_1/activation_152_1/Relu6", "op": "Relu6", "input": ["StatefulPartitionedCall/functional_24_1/MobileNetV3Small_1/activation_152_1/add"], "attr": {"T": {"type": "DT_FLOAT"}}}, {"name": "StatefulPartitionedCall/functional_24_1/MobileNetV3Small_1/activation_152_1/mul", "op": "Mul", "input": ["StatefulPartitionedCall/functional_24_1/MobileNetV3Small_1/activation_152_1/truediv", "StatefulPartitionedCall/functional_24_1/MobileNetV3Small_1/activation_152_1/Relu6"], "attr": {"_grappler_ArithmeticOptimizer_MinimizeBroadcasts": {"b": true}, "T": {"type": "DT_FLOAT"}}}, {"name": "StatefulPartitionedCall/functional_24_1/MobileNetV3Small_1/expanded_conv_6_squeeze_excite_avg_pool_1/Mean", "op": "Mean", "input": ["StatefulPartitionedCall/functional_24_1/MobileNetV3Small_1/activation_152_1/mul", "StatefulPartitionedCall/functional_24_1/MobileNetV3Small_1/expanded_conv_6_squeeze_excite_avg_pool_1/Mean/reduction_indices"], "attr": {"T": {"type": "DT_FLOAT"}, "Tidx": {"type": "DT_INT32"}, "keep_dims": {"b": true}}}, {"name": "StatefulPartitionedCall/functional_24_1/MobileNetV3Small_1/expanded_conv_6_squeeze_excite_relu_1/Relu", "op": "_FusedConv2D", "input": ["StatefulPartitionedCall/functional_24_1/MobileNetV3Small_1/expanded_conv_6_squeeze_excite_avg_pool_1/Mean", "StatefulPartitionedCall/functional_24_1/MobileNetV3Small_1/expanded_conv_6_squeeze_excite_conv_1/convolution/ReadVariableOp", "StatefulPartitionedCall/functional_24_1/MobileNetV3Small_1/expanded_conv_6_squeeze_excite_conv_1/Squeeze"], "device": "/device:CPU:0", "attr": {"num_host_args": {"i": "0"}, "data_format": {"s": "TkhXQw=="}, "filter_format": {"s": "SFdJTw=="}, "fused_ops": {"list": {"s": ["Qmlhc0FkZA==", "UmVsdQ=="]}}, "num_args": {"i": "1"}, "strides": {"list": {"i": ["1", "1", "1", "1"]}}, "TArgs": {"list": {"type": ["DT_FLOAT"]}}, "padding": {"s": "U0FNRQ=="}, "use_cudnn_on_gpu": {"b": true}, "leakyrelu_alpha": {"f": 0.2}, "epsilon": {"f": 0.0}, "T": {"type": "DT_FLOAT"}, "explicit_paddings": {"list": {}}, "dilations": {"list": {"i": ["1", "1", "1", "1"]}}}}, {"name": "StatefulPartitionedCall/functional_24_1/MobileNetV3Small_1/expanded_conv_6_squeeze_excite_conv_1_2/BiasAdd", "op": "_FusedConv2D", "input": ["StatefulPartitionedCall/functional_24_1/MobileNetV3Small_1/expanded_conv_6_squeeze_excite_relu_1/Relu", "StatefulPartitionedCall/functional_24_1/MobileNetV3Small_1/expanded_conv_6_squeeze_excite_conv_1_2/convolution/ReadVariableOp", "StatefulPartitionedCall/functional_24_1/MobileNetV3Small_1/expanded_conv_6_squeeze_excite_conv_1_2/Squeeze"], "device": "/device:CPU:0", "attr": {"num_host_args": {"i": "0"}, "data_format": {"s": "TkhXQw=="}, "filter_format": {"s": "SFdJTw=="}, "strides": {"list": {"i": ["1", "1", "1", "1"]}}, "num_args": {"i": "1"}, "fused_ops": {"list": {"s": ["Qmlhc0FkZA=="]}}, "TArgs": {"list": {"type": ["DT_FLOAT"]}}, "padding": {"s": "U0FNRQ=="}, "use_cudnn_on_gpu": {"b": true}, "leakyrelu_alpha": {"f": 0.2}, "epsilon": {"f": 0.0}, "T": {"type": "DT_FLOAT"}, "explicit_paddings": {"list": {}}, "dilations": {"list": {"i": ["1", "1", "1", "1"]}}}}, {"name": "StatefulPartitionedCall/functional_24_1/MobileNetV3Small_1/Add_4", "op": "AddV2", "input": ["StatefulPartitionedCall/functional_24_1/MobileNetV3Small_1/expanded_conv_6_squeeze_excite_conv_1_2/BiasAdd", "StatefulPartitionedCall/functional_24_1/MobileNetV3Small_1/Const_8"], "attr": {"T": {"type": "DT_FLOAT"}}}, {"name": "StatefulPartitionedCall/functional_24_1/MobileNetV3Small_1/re_lu_121_1/Relu6", "op": "Relu6", "input": ["StatefulPartitionedCall/functional_24_1/MobileNetV3Small_1/Add_4"], "attr": {"T": {"type": "DT_FLOAT"}}}, {"name": "StatefulPartitionedCall/functional_24_1/MobileNetV3Small_1/Mul_4", "op": "Mul", "input": ["StatefulPartitionedCall/functional_24_1/MobileNetV3Small_1/Const_9", "StatefulPartitionedCall/functional_24_1/MobileNetV3Small_1/re_lu_121_1/Relu6"], "attr": {"_grappler_ArithmeticOptimizer_MinimizeBroadcasts": {"b": true}, "T": {"type": "DT_FLOAT"}}}, {"name": "StatefulPartitionedCall/functional_24_1/MobileNetV3Small_1/expanded_conv_6_squeeze_excite_mul_1/Mul", "op": "Mul", "input": ["StatefulPartitionedCall/functional_24_1/MobileNetV3Small_1/Mul_4", "StatefulPartitionedCall/functional_24_1/MobileNetV3Small_1/activation_152_1/mul"], "attr": {"_grappler_ArithmeticOptimizer_MinimizeBroadcasts": {"b": true}, "T": {"type": "DT_FLOAT"}}}, {"name": "StatefulPartitionedCall/functional_24_1/MobileNetV3Small_1/expanded_conv_6_project_bn_1/batchnorm/add_1", "op": "_FusedConv2D", "input": ["StatefulPartitionedCall/functional_24_1/MobileNetV3Small_1/expanded_conv_6_squeeze_excite_mul_1/Mul", "StatefulPartitionedCall/functional_24_1/MobileNetV3Small_1/expanded_conv_6_project_1/convolution/merged_input", "StatefulPartitionedCall/functional_24_1/MobileNetV3Small_1/expanded_conv_6_project_bn_1/batchnorm/sub"], "device": "/device:CPU:0", "attr": {"num_host_args": {"i": "0"}, "data_format": {"s": "TkhXQw=="}, "filter_format": {"s": "SFdJTw=="}, "strides": {"list": {"i": ["1", "1", "1", "1"]}}, "num_args": {"i": "1"}, "fused_ops": {"list": {"s": ["Qmlhc0FkZA=="]}}, "TArgs": {"list": {"type": ["DT_FLOAT"]}}, "padding": {"s": "U0FNRQ=="}, "use_cudnn_on_gpu": {"b": true}, "leakyrelu_alpha": {"f": 0.2}, "epsilon": {"f": 0.0}, "T": {"type": "DT_FLOAT"}, "explicit_paddings": {"list": {}}, "dilations": {"list": {"i": ["1", "1", "1", "1"]}}}}, {"name": "StatefulPartitionedCall/functional_24_1/MobileNetV3Small_1/expanded_conv_7_expand_bn_1/batchnorm/add_1", "op": "_FusedConv2D", "input": ["StatefulPartitionedCall/functional_24_1/MobileNetV3Small_1/expanded_conv_6_project_bn_1/batchnorm/add_1", "StatefulPartitionedCall/functional_24_1/MobileNetV3Small_1/expanded_conv_7_expand_1/convolution/merged_input", "StatefulPartitionedCall/functional_24_1/MobileNetV3Small_1/expanded_conv_7_expand_bn_1/batchnorm/sub"], "device": "/device:CPU:0", "attr": {"num_host_args": {"i": "0"}, "data_format": {"s": "TkhXQw=="}, "filter_format": {"s": "SFdJTw=="}, "fused_ops": {"list": {"s": ["Qmlhc0FkZA=="]}}, "num_args": {"i": "1"}, "strides": {"list": {"i": ["1", "1", "1", "1"]}}, "TArgs": {"list": {"type": ["DT_FLOAT"]}}, "padding": {"s": "U0FNRQ=="}, "use_cudnn_on_gpu": {"b": true}, "leakyrelu_alpha": {"f": 0.2}, "epsilon": {"f": 0.0}, "T": {"type": "DT_FLOAT"}, "explicit_paddings": {"list": {}}, "dilations": {"list": {"i": ["1", "1", "1", "1"]}}}}, {"name": "StatefulPartitionedCall/functional_24_1/MobileNetV3Small_1/activation_153_1/truediv", "op": "Mul", "input": ["ConstantFolding/StatefulPartitionedCall/functional_24_1/MobileNetV3Small_1/activation_153_1/truediv_recip", "StatefulPartitionedCall/functional_24_1/MobileNetV3Small_1/expanded_conv_7_expand_bn_1/batchnorm/add_1"], "attr": {"_grappler_ArithmeticOptimizer_MinimizeBroadcasts": {"b": true}, "T": {"type": "DT_FLOAT"}}}, {"name": "StatefulPartitionedCall/functional_24_1/MobileNetV3Small_1/activation_153_1/add", "op": "AddV2", "input": ["StatefulPartitionedCall/functional_24_1/MobileNetV3Small_1/expanded_conv_7_expand_bn_1/batchnorm/add_1", "StatefulPartitionedCall/functional_24_1/MobileNetV3Small_1/activation_153_1/Const"], "attr": {"T": {"type": "DT_FLOAT"}}}, {"name": "StatefulPartitionedCall/functional_24_1/MobileNetV3Small_1/activation_153_1/Relu6", "op": "Relu6", "input": ["StatefulPartitionedCall/functional_24_1/MobileNetV3Small_1/activation_153_1/add"], "attr": {"T": {"type": "DT_FLOAT"}}}, {"name": "StatefulPartitionedCall/functional_24_1/MobileNetV3Small_1/activation_153_1/mul", "op": "Mul", "input": ["StatefulPartitionedCall/functional_24_1/MobileNetV3Small_1/activation_153_1/truediv", "StatefulPartitionedCall/functional_24_1/MobileNetV3Small_1/activation_153_1/Relu6"], "attr": {"_grappler_ArithmeticOptimizer_MinimizeBroadcasts": {"b": true}, "T": {"type": "DT_FLOAT"}}}, {"name": "StatefulPartitionedCall/functional_24_1/MobileNetV3Small_1/expanded_conv_7_depthwise_1/depthwise", "op": "DepthwiseConv2dNative", "input": ["StatefulPartitionedCall/functional_24_1/MobileNetV3Small_1/activation_153_1/mul", "StatefulPartitionedCall/functional_24_1/MobileNetV3Small_1/expanded_conv_7_depthwise_1/depthwise/ReadVariableOp"], "attr": {"padding": {"s": "U0FNRQ=="}, "data_format": {"s": "TkhXQw=="}, "T": {"type": "DT_FLOAT"}, "explicit_paddings": {"list": {}}, "dilations": {"list": {"i": ["1", "1", "1", "1"]}}, "strides": {"list": {"i": ["1", "1", "1", "1"]}}}}, {"name": "StatefulPartitionedCall/functional_24_1/MobileNetV3Small_1/expanded_conv_7_depthwise_bn_1/batchnorm/mul_1", "op": "Mul", "input": ["StatefulPartitionedCall/functional_24_1/MobileNetV3Small_1/expanded_conv_7_depthwise_1/depthwise", "StatefulPartitionedCall/functional_24_1/MobileNetV3Small_1/expanded_conv_7_depthwise_bn_1/batchnorm/mul"], "attr": {"T": {"type": "DT_FLOAT"}}}, {"name": "StatefulPartitionedCall/functional_24_1/MobileNetV3Small_1/expanded_conv_7_depthwise_bn_1/batchnorm/add_1", "op": "AddV2", "input": ["StatefulPartitionedCall/functional_24_1/MobileNetV3Small_1/expanded_conv_7_depthwise_bn_1/batchnorm/mul_1", "StatefulPartitionedCall/functional_24_1/MobileNetV3Small_1/expanded_conv_7_depthwise_bn_1/batchnorm/sub"], "attr": {"T": {"type": "DT_FLOAT"}}}, {"name": "StatefulPartitionedCall/functional_24_1/MobileNetV3Small_1/activation_154_1/truediv", "op": "Mul", "input": ["ConstantFolding/StatefulPartitionedCall/functional_24_1/MobileNetV3Small_1/activation_154_1/truediv_recip", "StatefulPartitionedCall/functional_24_1/MobileNetV3Small_1/expanded_conv_7_depthwise_bn_1/batchnorm/add_1"], "attr": {"_grappler_ArithmeticOptimizer_MinimizeBroadcasts": {"b": true}, "T": {"type": "DT_FLOAT"}}}, {"name": "StatefulPartitionedCall/functional_24_1/MobileNetV3Small_1/activation_154_1/add", "op": "AddV2", "input": ["StatefulPartitionedCall/functional_24_1/MobileNetV3Small_1/expanded_conv_7_depthwise_bn_1/batchnorm/add_1", "StatefulPartitionedCall/functional_24_1/MobileNetV3Small_1/activation_154_1/Const"], "attr": {"T": {"type": "DT_FLOAT"}}}, {"name": "StatefulPartitionedCall/functional_24_1/MobileNetV3Small_1/activation_154_1/Relu6", "op": "Relu6", "input": ["StatefulPartitionedCall/functional_24_1/MobileNetV3Small_1/activation_154_1/add"], "attr": {"T": {"type": "DT_FLOAT"}}}, {"name": "StatefulPartitionedCall/functional_24_1/MobileNetV3Small_1/activation_154_1/mul", "op": "Mul", "input": ["StatefulPartitionedCall/functional_24_1/MobileNetV3Small_1/activation_154_1/truediv", "StatefulPartitionedCall/functional_24_1/MobileNetV3Small_1/activation_154_1/Relu6"], "attr": {"_grappler_ArithmeticOptimizer_MinimizeBroadcasts": {"b": true}, "T": {"type": "DT_FLOAT"}}}, {"name": "StatefulPartitionedCall/functional_24_1/MobileNetV3Small_1/expanded_conv_7_squeeze_excite_avg_pool_1/Mean", "op": "Mean", "input": ["StatefulPartitionedCall/functional_24_1/MobileNetV3Small_1/activation_154_1/mul", "StatefulPartitionedCall/functional_24_1/MobileNetV3Small_1/expanded_conv_7_squeeze_excite_avg_pool_1/Mean/reduction_indices"], "attr": {"Tidx": {"type": "DT_INT32"}, "T": {"type": "DT_FLOAT"}, "keep_dims": {"b": true}}}, {"name": "StatefulPartitionedCall/functional_24_1/MobileNetV3Small_1/expanded_conv_7_squeeze_excite_relu_1/Relu", "op": "_FusedConv2D", "input": ["StatefulPartitionedCall/functional_24_1/MobileNetV3Small_1/expanded_conv_7_squeeze_excite_avg_pool_1/Mean", "StatefulPartitionedCall/functional_24_1/MobileNetV3Small_1/expanded_conv_7_squeeze_excite_conv_1/convolution/ReadVariableOp", "StatefulPartitionedCall/functional_24_1/MobileNetV3Small_1/expanded_conv_7_squeeze_excite_conv_1/Squeeze"], "device": "/device:CPU:0", "attr": {"num_host_args": {"i": "0"}, "data_format": {"s": "TkhXQw=="}, "filter_format": {"s": "SFdJTw=="}, "fused_ops": {"list": {"s": ["Qmlhc0FkZA==", "UmVsdQ=="]}}, "num_args": {"i": "1"}, "strides": {"list": {"i": ["1", "1", "1", "1"]}}, "TArgs": {"list": {"type": ["DT_FLOAT"]}}, "padding": {"s": "U0FNRQ=="}, "use_cudnn_on_gpu": {"b": true}, "leakyrelu_alpha": {"f": 0.2}, "epsilon": {"f": 0.0}, "T": {"type": "DT_FLOAT"}, "explicit_paddings": {"list": {}}, "dilations": {"list": {"i": ["1", "1", "1", "1"]}}}}, {"name": "StatefulPartitionedCall/functional_24_1/MobileNetV3Small_1/expanded_conv_7_squeeze_excite_conv_1_2/BiasAdd", "op": "_FusedConv2D", "input": ["StatefulPartitionedCall/functional_24_1/MobileNetV3Small_1/expanded_conv_7_squeeze_excite_relu_1/Relu", "StatefulPartitionedCall/functional_24_1/MobileNetV3Small_1/expanded_conv_7_squeeze_excite_conv_1_2/convolution/ReadVariableOp", "StatefulPartitionedCall/functional_24_1/MobileNetV3Small_1/expanded_conv_7_squeeze_excite_conv_1_2/Squeeze"], "device": "/device:CPU:0", "attr": {"num_host_args": {"i": "0"}, "data_format": {"s": "TkhXQw=="}, "filter_format": {"s": "SFdJTw=="}, "fused_ops": {"list": {"s": ["Qmlhc0FkZA=="]}}, "num_args": {"i": "1"}, "strides": {"list": {"i": ["1", "1", "1", "1"]}}, "TArgs": {"list": {"type": ["DT_FLOAT"]}}, "padding": {"s": "U0FNRQ=="}, "use_cudnn_on_gpu": {"b": true}, "leakyrelu_alpha": {"f": 0.2}, "epsilon": {"f": 0.0}, "T": {"type": "DT_FLOAT"}, "explicit_paddings": {"list": {}}, "dilations": {"list": {"i": ["1", "1", "1", "1"]}}}}, {"name": "StatefulPartitionedCall/functional_24_1/MobileNetV3Small_1/Add_5", "op": "AddV2", "input": ["StatefulPartitionedCall/functional_24_1/MobileNetV3Small_1/expanded_conv_7_squeeze_excite_conv_1_2/BiasAdd", "StatefulPartitionedCall/functional_24_1/MobileNetV3Small_1/Const_10"], "attr": {"T": {"type": "DT_FLOAT"}}}, {"name": "StatefulPartitionedCall/functional_24_1/MobileNetV3Small_1/re_lu_122_1/Relu6", "op": "Relu6", "input": ["StatefulPartitionedCall/functional_24_1/MobileNetV3Small_1/Add_5"], "attr": {"T": {"type": "DT_FLOAT"}}}, {"name": "StatefulPartitionedCall/functional_24_1/MobileNetV3Small_1/Mul_5", "op": "Mul", "input": ["StatefulPartitionedCall/functional_24_1/MobileNetV3Small_1/Const_11", "StatefulPartitionedCall/functional_24_1/MobileNetV3Small_1/re_lu_122_1/Relu6"], "attr": {"_grappler_ArithmeticOptimizer_MinimizeBroadcasts": {"b": true}, "T": {"type": "DT_FLOAT"}}}, {"name": "StatefulPartitionedCall/functional_24_1/MobileNetV3Small_1/expanded_conv_7_squeeze_excite_mul_1/Mul", "op": "Mul", "input": ["StatefulPartitionedCall/functional_24_1/MobileNetV3Small_1/Mul_5", "StatefulPartitionedCall/functional_24_1/MobileNetV3Small_1/activation_154_1/mul"], "attr": {"_grappler_ArithmeticOptimizer_MinimizeBroadcasts": {"b": true}, "T": {"type": "DT_FLOAT"}}}, {"name": "StatefulPartitionedCall/functional_24_1/MobileNetV3Small_1/expanded_conv_7_project_bn_1/batchnorm/mul_1", "op": "Conv2D", "input": ["StatefulPartitionedCall/functional_24_1/MobileNetV3Small_1/expanded_conv_7_squeeze_excite_mul_1/Mul", "StatefulPartitionedCall/functional_24_1/MobileNetV3Small_1/expanded_conv_7_project_1/convolution/merged_input"], "device": "/device:CPU:0", "attr": {"padding": {"s": "U0FNRQ=="}, "data_format": {"s": "TkhXQw=="}, "strides": {"list": {"i": ["1", "1", "1", "1"]}}, "use_cudnn_on_gpu": {"b": true}, "T": {"type": "DT_FLOAT"}, "explicit_paddings": {"list": {}}, "dilations": {"list": {"i": ["1", "1", "1", "1"]}}}}, {"name": "StatefulPartitionedCall/functional_24_1/MobileNetV3Small_1/expanded_conv_7_add_1/ArithmeticOptimizer/AddOpsRewrite_Leaf_1_Add", "op": "AddN", "input": ["StatefulPartitionedCall/functional_24_1/MobileNetV3Small_1/expanded_conv_6_project_bn_1/batchnorm/add_1", "StatefulPartitionedCall/functional_24_1/MobileNetV3Small_1/expanded_conv_7_project_bn_1/batchnorm/mul_1"], "attr": {"N": {"i": "2"}, "T": {"type": "DT_FLOAT"}, "_grappler_ArithmeticOptimizer_AddOpsRewriteStage": {"b": true}}}, {"name": "StatefulPartitionedCall/functional_24_1/MobileNetV3Small_1/expanded_conv_7_add_1/ArithmeticOptimizer/AddOpsRewrite_Add", "op": "AddV2", "input": ["StatefulPartitionedCall/functional_24_1/MobileNetV3Small_1/expanded_conv_7_project_bn_1/batchnorm/sub", "StatefulPartitionedCall/functional_24_1/MobileNetV3Small_1/expanded_conv_7_add_1/ArithmeticOptimizer/AddOpsRewrite_Leaf_1_Add"], "attr": {"T": {"type": "DT_FLOAT"}, "_grappler_ArithmeticOptimizer_AddOpsRewriteStage": {"b": true}}}, {"name": "StatefulPartitionedCall/functional_24_1/MobileNetV3Small_1/expanded_conv_8_expand_bn_1/batchnorm/add_1", "op": "_FusedConv2D", "input": ["StatefulPartitionedCall/functional_24_1/MobileNetV3Small_1/expanded_conv_7_add_1/ArithmeticOptimizer/AddOpsRewrite_Add", "StatefulPartitionedCall/functional_24_1/MobileNetV3Small_1/expanded_conv_8_expand_1/convolution/merged_input", "StatefulPartitionedCall/functional_24_1/MobileNetV3Small_1/expanded_conv_8_expand_bn_1/batchnorm/sub"], "device": "/device:CPU:0", "attr": {"num_host_args": {"i": "0"}, "data_format": {"s": "TkhXQw=="}, "filter_format": {"s": "SFdJTw=="}, "fused_ops": {"list": {"s": ["Qmlhc0FkZA=="]}}, "num_args": {"i": "1"}, "strides": {"list": {"i": ["1", "1", "1", "1"]}}, "TArgs": {"list": {"type": ["DT_FLOAT"]}}, "padding": {"s": "U0FNRQ=="}, "use_cudnn_on_gpu": {"b": true}, "leakyrelu_alpha": {"f": 0.2}, "epsilon": {"f": 0.0}, "T": {"type": "DT_FLOAT"}, "explicit_paddings": {"list": {}}, "dilations": {"list": {"i": ["1", "1", "1", "1"]}}}}, {"name": "StatefulPartitionedCall/functional_24_1/MobileNetV3Small_1/activation_155_1/truediv", "op": "Mul", "input": ["ConstantFolding/StatefulPartitionedCall/functional_24_1/MobileNetV3Small_1/activation_155_1/truediv_recip", "StatefulPartitionedCall/functional_24_1/MobileNetV3Small_1/expanded_conv_8_expand_bn_1/batchnorm/add_1"], "attr": {"_grappler_ArithmeticOptimizer_MinimizeBroadcasts": {"b": true}, "T": {"type": "DT_FLOAT"}}}, {"name": "StatefulPartitionedCall/functional_24_1/MobileNetV3Small_1/activation_155_1/add", "op": "AddV2", "input": ["StatefulPartitionedCall/functional_24_1/MobileNetV3Small_1/expanded_conv_8_expand_bn_1/batchnorm/add_1", "StatefulPartitionedCall/functional_24_1/MobileNetV3Small_1/activation_155_1/Const"], "attr": {"T": {"type": "DT_FLOAT"}}}, {"name": "StatefulPartitionedCall/functional_24_1/MobileNetV3Small_1/activation_155_1/Relu6", "op": "Relu6", "input": ["StatefulPartitionedCall/functional_24_1/MobileNetV3Small_1/activation_155_1/add"], "attr": {"T": {"type": "DT_FLOAT"}}}, {"name": "StatefulPartitionedCall/functional_24_1/MobileNetV3Small_1/activation_155_1/mul", "op": "Mul", "input": ["StatefulPartitionedCall/functional_24_1/MobileNetV3Small_1/activation_155_1/truediv", "StatefulPartitionedCall/functional_24_1/MobileNetV3Small_1/activation_155_1/Relu6"], "attr": {"_grappler_ArithmeticOptimizer_MinimizeBroadcasts": {"b": true}, "T": {"type": "DT_FLOAT"}}}, {"name": "StatefulPartitionedCall/functional_24_1/MobileNetV3Small_1/expanded_conv_8_depthwise_pad_1/Pad", "op": "Pad", "input": ["StatefulPartitionedCall/functional_24_1/MobileNetV3Small_1/activation_155_1/mul", "StatefulPartitionedCall/functional_24_1/MobileNetV3Small_1/expanded_conv_8_depthwise_pad_1/Const"], "attr": {"Tpaddings": {"type": "DT_INT32"}, "T": {"type": "DT_FLOAT"}}}, {"name": "StatefulPartitionedCall/functional_24_1/MobileNetV3Small_1/expanded_conv_8_depthwise_1/depthwise", "op": "DepthwiseConv2dNative", "input": ["StatefulPartitionedCall/functional_24_1/MobileNetV3Small_1/expanded_conv_8_depthwise_pad_1/Pad", "StatefulPartitionedCall/functional_24_1/MobileNetV3Small_1/expanded_conv_8_depthwise_1/depthwise/ReadVariableOp"], "attr": {"padding": {"s": "VkFMSUQ="}, "data_format": {"s": "TkhXQw=="}, "T": {"type": "DT_FLOAT"}, "explicit_paddings": {"list": {}}, "dilations": {"list": {"i": ["1", "1", "1", "1"]}}, "strides": {"list": {"i": ["1", "2", "2", "1"]}}}}, {"name": "StatefulPartitionedCall/functional_24_1/MobileNetV3Small_1/expanded_conv_8_depthwise_bn_1/batchnorm/mul_1", "op": "Mul", "input": ["StatefulPartitionedCall/functional_24_1/MobileNetV3Small_1/expanded_conv_8_depthwise_1/depthwise", "StatefulPartitionedCall/functional_24_1/MobileNetV3Small_1/expanded_conv_8_depthwise_bn_1/batchnorm/mul"], "attr": {"T": {"type": "DT_FLOAT"}}}, {"name": "StatefulPartitionedCall/functional_24_1/MobileNetV3Small_1/expanded_conv_8_depthwise_bn_1/batchnorm/add_1", "op": "AddV2", "input": ["StatefulPartitionedCall/functional_24_1/MobileNetV3Small_1/expanded_conv_8_depthwise_bn_1/batchnorm/mul_1", "StatefulPartitionedCall/functional_24_1/MobileNetV3Small_1/expanded_conv_8_depthwise_bn_1/batchnorm/sub"], "attr": {"T": {"type": "DT_FLOAT"}}}, {"name": "StatefulPartitionedCall/functional_24_1/MobileNetV3Small_1/activation_156_1/truediv", "op": "Mul", "input": ["ConstantFolding/StatefulPartitionedCall/functional_24_1/MobileNetV3Small_1/activation_156_1/truediv_recip", "StatefulPartitionedCall/functional_24_1/MobileNetV3Small_1/expanded_conv_8_depthwise_bn_1/batchnorm/add_1"], "attr": {"_grappler_ArithmeticOptimizer_MinimizeBroadcasts": {"b": true}, "T": {"type": "DT_FLOAT"}}}, {"name": "StatefulPartitionedCall/functional_24_1/MobileNetV3Small_1/activation_156_1/add", "op": "AddV2", "input": ["StatefulPartitionedCall/functional_24_1/MobileNetV3Small_1/expanded_conv_8_depthwise_bn_1/batchnorm/add_1", "StatefulPartitionedCall/functional_24_1/MobileNetV3Small_1/activation_156_1/Const"], "attr": {"T": {"type": "DT_FLOAT"}}}, {"name": "StatefulPartitionedCall/functional_24_1/MobileNetV3Small_1/activation_156_1/Relu6", "op": "Relu6", "input": ["StatefulPartitionedCall/functional_24_1/MobileNetV3Small_1/activation_156_1/add"], "attr": {"T": {"type": "DT_FLOAT"}}}, {"name": "StatefulPartitionedCall/functional_24_1/MobileNetV3Small_1/activation_156_1/mul", "op": "Mul", "input": ["StatefulPartitionedCall/functional_24_1/MobileNetV3Small_1/activation_156_1/truediv", "StatefulPartitionedCall/functional_24_1/MobileNetV3Small_1/activation_156_1/Relu6"], "attr": {"_grappler_ArithmeticOptimizer_MinimizeBroadcasts": {"b": true}, "T": {"type": "DT_FLOAT"}}}, {"name": "StatefulPartitionedCall/functional_24_1/MobileNetV3Small_1/expanded_conv_8_squeeze_excite_avg_pool_1/Mean", "op": "Mean", "input": ["StatefulPartitionedCall/functional_24_1/MobileNetV3Small_1/activation_156_1/mul", "StatefulPartitionedCall/functional_24_1/MobileNetV3Small_1/expanded_conv_8_squeeze_excite_avg_pool_1/Mean/reduction_indices"], "attr": {"Tidx": {"type": "DT_INT32"}, "T": {"type": "DT_FLOAT"}, "keep_dims": {"b": true}}}, {"name": "StatefulPartitionedCall/functional_24_1/MobileNetV3Small_1/expanded_conv_8_squeeze_excite_relu_1/Relu", "op": "_FusedConv2D", "input": ["StatefulPartitionedCall/functional_24_1/MobileNetV3Small_1/expanded_conv_8_squeeze_excite_avg_pool_1/Mean", "StatefulPartitionedCall/functional_24_1/MobileNetV3Small_1/expanded_conv_8_squeeze_excite_conv_1/convolution/ReadVariableOp", "StatefulPartitionedCall/functional_24_1/MobileNetV3Small_1/expanded_conv_8_squeeze_excite_conv_1/Squeeze"], "device": "/device:CPU:0", "attr": {"num_host_args": {"i": "0"}, "data_format": {"s": "TkhXQw=="}, "filter_format": {"s": "SFdJTw=="}, "strides": {"list": {"i": ["1", "1", "1", "1"]}}, "num_args": {"i": "1"}, "fused_ops": {"list": {"s": ["Qmlhc0FkZA==", "UmVsdQ=="]}}, "TArgs": {"list": {"type": ["DT_FLOAT"]}}, "padding": {"s": "U0FNRQ=="}, "use_cudnn_on_gpu": {"b": true}, "leakyrelu_alpha": {"f": 0.2}, "epsilon": {"f": 0.0}, "T": {"type": "DT_FLOAT"}, "explicit_paddings": {"list": {}}, "dilations": {"list": {"i": ["1", "1", "1", "1"]}}}}, {"name": "StatefulPartitionedCall/functional_24_1/MobileNetV3Small_1/expanded_conv_8_squeeze_excite_conv_1_2/BiasAdd", "op": "_FusedConv2D", "input": ["StatefulPartitionedCall/functional_24_1/MobileNetV3Small_1/expanded_conv_8_squeeze_excite_relu_1/Relu", "StatefulPartitionedCall/functional_24_1/MobileNetV3Small_1/expanded_conv_8_squeeze_excite_conv_1_2/convolution/ReadVariableOp", "StatefulPartitionedCall/functional_24_1/MobileNetV3Small_1/expanded_conv_8_squeeze_excite_conv_1_2/Squeeze"], "device": "/device:CPU:0", "attr": {"num_host_args": {"i": "0"}, "data_format": {"s": "TkhXQw=="}, "filter_format": {"s": "SFdJTw=="}, "fused_ops": {"list": {"s": ["Qmlhc0FkZA=="]}}, "num_args": {"i": "1"}, "strides": {"list": {"i": ["1", "1", "1", "1"]}}, "TArgs": {"list": {"type": ["DT_FLOAT"]}}, "padding": {"s": "U0FNRQ=="}, "use_cudnn_on_gpu": {"b": true}, "leakyrelu_alpha": {"f": 0.2}, "epsilon": {"f": 0.0}, "T": {"type": "DT_FLOAT"}, "explicit_paddings": {"list": {}}, "dilations": {"list": {"i": ["1", "1", "1", "1"]}}}}, {"name": "StatefulPartitionedCall/functional_24_1/MobileNetV3Small_1/Add_6", "op": "AddV2", "input": ["StatefulPartitionedCall/functional_24_1/MobileNetV3Small_1/expanded_conv_8_squeeze_excite_conv_1_2/BiasAdd", "StatefulPartitionedCall/functional_24_1/MobileNetV3Small_1/Const_12"], "attr": {"T": {"type": "DT_FLOAT"}}}, {"name": "StatefulPartitionedCall/functional_24_1/MobileNetV3Small_1/re_lu_123_1/Relu6", "op": "Relu6", "input": ["StatefulPartitionedCall/functional_24_1/MobileNetV3Small_1/Add_6"], "attr": {"T": {"type": "DT_FLOAT"}}}, {"name": "StatefulPartitionedCall/functional_24_1/MobileNetV3Small_1/Mul_6", "op": "Mul", "input": ["StatefulPartitionedCall/functional_24_1/MobileNetV3Small_1/Const_13", "StatefulPartitionedCall/functional_24_1/MobileNetV3Small_1/re_lu_123_1/Relu6"], "attr": {"_grappler_ArithmeticOptimizer_MinimizeBroadcasts": {"b": true}, "T": {"type": "DT_FLOAT"}}}, {"name": "StatefulPartitionedCall/functional_24_1/MobileNetV3Small_1/expanded_conv_8_squeeze_excite_mul_1/Mul", "op": "Mul", "input": ["StatefulPartitionedCall/functional_24_1/MobileNetV3Small_1/Mul_6", "StatefulPartitionedCall/functional_24_1/MobileNetV3Small_1/activation_156_1/mul"], "attr": {"_grappler_ArithmeticOptimizer_MinimizeBroadcasts": {"b": true}, "T": {"type": "DT_FLOAT"}}}, {"name": "StatefulPartitionedCall/functional_24_1/MobileNetV3Small_1/expanded_conv_8_project_bn_1/batchnorm/add_1", "op": "_FusedConv2D", "input": ["StatefulPartitionedCall/functional_24_1/MobileNetV3Small_1/expanded_conv_8_squeeze_excite_mul_1/Mul", "StatefulPartitionedCall/functional_24_1/MobileNetV3Small_1/expanded_conv_8_project_1/convolution/merged_input", "StatefulPartitionedCall/functional_24_1/MobileNetV3Small_1/expanded_conv_8_project_bn_1/batchnorm/sub"], "device": "/device:CPU:0", "attr": {"num_host_args": {"i": "0"}, "data_format": {"s": "TkhXQw=="}, "filter_format": {"s": "SFdJTw=="}, "fused_ops": {"list": {"s": ["Qmlhc0FkZA=="]}}, "num_args": {"i": "1"}, "strides": {"list": {"i": ["1", "1", "1", "1"]}}, "TArgs": {"list": {"type": ["DT_FLOAT"]}}, "padding": {"s": "U0FNRQ=="}, "use_cudnn_on_gpu": {"b": true}, "leakyrelu_alpha": {"f": 0.2}, "epsilon": {"f": 0.0}, "T": {"type": "DT_FLOAT"}, "explicit_paddings": {"list": {}}, "dilations": {"list": {"i": ["1", "1", "1", "1"]}}}}, {"name": "StatefulPartitionedCall/functional_24_1/MobileNetV3Small_1/expanded_conv_9_expand_bn_1/batchnorm/add_1", "op": "_FusedConv2D", "input": ["StatefulPartitionedCall/functional_24_1/MobileNetV3Small_1/expanded_conv_8_project_bn_1/batchnorm/add_1", "StatefulPartitionedCall/functional_24_1/MobileNetV3Small_1/expanded_conv_9_expand_1/convolution/merged_input", "StatefulPartitionedCall/functional_24_1/MobileNetV3Small_1/expanded_conv_9_expand_bn_1/batchnorm/sub"], "device": "/device:CPU:0", "attr": {"num_host_args": {"i": "0"}, "data_format": {"s": "TkhXQw=="}, "filter_format": {"s": "SFdJTw=="}, "strides": {"list": {"i": ["1", "1", "1", "1"]}}, "num_args": {"i": "1"}, "fused_ops": {"list": {"s": ["Qmlhc0FkZA=="]}}, "TArgs": {"list": {"type": ["DT_FLOAT"]}}, "padding": {"s": "U0FNRQ=="}, "use_cudnn_on_gpu": {"b": true}, "leakyrelu_alpha": {"f": 0.2}, "epsilon": {"f": 0.0}, "T": {"type": "DT_FLOAT"}, "explicit_paddings": {"list": {}}, "dilations": {"list": {"i": ["1", "1", "1", "1"]}}}}, {"name": "StatefulPartitionedCall/functional_24_1/MobileNetV3Small_1/activation_157_1/truediv", "op": "Mul", "input": ["ConstantFolding/StatefulPartitionedCall/functional_24_1/MobileNetV3Small_1/activation_157_1/truediv_recip", "StatefulPartitionedCall/functional_24_1/MobileNetV3Small_1/expanded_conv_9_expand_bn_1/batchnorm/add_1"], "attr": {"_grappler_ArithmeticOptimizer_MinimizeBroadcasts": {"b": true}, "T": {"type": "DT_FLOAT"}}}, {"name": "StatefulPartitionedCall/functional_24_1/MobileNetV3Small_1/activation_157_1/add", "op": "AddV2", "input": ["StatefulPartitionedCall/functional_24_1/MobileNetV3Small_1/expanded_conv_9_expand_bn_1/batchnorm/add_1", "StatefulPartitionedCall/functional_24_1/MobileNetV3Small_1/activation_157_1/Const"], "attr": {"T": {"type": "DT_FLOAT"}}}, {"name": "StatefulPartitionedCall/functional_24_1/MobileNetV3Small_1/activation_157_1/Relu6", "op": "Relu6", "input": ["StatefulPartitionedCall/functional_24_1/MobileNetV3Small_1/activation_157_1/add"], "attr": {"T": {"type": "DT_FLOAT"}}}, {"name": "StatefulPartitionedCall/functional_24_1/MobileNetV3Small_1/activation_157_1/mul", "op": "Mul", "input": ["StatefulPartitionedCall/functional_24_1/MobileNetV3Small_1/activation_157_1/truediv", "StatefulPartitionedCall/functional_24_1/MobileNetV3Small_1/activation_157_1/Relu6"], "attr": {"_grappler_ArithmeticOptimizer_MinimizeBroadcasts": {"b": true}, "T": {"type": "DT_FLOAT"}}}, {"name": "StatefulPartitionedCall/functional_24_1/MobileNetV3Small_1/expanded_conv_9_depthwise_1/depthwise", "op": "DepthwiseConv2dNative", "input": ["StatefulPartitionedCall/functional_24_1/MobileNetV3Small_1/activation_157_1/mul", "StatefulPartitionedCall/functional_24_1/MobileNetV3Small_1/expanded_conv_9_depthwise_1/depthwise/ReadVariableOp"], "attr": {"padding": {"s": "U0FNRQ=="}, "data_format": {"s": "TkhXQw=="}, "T": {"type": "DT_FLOAT"}, "explicit_paddings": {"list": {}}, "dilations": {"list": {"i": ["1", "1", "1", "1"]}}, "strides": {"list": {"i": ["1", "1", "1", "1"]}}}}, {"name": "StatefulPartitionedCall/functional_24_1/MobileNetV3Small_1/expanded_conv_9_depthwise_bn_1/batchnorm/mul_1", "op": "Mul", "input": ["StatefulPartitionedCall/functional_24_1/MobileNetV3Small_1/expanded_conv_9_depthwise_1/depthwise", "StatefulPartitionedCall/functional_24_1/MobileNetV3Small_1/expanded_conv_9_depthwise_bn_1/batchnorm/mul"], "attr": {"T": {"type": "DT_FLOAT"}}}, {"name": "StatefulPartitionedCall/functional_24_1/MobileNetV3Small_1/expanded_conv_9_depthwise_bn_1/batchnorm/add_1", "op": "AddV2", "input": ["StatefulPartitionedCall/functional_24_1/MobileNetV3Small_1/expanded_conv_9_depthwise_bn_1/batchnorm/mul_1", "StatefulPartitionedCall/functional_24_1/MobileNetV3Small_1/expanded_conv_9_depthwise_bn_1/batchnorm/sub"], "attr": {"T": {"type": "DT_FLOAT"}}}, {"name": "StatefulPartitionedCall/functional_24_1/MobileNetV3Small_1/activation_158_1/truediv", "op": "Mul", "input": ["ConstantFolding/StatefulPartitionedCall/functional_24_1/MobileNetV3Small_1/activation_158_1/truediv_recip", "StatefulPartitionedCall/functional_24_1/MobileNetV3Small_1/expanded_conv_9_depthwise_bn_1/batchnorm/add_1"], "attr": {"_grappler_ArithmeticOptimizer_MinimizeBroadcasts": {"b": true}, "T": {"type": "DT_FLOAT"}}}, {"name": "StatefulPartitionedCall/functional_24_1/MobileNetV3Small_1/activation_158_1/add", "op": "AddV2", "input": ["StatefulPartitionedCall/functional_24_1/MobileNetV3Small_1/expanded_conv_9_depthwise_bn_1/batchnorm/add_1", "StatefulPartitionedCall/functional_24_1/MobileNetV3Small_1/activation_158_1/Const"], "attr": {"T": {"type": "DT_FLOAT"}}}, {"name": "StatefulPartitionedCall/functional_24_1/MobileNetV3Small_1/activation_158_1/Relu6", "op": "Relu6", "input": ["StatefulPartitionedCall/functional_24_1/MobileNetV3Small_1/activation_158_1/add"], "attr": {"T": {"type": "DT_FLOAT"}}}, {"name": "StatefulPartitionedCall/functional_24_1/MobileNetV3Small_1/activation_158_1/mul", "op": "Mul", "input": ["StatefulPartitionedCall/functional_24_1/MobileNetV3Small_1/activation_158_1/truediv", "StatefulPartitionedCall/functional_24_1/MobileNetV3Small_1/activation_158_1/Relu6"], "attr": {"_grappler_ArithmeticOptimizer_MinimizeBroadcasts": {"b": true}, "T": {"type": "DT_FLOAT"}}}, {"name": "StatefulPartitionedCall/functional_24_1/MobileNetV3Small_1/expanded_conv_9_squeeze_excite_avg_pool_1/Mean", "op": "Mean", "input": ["StatefulPartitionedCall/functional_24_1/MobileNetV3Small_1/activation_158_1/mul", "StatefulPartitionedCall/functional_24_1/MobileNetV3Small_1/expanded_conv_9_squeeze_excite_avg_pool_1/Mean/reduction_indices"], "attr": {"T": {"type": "DT_FLOAT"}, "Tidx": {"type": "DT_INT32"}, "keep_dims": {"b": true}}}, {"name": "StatefulPartitionedCall/functional_24_1/MobileNetV3Small_1/expanded_conv_9_squeeze_excite_relu_1/Relu", "op": "_FusedConv2D", "input": ["StatefulPartitionedCall/functional_24_1/MobileNetV3Small_1/expanded_conv_9_squeeze_excite_avg_pool_1/Mean", "StatefulPartitionedCall/functional_24_1/MobileNetV3Small_1/expanded_conv_9_squeeze_excite_conv_1/convolution/ReadVariableOp", "StatefulPartitionedCall/functional_24_1/MobileNetV3Small_1/expanded_conv_9_squeeze_excite_conv_1/Squeeze"], "device": "/device:CPU:0", "attr": {"num_host_args": {"i": "0"}, "data_format": {"s": "TkhXQw=="}, "filter_format": {"s": "SFdJTw=="}, "strides": {"list": {"i": ["1", "1", "1", "1"]}}, "num_args": {"i": "1"}, "fused_ops": {"list": {"s": ["Qmlhc0FkZA==", "UmVsdQ=="]}}, "TArgs": {"list": {"type": ["DT_FLOAT"]}}, "padding": {"s": "U0FNRQ=="}, "use_cudnn_on_gpu": {"b": true}, "leakyrelu_alpha": {"f": 0.2}, "epsilon": {"f": 0.0}, "T": {"type": "DT_FLOAT"}, "explicit_paddings": {"list": {}}, "dilations": {"list": {"i": ["1", "1", "1", "1"]}}}}, {"name": "StatefulPartitionedCall/functional_24_1/MobileNetV3Small_1/expanded_conv_9_squeeze_excite_conv_1_2/BiasAdd", "op": "_FusedConv2D", "input": ["StatefulPartitionedCall/functional_24_1/MobileNetV3Small_1/expanded_conv_9_squeeze_excite_relu_1/Relu", "StatefulPartitionedCall/functional_24_1/MobileNetV3Small_1/expanded_conv_9_squeeze_excite_conv_1_2/convolution/ReadVariableOp", "StatefulPartitionedCall/functional_24_1/MobileNetV3Small_1/expanded_conv_9_squeeze_excite_conv_1_2/Squeeze"], "device": "/device:CPU:0", "attr": {"num_host_args": {"i": "0"}, "data_format": {"s": "TkhXQw=="}, "filter_format": {"s": "SFdJTw=="}, "strides": {"list": {"i": ["1", "1", "1", "1"]}}, "num_args": {"i": "1"}, "fused_ops": {"list": {"s": ["Qmlhc0FkZA=="]}}, "TArgs": {"list": {"type": ["DT_FLOAT"]}}, "padding": {"s": "U0FNRQ=="}, "use_cudnn_on_gpu": {"b": true}, "leakyrelu_alpha": {"f": 0.2}, "epsilon": {"f": 0.0}, "T": {"type": "DT_FLOAT"}, "explicit_paddings": {"list": {}}, "dilations": {"list": {"i": ["1", "1", "1", "1"]}}}}, {"name": "StatefulPartitionedCall/functional_24_1/MobileNetV3Small_1/Add_7", "op": "AddV2", "input": ["StatefulPartitionedCall/functional_24_1/MobileNetV3Small_1/expanded_conv_9_squeeze_excite_conv_1_2/BiasAdd", "StatefulPartitionedCall/functional_24_1/MobileNetV3Small_1/Const_14"], "attr": {"T": {"type": "DT_FLOAT"}}}, {"name": "StatefulPartitionedCall/functional_24_1/MobileNetV3Small_1/re_lu_124_1/Relu6", "op": "Relu6", "input": ["StatefulPartitionedCall/functional_24_1/MobileNetV3Small_1/Add_7"], "attr": {"T": {"type": "DT_FLOAT"}}}, {"name": "StatefulPartitionedCall/functional_24_1/MobileNetV3Small_1/Mul_7", "op": "Mul", "input": ["StatefulPartitionedCall/functional_24_1/MobileNetV3Small_1/Const_15", "StatefulPartitionedCall/functional_24_1/MobileNetV3Small_1/re_lu_124_1/Relu6"], "attr": {"_grappler_ArithmeticOptimizer_MinimizeBroadcasts": {"b": true}, "T": {"type": "DT_FLOAT"}}}, {"name": "StatefulPartitionedCall/functional_24_1/MobileNetV3Small_1/expanded_conv_9_squeeze_excite_mul_1/Mul", "op": "Mul", "input": ["StatefulPartitionedCall/functional_24_1/MobileNetV3Small_1/Mul_7", "StatefulPartitionedCall/functional_24_1/MobileNetV3Small_1/activation_158_1/mul"], "attr": {"_grappler_ArithmeticOptimizer_MinimizeBroadcasts": {"b": true}, "T": {"type": "DT_FLOAT"}}}, {"name": "StatefulPartitionedCall/functional_24_1/MobileNetV3Small_1/expanded_conv_9_project_bn_1/batchnorm/mul_1", "op": "Conv2D", "input": ["StatefulPartitionedCall/functional_24_1/MobileNetV3Small_1/expanded_conv_9_squeeze_excite_mul_1/Mul", "StatefulPartitionedCall/functional_24_1/MobileNetV3Small_1/expanded_conv_9_project_1/convolution/merged_input"], "device": "/device:CPU:0", "attr": {"padding": {"s": "U0FNRQ=="}, "data_format": {"s": "TkhXQw=="}, "strides": {"list": {"i": ["1", "1", "1", "1"]}}, "use_cudnn_on_gpu": {"b": true}, "T": {"type": "DT_FLOAT"}, "explicit_paddings": {"list": {}}, "dilations": {"list": {"i": ["1", "1", "1", "1"]}}}}, {"name": "StatefulPartitionedCall/functional_24_1/MobileNetV3Small_1/expanded_conv_9_add_1/ArithmeticOptimizer/AddOpsRewrite_Leaf_1_Add", "op": "AddN", "input": ["StatefulPartitionedCall/functional_24_1/MobileNetV3Small_1/expanded_conv_8_project_bn_1/batchnorm/add_1", "StatefulPartitionedCall/functional_24_1/MobileNetV3Small_1/expanded_conv_9_project_bn_1/batchnorm/mul_1"], "attr": {"N": {"i": "2"}, "T": {"type": "DT_FLOAT"}, "_grappler_ArithmeticOptimizer_AddOpsRewriteStage": {"b": true}}}, {"name": "StatefulPartitionedCall/functional_24_1/MobileNetV3Small_1/expanded_conv_9_add_1/ArithmeticOptimizer/AddOpsRewrite_Add", "op": "AddV2", "input": ["StatefulPartitionedCall/functional_24_1/MobileNetV3Small_1/expanded_conv_9_project_bn_1/batchnorm/sub", "StatefulPartitionedCall/functional_24_1/MobileNetV3Small_1/expanded_conv_9_add_1/ArithmeticOptimizer/AddOpsRewrite_Leaf_1_Add"], "attr": {"T": {"type": "DT_FLOAT"}, "_grappler_ArithmeticOptimizer_AddOpsRewriteStage": {"b": true}}}, {"name": "StatefulPartitionedCall/functional_24_1/MobileNetV3Small_1/expanded_conv_10_expand_bn_1/batchnorm/add_1", "op": "_FusedConv2D", "input": ["StatefulPartitionedCall/functional_24_1/MobileNetV3Small_1/expanded_conv_9_add_1/ArithmeticOptimizer/AddOpsRewrite_Add", "StatefulPartitionedCall/functional_24_1/MobileNetV3Small_1/expanded_conv_10_expand_1/convolution/merged_input", "StatefulPartitionedCall/functional_24_1/MobileNetV3Small_1/expanded_conv_10_expand_bn_1/batchnorm/sub"], "device": "/device:CPU:0", "attr": {"num_host_args": {"i": "0"}, "data_format": {"s": "TkhXQw=="}, "filter_format": {"s": "SFdJTw=="}, "strides": {"list": {"i": ["1", "1", "1", "1"]}}, "num_args": {"i": "1"}, "fused_ops": {"list": {"s": ["Qmlhc0FkZA=="]}}, "TArgs": {"list": {"type": ["DT_FLOAT"]}}, "padding": {"s": "U0FNRQ=="}, "use_cudnn_on_gpu": {"b": true}, "leakyrelu_alpha": {"f": 0.2}, "epsilon": {"f": 0.0}, "T": {"type": "DT_FLOAT"}, "explicit_paddings": {"list": {}}, "dilations": {"list": {"i": ["1", "1", "1", "1"]}}}}, {"name": "StatefulPartitionedCall/functional_24_1/MobileNetV3Small_1/activation_159_1/truediv", "op": "Mul", "input": ["ConstantFolding/StatefulPartitionedCall/functional_24_1/MobileNetV3Small_1/activation_159_1/truediv_recip", "StatefulPartitionedCall/functional_24_1/MobileNetV3Small_1/expanded_conv_10_expand_bn_1/batchnorm/add_1"], "attr": {"_grappler_ArithmeticOptimizer_MinimizeBroadcasts": {"b": true}, "T": {"type": "DT_FLOAT"}}}, {"name": "StatefulPartitionedCall/functional_24_1/MobileNetV3Small_1/activation_159_1/add", "op": "AddV2", "input": ["StatefulPartitionedCall/functional_24_1/MobileNetV3Small_1/expanded_conv_10_expand_bn_1/batchnorm/add_1", "StatefulPartitionedCall/functional_24_1/MobileNetV3Small_1/activation_159_1/Const"], "attr": {"T": {"type": "DT_FLOAT"}}}, {"name": "StatefulPartitionedCall/functional_24_1/MobileNetV3Small_1/activation_159_1/Relu6", "op": "Relu6", "input": ["StatefulPartitionedCall/functional_24_1/MobileNetV3Small_1/activation_159_1/add"], "attr": {"T": {"type": "DT_FLOAT"}}}, {"name": "StatefulPartitionedCall/functional_24_1/MobileNetV3Small_1/activation_159_1/mul", "op": "Mul", "input": ["StatefulPartitionedCall/functional_24_1/MobileNetV3Small_1/activation_159_1/truediv", "StatefulPartitionedCall/functional_24_1/MobileNetV3Small_1/activation_159_1/Relu6"], "attr": {"_grappler_ArithmeticOptimizer_MinimizeBroadcasts": {"b": true}, "T": {"type": "DT_FLOAT"}}}, {"name": "StatefulPartitionedCall/functional_24_1/MobileNetV3Small_1/expanded_conv_10_depthwise_1/depthwise", "op": "DepthwiseConv2dNative", "input": ["StatefulPartitionedCall/functional_24_1/MobileNetV3Small_1/activation_159_1/mul", "StatefulPartitionedCall/functional_24_1/MobileNetV3Small_1/expanded_conv_10_depthwise_1/depthwise/ReadVariableOp"], "attr": {"padding": {"s": "U0FNRQ=="}, "data_format": {"s": "TkhXQw=="}, "T": {"type": "DT_FLOAT"}, "explicit_paddings": {"list": {}}, "dilations": {"list": {"i": ["1", "1", "1", "1"]}}, "strides": {"list": {"i": ["1", "1", "1", "1"]}}}}, {"name": "StatefulPartitionedCall/functional_24_1/MobileNetV3Small_1/expanded_conv_10_depthwise_bn_1/batchnorm/mul_1", "op": "Mul", "input": ["StatefulPartitionedCall/functional_24_1/MobileNetV3Small_1/expanded_conv_10_depthwise_1/depthwise", "StatefulPartitionedCall/functional_24_1/MobileNetV3Small_1/expanded_conv_10_depthwise_bn_1/batchnorm/mul"], "attr": {"T": {"type": "DT_FLOAT"}}}, {"name": "StatefulPartitionedCall/functional_24_1/MobileNetV3Small_1/expanded_conv_10_depthwise_bn_1/batchnorm/add_1", "op": "AddV2", "input": ["StatefulPartitionedCall/functional_24_1/MobileNetV3Small_1/expanded_conv_10_depthwise_bn_1/batchnorm/mul_1", "StatefulPartitionedCall/functional_24_1/MobileNetV3Small_1/expanded_conv_10_depthwise_bn_1/batchnorm/sub"], "attr": {"T": {"type": "DT_FLOAT"}}}, {"name": "StatefulPartitionedCall/functional_24_1/MobileNetV3Small_1/activation_160_1/truediv", "op": "Mul", "input": ["ConstantFolding/StatefulPartitionedCall/functional_24_1/MobileNetV3Small_1/activation_160_1/truediv_recip", "StatefulPartitionedCall/functional_24_1/MobileNetV3Small_1/expanded_conv_10_depthwise_bn_1/batchnorm/add_1"], "attr": {"_grappler_ArithmeticOptimizer_MinimizeBroadcasts": {"b": true}, "T": {"type": "DT_FLOAT"}}}, {"name": "StatefulPartitionedCall/functional_24_1/MobileNetV3Small_1/activation_160_1/add", "op": "AddV2", "input": ["StatefulPartitionedCall/functional_24_1/MobileNetV3Small_1/expanded_conv_10_depthwise_bn_1/batchnorm/add_1", "StatefulPartitionedCall/functional_24_1/MobileNetV3Small_1/activation_160_1/Const"], "attr": {"T": {"type": "DT_FLOAT"}}}, {"name": "StatefulPartitionedCall/functional_24_1/MobileNetV3Small_1/activation_160_1/Relu6", "op": "Relu6", "input": ["StatefulPartitionedCall/functional_24_1/MobileNetV3Small_1/activation_160_1/add"], "attr": {"T": {"type": "DT_FLOAT"}}}, {"name": "StatefulPartitionedCall/functional_24_1/MobileNetV3Small_1/activation_160_1/mul", "op": "Mul", "input": ["StatefulPartitionedCall/functional_24_1/MobileNetV3Small_1/activation_160_1/truediv", "StatefulPartitionedCall/functional_24_1/MobileNetV3Small_1/activation_160_1/Relu6"], "attr": {"_grappler_ArithmeticOptimizer_MinimizeBroadcasts": {"b": true}, "T": {"type": "DT_FLOAT"}}}, {"name": "StatefulPartitionedCall/functional_24_1/MobileNetV3Small_1/expanded_conv_10_squeeze_excite_avg_pool_1/Mean", "op": "Mean", "input": ["StatefulPartitionedCall/functional_24_1/MobileNetV3Small_1/activation_160_1/mul", "StatefulPartitionedCall/functional_24_1/MobileNetV3Small_1/expanded_conv_10_squeeze_excite_avg_pool_1/Mean/reduction_indices"], "attr": {"T": {"type": "DT_FLOAT"}, "Tidx": {"type": "DT_INT32"}, "keep_dims": {"b": true}}}, {"name": "StatefulPartitionedCall/functional_24_1/MobileNetV3Small_1/expanded_conv_10_squeeze_excite_relu_1/Relu", "op": "_FusedConv2D", "input": ["StatefulPartitionedCall/functional_24_1/MobileNetV3Small_1/expanded_conv_10_squeeze_excite_avg_pool_1/Mean", "StatefulPartitionedCall/functional_24_1/MobileNetV3Small_1/expanded_conv_10_squeeze_excite_conv_1/convolution/ReadVariableOp", "StatefulPartitionedCall/functional_24_1/MobileNetV3Small_1/expanded_conv_10_squeeze_excite_conv_1/Squeeze"], "device": "/device:CPU:0", "attr": {"num_host_args": {"i": "0"}, "data_format": {"s": "TkhXQw=="}, "filter_format": {"s": "SFdJTw=="}, "fused_ops": {"list": {"s": ["Qmlhc0FkZA==", "UmVsdQ=="]}}, "num_args": {"i": "1"}, "strides": {"list": {"i": ["1", "1", "1", "1"]}}, "TArgs": {"list": {"type": ["DT_FLOAT"]}}, "padding": {"s": "U0FNRQ=="}, "use_cudnn_on_gpu": {"b": true}, "leakyrelu_alpha": {"f": 0.2}, "epsilon": {"f": 0.0}, "T": {"type": "DT_FLOAT"}, "explicit_paddings": {"list": {}}, "dilations": {"list": {"i": ["1", "1", "1", "1"]}}}}, {"name": "StatefulPartitionedCall/functional_24_1/MobileNetV3Small_1/expanded_conv_10_squeeze_excite_conv_1_2/BiasAdd", "op": "_FusedConv2D", "input": ["StatefulPartitionedCall/functional_24_1/MobileNetV3Small_1/expanded_conv_10_squeeze_excite_relu_1/Relu", "StatefulPartitionedCall/functional_24_1/MobileNetV3Small_1/expanded_conv_10_squeeze_excite_conv_1_2/convolution/ReadVariableOp", "StatefulPartitionedCall/functional_24_1/MobileNetV3Small_1/expanded_conv_10_squeeze_excite_conv_1_2/Squeeze"], "device": "/device:CPU:0", "attr": {"num_host_args": {"i": "0"}, "data_format": {"s": "TkhXQw=="}, "filter_format": {"s": "SFdJTw=="}, "fused_ops": {"list": {"s": ["Qmlhc0FkZA=="]}}, "num_args": {"i": "1"}, "strides": {"list": {"i": ["1", "1", "1", "1"]}}, "TArgs": {"list": {"type": ["DT_FLOAT"]}}, "padding": {"s": "U0FNRQ=="}, "use_cudnn_on_gpu": {"b": true}, "leakyrelu_alpha": {"f": 0.2}, "epsilon": {"f": 0.0}, "T": {"type": "DT_FLOAT"}, "explicit_paddings": {"list": {}}, "dilations": {"list": {"i": ["1", "1", "1", "1"]}}}}, {"name": "StatefulPartitionedCall/functional_24_1/MobileNetV3Small_1/Add_8", "op": "AddV2", "input": ["StatefulPartitionedCall/functional_24_1/MobileNetV3Small_1/expanded_conv_10_squeeze_excite_conv_1_2/BiasAdd", "StatefulPartitionedCall/functional_24_1/MobileNetV3Small_1/Const_16"], "attr": {"T": {"type": "DT_FLOAT"}}}, {"name": "StatefulPartitionedCall/functional_24_1/MobileNetV3Small_1/re_lu_125_1/Relu6", "op": "Relu6", "input": ["StatefulPartitionedCall/functional_24_1/MobileNetV3Small_1/Add_8"], "attr": {"T": {"type": "DT_FLOAT"}}}, {"name": "StatefulPartitionedCall/functional_24_1/MobileNetV3Small_1/Mul_8", "op": "Mul", "input": ["StatefulPartitionedCall/functional_24_1/MobileNetV3Small_1/Const_17", "StatefulPartitionedCall/functional_24_1/MobileNetV3Small_1/re_lu_125_1/Relu6"], "attr": {"_grappler_ArithmeticOptimizer_MinimizeBroadcasts": {"b": true}, "T": {"type": "DT_FLOAT"}}}, {"name": "StatefulPartitionedCall/functional_24_1/MobileNetV3Small_1/expanded_conv…
all_1/activation_161_1/mul", "op": "Mul", "input": ["StatefulPartitionedCall/functional_24_1/MobileNetV3Small_1/activation_161_1/truediv", "StatefulPartitionedCall/functional_24_1/MobileNetV3Small_1/activation_161_1/Relu6"], "attr": {"_grappler_ArithmeticOptimizer_MinimizeBroadcasts": {"b": true}, "T": {"type": "DT_FLOAT"}}}, {"name": "StatefulPartitionedCall/functional_24_1/global_average_pooling2d_8_1/Mean", "op": "Mean", "input": ["StatefulPartitionedCall/functional_24_1/MobileNetV3Small_1/activation_161_1/mul", "StatefulPartitionedCall/functional_24_1/global_average_pooling2d_8_1/Mean/reduction_indices"], "attr": {"T": {"type": "DT_FLOAT"}, "Tidx": {"type": "DT_INT32"}, "keep_dims": {"b": false}}}, {"name": "StatefulPartitionedCall/functional_24_1/dense_8_1/Add", "op": "_FusedMatMul", "input": ["StatefulPartitionedCall/functional_24_1/global_average_pooling2d_8_1/Mean", "StatefulPartitionedCall/functional_24_1/dense_8_1/Cast/ReadVariableOp", "StatefulPartitionedCall/functional_24_1/dense_8_1/Add/ReadVariableOp"], "device": "/device:CPU:0", "attr": {"transpose_a": {"b": false}, "transpose_b": {"b": false}, "fused_ops": {"list": {"s": ["Qmlhc0FkZA=="]}}, "num_args": {"i": "1"}, "leakyrelu_alpha": {"f": 0.2}, "epsilon": {"f": 0.0}, "T": {"type": "DT_FLOAT"}}}, {"name": "StatefulPartitionedCall/functional_24_1/dense_8_1/Sigmoid", "op": "Sigmoid", "input": ["StatefulPartitionedCall/functional_24_1/dense_8_1/Add"], "attr": {"T": {"type": "DT_FLOAT"}}}, {"name": "Identity", "op": "Identity", "input": ["StatefulPartitionedCall/functional_24_1/dense_8_1/Sigmoid"], "attr": {"T": {"type": "DT_FLOAT"}}}], "library": {}, "versions": {"producer": 1994}}, "weightsManifest": [{"paths": ["group1-shard1of1.bin"], "weights": [{"name": "ConstantFolding/StatefulPartitionedCall/functional_24_1/MobileNetV3Small_1/activation_161_1/truediv_recip", "shape": [], "dtype": "float32", "quantization": {"dtype": "uint8", "min": 0.1666666716337204, "scale": 1.0, "original_dtype": "float32"}}, {"name": "StatefulPartitionedCall/functional_24_1/MobileNetV3Small_1/expanded_conv_10_project_bn_1/batchnorm/sub", "shape": [96], "dtype": "float32", "quantization": {"dtype": "uint8", "min": -4.090993280971752, "scale": 0.03326010797538009, "original_dtype": "float32"}}, {"name": "StatefulPartitionedCall/functional_24_1/MobileNetV3Small_1/Const_17", "shape": [], "dtype": "float32", "quantization": {"dtype": "uint8", "min": 0.1666666716337204, "scale": 1.0, "original_dtype": "float32"}}, {"name": "StatefulPartitionedCall/functional_24_1/MobileNetV3Small_1/expanded_conv_10_squeeze_excite_avg_pool_1/Mean/reduction_indices", "shape": [2], "dtype": "int32"}, {"name": "StatefulPartitionedCall/functional_24_1/MobileNetV3Small_1/expanded_conv_10_squeeze_excite_conv_1/convolution/ReadVariableOp", "shape": [1, 1, 576, 144], "dtype": "float32", "quantization": {"dtype": "uint8", "min": -0.6569612877041686, "scale": 0.006772796780455346, "original_dtype": "float32"}}, {"name": "StatefulPartitionedCall/functional_24_1/MobileNetV3Small_1/expanded_conv_10_squeeze_excite_conv_1/Squeeze", "shape": [144], "dtype": "float32", "quantization": {"dtype": "uint8", "min": -2.2134078156714345, "scale": 0.02030649372175628, "original_dtype": "float32"}}, {"name": "StatefulPartitionedCall/functional_24_1/MobileNetV3Small_1/expanded_conv_10_squeeze_excite_conv_1_2/convolution/ReadVariableOp", "shape": [1, 1, 144, 576], "dtype": "float32", "quantization": {"dtype": "uint8", "min": -0.793437437917672, "scale": 0.008719092724370022, "original_dtype": "float32"}}, {"name": "StatefulPartitionedCall/functional_24_1/MobileNetV3Small_1/expanded_conv_10_squeeze_excite_conv_1_2/Squeeze", "shape": [576], "dtype": "float32", "quantization": {"dtype": "uint8", "min": -3.548901557922363, "scale": 0.03286019961039225, "original_dtype": "float32"}}, {"name": "StatefulPartitionedCall/functional_24_1/MobileNetV3Small_1/Const_16", "shape": [], "dtype": "float32", "quantization": {"dtype": "uint8", "min": 3.0, "scale": 1.0, "original_dtype": "float32"}}, {"name": "ConstantFolding/StatefulPartitionedCall/functional_24_1/MobileNetV3Small_1/activation_160_1/truediv_recip", "shape": [], "dtype": "float32", "quantization": {"dtype": "uint8", "min": 0.1666666716337204, "scale": 1.0, "original_dtype": "float32"}}, {"name": "ConstantFolding/StatefulPartitionedCall/functional_24_1/MobileNetV3Small_1/activation_159_1/truediv_recip", "shape": [], "dtype": "float32", "quantization": {"dtype": "uint8", "min": 0.1666666716337204, "scale": 1.0, "original_dtype": "float32"}}, {"name": "StatefulPartitionedCall/functional_24_1/MobileNetV3Small_1/expanded_conv_9_project_bn_1/batchnorm/sub", "shape": [96], "dtype": "float32", "quantization": {"dtype": "uint8", "min": -6.1801023258882415, "scale": 0.05421142391130036, "original_dtype": "float32"}}, {"name": "StatefulPartitionedCall/functional_24_1/MobileNetV3Small_1/Const_15", "shape": [], "dtype": "float32", "quantization": {"dtype": "uint8", "min": 0.1666666716337204, "scale": 1.0, "original_dtype": "float32"}}, {"name": "StatefulPartitionedCall/functional_24_1/MobileNetV3Small_1/expanded_conv_9_squeeze_excite_avg_pool_1/Mean/reduction_indices", "shape": [2], "dtype": "int32"}, {"name": "StatefulPartitionedCall/functional_24_1/MobileNetV3Small_1/expanded_conv_9_squeeze_excite_conv_1/convolution/ReadVariableOp", "shape": [1, 1, 576, 144], "dtype": "float32", "quantization": {"dtype": "uint8", "min": -0.75463387966156, "scale": 0.006678175926208496, "original_dtype": "float32"}}, {"name": "StatefulPartitionedCall/functional_24_1/MobileNetV3Small_1/expanded_conv_9_squeeze_excite_conv_1/Squeeze", "shape": [144], "dtype": "float32", "quantization": {"dtype": "uint8", "min": -1.3323088122349158, "scale": 0.01001735949048809, "original_dtype": "float32"}}, {"name": "StatefulPartitionedCall/functional_24_1/MobileNetV3Small_1/expanded_conv_9_squeeze_excite_conv_1_2/convolution/ReadVariableOp", "shape": [1, 1, 144, 576], "dtype": "float32", "quantization": {"dtype": "uint8", "min": -0.8610171360128066, "scale": 0.009566857066808963, "original_dtype": "float32"}}, {"name": "StatefulPartitionedCall/functional_24_1/MobileNetV3Small_1/expanded_conv_9_squeeze_excite_conv_1_2/Squeeze", "shape": [576], "dtype": "float32", "quantization": {"dtype": "uint8", "min": -3.0727591944675816, "scale": 0.02345617705700444, "original_dtype": "float32"}}, {"name": "StatefulPartitionedCall/functional_24_1/MobileNetV3Small_1/Const_14", "shape": [], "dtype": "float32", "quantization": {"dtype": "uint8", "min": 3.0, "scale": 1.0, "original_dtype": "float32"}}, {"name": "ConstantFolding/StatefulPartitionedCall/functional_24_1/MobileNetV3Small_1/activation_158_1/truediv_recip", "shape": [], "dtype": "float32", "quantization": {"dtype": "uint8", "min": 0.1666666716337204, "scale": 1.0, "original_dtype": "float32"}}, {"name": "ConstantFolding/StatefulPartitionedCall/functional_24_1/MobileNetV3Small_1/activation_157_1/truediv_recip", "shape": [], "dtype": "float32", "quantization": {"dtype": "uint8", "min": 0.1666666716337204, "scale": 1.0, "original_dtype": "float32"}}, {"name": "StatefulPartitionedCall/functional_24_1/MobileNetV3Small_1/Const_13", "shape": [], "dtype": "float32", "quantization": {"dtype": "uint8", "min": 0.1666666716337204, "scale": 1.0, "original_dtype": "float32"}}, {"name": "StatefulPartitionedCall/functional_24_1/MobileNetV3Small_1/expanded_conv_8_squeeze_excite_avg_pool_1/Mean/reduction_indices", "shape": [2], "dtype": "int32"}, {"name": "StatefulPartitionedCall/functional_24_1/MobileNetV3Small_1/expanded_conv_8_squeeze_excite_conv_1/convolution/ReadVariableOp", "shape": [1, 1, 288, 72], "dtype": "float32", "quantization": {"dtype": "uint8", "min": -0.901847644179475, "scale": 0.00784215342764761, "original_dtype": "float32"}}, {"name": "StatefulPartitionedCall/functional_24_1/MobileNetV3Small_1/expanded_conv_8_squeeze_excite_conv_1/Squeeze", "shape": [72], "dtype": "float32", "quantization": {"dtype": "uint8", "min": -3.166968130597881, "scale": 0.021841159521364697, "original_dtype": "float32"}}, {"name": "StatefulPartitionedCall/functional_24_1/MobileNetV3Small_1/expanded_conv_8_squeeze_excite_conv_1_2/convolution/ReadVariableOp", "shape": [1, 1, 72, 288], "dtype": "float32", "quantization": {"dtype": "uint8", "min": -0.9392823296434739, "scale": 0.005982689997729133, "original_dtype": "float32"}}, {"name": "StatefulPartitionedCall/functional_24_1/MobileNetV3Small_1/expanded_conv_8_squeeze_excite_conv_1_2/Squeeze", "shape": [288], "dtype": "float32", "quantization": {"dtype": "uint8", "min": -1.278451823720745, "scale": 0.0190813705032947, "original_dtype": "float32"}}, {"name": "StatefulPartitionedCall/functional_24_1/MobileNetV3Small_1/Const_12", "shape": [], "dtype": "float32", "quantization": {"dtype": "uint8", "min": 3.0, "scale": 1.0, "original_dtype": "float32"}}, {"name": "ConstantFolding/StatefulPartitionedCall/functional_24_1/MobileNetV3Small_1/activation_156_1/truediv_recip", "shape": [], "dtype": "float32", "quantization": {"dtype": "uint8", "min": 0.1666666716337204, "scale": 1.0, "original_dtype": "float32"}}, {"name": "ConstantFolding/StatefulPartitionedCall/functional_24_1/MobileNetV3Small_1/activation_155_1/truediv_recip", "shape": [], "dtype": "float32", "quantization": {"dtype": "uint8", "min": 0.1666666716337204, "scale": 1.0, "original_dtype": "float32"}}, {"name": "StatefulPartitionedCall/functional_24_1/MobileNetV3Small_1/expanded_conv_7_project_bn_1/batchnorm/sub", "shape": [48], "dtype": "float32", "quantization": {"dtype": "uint8", "min": -6.06967233022054, "scale": 0.04633337656656901, "original_dtype": "float32"}}, {"name": "StatefulPartitionedCall/functional_24_1/MobileNetV3Small_1/Const_11", "shape": [], "dtype": "float32", "quantization": {"dtype": "uint8", "min": 0.1666666716337204, "scale": 1.0, "original_dtype": "float32"}}, {"name": "StatefulPartitionedCall/functional_24_1/MobileNetV3Small_1/expanded_conv_7_squeeze_excite_avg_pool_1/Mean/reduction_indices", "shape": [2], "dtype": "int32"}, {"name": "StatefulPartitionedCall/functional_24_1/MobileNetV3Small_1/expanded_conv_7_squeeze_excite_conv_1/convolution/ReadVariableOp", "shape": [1, 1, 144, 40], "dtype": "float32", "quantization": {"dtype": "uint8", "min": -0.9425577205770156, "scale": 0.006981909041311227, "original_dtype": "float32"}}, {"name": "StatefulPartitionedCall/functional_24_1/MobileNetV3Small_1/expanded_conv_7_squeeze_excite_conv_1/Squeeze", "shape": [40], "dtype": "float32", "quantization": {"dtype": "uint8", "min": -0.18879242329036486, "scale": 0.005394069236867568, "original_dtype": "float32"}}, {"name": "StatefulPartitionedCall/functional_24_1/MobileNetV3Small_1/expanded_conv_7_squeeze_excite_conv_1_2/convolution/ReadVariableOp", "shape": [1, 1, 40, 144], "dtype": "float32", "quantization": {"dtype": "uint8", "min": -0.6181894225232741, "scale": 0.005025930264416863, "original_dtype": "float32"}}, {"name": "StatefulPartitionedCall/functional_24_1/MobileNetV3Small_1/expanded_conv_7_squeeze_excite_conv_1_2/Squeeze", "shape": [144], "dtype": "float32", "quantization": {"dtype": "uint8", "min": -3.0624074318829706, "scale": 0.022853786805096796, "original_dtype": "float32"}}, {"name": "StatefulPartitionedCall/functional_24_1/MobileNetV3Small_1/Const_10", "shape": [], "dtype": "float32", "quantization": {"dtype": "uint8", "min": 3.0, "scale": 1.0, "original_dtype": "float32"}}, {"name": "ConstantFolding/StatefulPartitionedCall/functional_24_1/MobileNetV3Small_1/activation_154_1/truediv_recip", "shape": [], "dtype": "float32", "quantization": {"dtype": "uint8", "min": 0.1666666716337204, "scale": 1.0, "original_dtype": "float32"}}, {"name": "ConstantFolding/StatefulPartitionedCall/functional_24_1/MobileNetV3Small_1/activation_153_1/truediv_recip", "shape": [], "dtype": "float32", "quantization": {"dtype": "uint8", "min": 0.1666666716337204, "scale": 1.0, "original_dtype": "float32"}}, {"name": "StatefulPartitionedCall/functional_24_1/MobileNetV3Small_1/Const_9", "shape": [], "dtype": "float32", "quantization": {"dtype": "uint8", "min": 0.1666666716337204, "scale": 1.0, "original_dtype": "float32"}}, {"name": "StatefulPartitionedCall/functional_24_1/MobileNetV3Small_1/expanded_conv_6_squeeze_excite_avg_pool_1/Mean/reduction_indices", "shape": [2], "dtype": "int32"}, {"name": "StatefulPartitionedCall/functional_24_1/MobileNetV3Small_1/expanded_conv_6_squeeze_excite_conv_1/convolution/ReadVariableOp", "shape": [1, 1, 120, 32], "dtype": "float32", "quantization": {"dtype": "uint8", "min": -0.008905440511401085, "scale": 4.08506445477114e-05, "original_dtype": "float32"}}, {"name": "StatefulPartitionedCall/functional_24_1/MobileNetV3Small_1/expanded_conv_6_squeeze_excite_conv_1/Squeeze", "shape": [32], "dtype": "float32", "quantization": {"dtype": "uint8", "min": -0.5438659616545135, "scale": 0.005549652669944016, "original_dtype": "float32"}}, {"name": "StatefulPartitionedCall/functional_24_1/MobileNetV3Small_1/expanded_conv_6_squeeze_excite_conv_1_2/convolution/ReadVariableOp", "shape": [1, 1, 32, 120], "dtype": "float32", "quantization": {"dtype": "uint8", "min": -0.005962978475087998, "scale": 4.1699150175440546e-05, "original_dtype": "float32"}}, {"name": "StatefulPartitionedCall/functional_24_1/MobileNetV3Small_1/expanded_conv_6_squeeze_excite_conv_1_2/Squeeze", "shape": [120], "dtype": "float32", "quantization": {"dtype": "uint8", "min": -1.9622671370412788, "scale": 0.01962267137041279, "original_dtype": "float32"}}, {"name": "StatefulPartitionedCall/functional_24_1/MobileNetV3Small_1/Const_8", "shape": [], "dtype": "float32", "quantization": {"dtype": "uint8", "min": 3.0, "scale": 1.0, "original_dtype": "float32"}}, {"name": "ConstantFolding/StatefulPartitionedCall/functional_24_1/MobileNetV3Small_1/activation_152_1/truediv_recip", "shape": [], "dtype": "float32", "quantization": {"dtype": "uint8", "min": 0.1666666716337204, "scale": 1.0, "original_dtype": "float32"}}, {"name": "ConstantFolding/StatefulPartitionedCall/functional_24_1/MobileNetV3Small_1/activation_151_1/truediv_recip", "shape": [], "dtype": "float32", "quantization": {"dtype": "uint8", "min": 0.1666666716337204, "scale": 1.0, "original_dtype": "float32"}}, {"name": "StatefulPartitionedCall/functional_24_1/MobileNetV3Small_1/expanded_conv_5_project_bn_1/batchnorm/sub", "shape": [40], "dtype": "float32", "quantization": {"dtype": "uint8", "min": -36.261729184318995, "scale": 0.22806118983848422, "original_dtype": "float32"}}, {"name": "StatefulPartitionedCall/functional_24_1/MobileNetV3Small_1/Const_7", "shape": [], "dtype": "float32", "quantization": {"dtype": "uint8", "min": 0.1666666716337204, "scale": 1.0, "original_dtype": "float32"}}, {"name": "StatefulPartitionedCall/functional_24_1/MobileNetV3Small_1/expanded_conv_5_squeeze_excite_avg_pool_1/Mean/reduction_indices", "shape": [2], "dtype": "int32"}, {"name": "StatefulPartitionedCall/functional_24_1/MobileNetV3Small_1/expanded_conv_5_squeeze_excite_conv_1/convolution/ReadVariableOp", "shape": [1, 1, 240, 64], "dtype": "float32", "quantization": {"dtype": "uint8", "min": -1.4488003985554565, "scale": 0.008572783423405068, "original_dtype": "float32"}}, {"name": "StatefulPartitionedCall/functional_24_1/MobileNetV3Small_1/expanded_conv_5_squeeze_excite_conv_1/Squeeze", "shape": [64], "dtype": "float32", "quantization": {"dtype": "uint8", "min": -0.7584710602666818, "scale": 0.006712133276696299, "original_dtype": "float32"}}, {"name": "StatefulPartitionedCall/functional_24_1/MobileNetV3Small_1/expanded_conv_5_squeeze_excite_conv_1_2/convolution/ReadVariableOp", "shape": [1, 1, 64, 240], "dtype": "float32", "quantization": {"dtype": "uint8", "min": -0.7381503729259267, "scale": 0.0068986016161301554, "original_dtype": "float32"}}, {"name": "StatefulPartitionedCall/functional_24_1/MobileNetV3Small_1/expanded_conv_5_squeeze_excite_conv_1_2/Squeeze", "shape": [240], "dtype": "float32", "quantization": {"dtype": "uint8", "min": -3.9268126824322866, "scale": 0.026354447533102596, "original_dtype": "float32"}}, {"name": "StatefulPartitionedCall/functional_24_1/MobileNetV3Small_1/Const_6", "shape": [], "dtype": "float32", "quantization": {"dtype": "uint8", "min": 3.0, "scale": 1.0, "original_dtype": "float32"}}, {"name": "ConstantFolding/StatefulPartitionedCall/functional_24_1/MobileNetV3Small_1/activation_150_1/truediv_recip", "shape": [], "dtype": "float32", "quantization": {"dtype": "uint8", "min": 0.1666666716337204, "scale": 1.0, "original_dtype": "float32"}}, {"name": "ConstantFolding/StatefulPartitionedCall/functional_24_1/MobileNetV3Small_1/activation_149_1/truediv_recip", "shape": [], "dtype": "float32", "quantization": {"dtype": "uint8", "min": 0.1666666716337204, "scale": 1.0, "original_dtype": "float32"}}, {"name": "StatefulPartitionedCall/functional_24_1/MobileNetV3Small_1/expanded_conv_4_project_bn_1/batchnorm/sub", "shape": [40], "dtype": "float32", "quantization": {"dtype": "uint8", "min": -11.99373940860524, "scale": 0.07496087130378275, "original_dtype": "float32"}}, {"name": "StatefulPartitionedCall/functional_24_1/MobileNetV3Small_1/Const_5", "shape": [], "dtype": "float32", "quantization": {"dtype": "uint8", "min": 0.1666666716337204, "scale": 1.0, "original_dtype": "float32"}}, {"name": "StatefulPartitionedCall/functional_24_1/MobileNetV3Small_1/expanded_conv_4_squeeze_excite_avg_pool_1/Mean/reduction_indices", "shape": [2], "dtype": "int32"}, {"name": "StatefulPartitionedCall/functional_24_1/MobileNetV3Small_1/expanded_conv_4_squeeze_excite_conv_1/convolution/ReadVariableOp", "shape": [1, 1, 240, 64], "dtype": "float32", "quantization": {"dtype": "uint8", "min": -1.5499423288831522, "scale": 0.010472583303264543, "original_dtype": "float32"}}, {"name": "StatefulPartitionedCall/functional_24_1/MobileNetV3Small_1/expanded_conv_4_squeeze_excite_conv_1/Squeeze", "shape": [64], "dtype": "float32", "quantization": {"dtype": "uint8", "min": -1.577199234681971, "scale": 0.011682957293940525, "original_dtype": "float32"}}, {"name": "StatefulPartitionedCall/functional_24_1/MobileNetV3Small_1/expanded_conv_4_squeeze_excite_conv_1_2/convolution/ReadVariableOp", "shape": [1, 1, 64, 240], "dtype": "float32", "quantization": {"dtype": "uint8", "min": -0.693367262915069, "scale": 0.006731720999175427, "original_dtype": "float32"}}, {"name": "StatefulPartitionedCall/functional_24_1/MobileNetV3Small_1/expanded_conv_4_squeeze_excite_conv_1_2/Squeeze", "shape": [240], "dtype": "float32", "quantization": {"dtype": "uint8", "min": -3.2296434337017583, "scale": 0.025837147469614068, "original_dtype": "float32"}}, {"name": "StatefulPartitionedCall/functional_24_1/MobileNetV3Small_1/Const_4", "shape": [], "dtype": "float32", "quantization": {"dtype": "uint8", "min": 3.0, "scale": 1.0, "original_dtype": "float32"}}, {"name": "ConstantFolding/StatefulPartitionedCall/functional_24_1/MobileNetV3Small_1/activation_148_1/truediv_recip", "shape": [], "dtype": "float32", "quantization": {"dtype": "uint8", "min": 0.1666666716337204, "scale": 1.0, "original_dtype": "float32"}}, {"name": "ConstantFolding/StatefulPartitionedCall/functional_24_1/MobileNetV3Small_1/activation_147_1/truediv_recip", "shape": [], "dtype": "float32", "quantization": {"dtype": "uint8", "min": 0.1666666716337204, "scale": 1.0, "original_dtype": "float32"}}, {"name": "StatefulPartitionedCall/functional_24_1/MobileNetV3Small_1/Const_3", "shape": [], "dtype": "float32", "quantization": {"dtype": "uint8", "min": 0.1666666716337204, "scale": 1.0, "original_dtype": "float32"}}, {"name": "StatefulPartitionedCall/functional_24_1/MobileNetV3Small_1/expanded_conv_3_squeeze_excite_avg_pool_1/Mean/reduction_indices", "shape": [2], "dtype": "int32"}, {"name": "StatefulPartitionedCall/functional_24_1/MobileNetV3Small_1/expanded_conv_3_squeeze_excite_conv_1/convolution/ReadVariableOp", "shape": [1, 1, 96, 24], "dtype": "float32", "quantization": {"dtype": "uint8", "min": -0.7187638465095969, "scale": 0.0077286435108558805, "original_dtype": "float32"}}, {"name": "StatefulPartitionedCall/functional_24_1/MobileNetV3Small_1/expanded_conv_3_squeeze_excite_conv_1/Squeeze", "shape": [24], "dtype": "float32", "quantization": {"dtype": "uint8", "min": -0.4820667869904462, "scale": 0.007304042227127973, "original_dtype": "float32"}}, {"name": "StatefulPartitionedCall/functional_24_1/MobileNetV3Small_1/expanded_conv_3_squeeze_excite_conv_1_2/convolution/ReadVariableOp", "shape": [1, 1, 24, 96], "dtype": "float32", "quantization": {"dtype": "uint8", "min": -0.5259202227872961, "scale": 0.004869631692474964, "original_dtype": "float32"}}, {"name": "StatefulPartitionedCall/functional_24_1/MobileNetV3Small_1/expanded_conv_3_squeeze_excite_conv_1_2/Squeeze", "shape": [96], "dtype": "float32", "quantization": {"dtype": "uint8", "min": -4.99115083357867, "scale": 0.0313908857457778, "original_dtype": "float32"}}, {"name": "StatefulPartitionedCall/functional_24_1/MobileNetV3Small_1/Const_2", "shape": [], "dtype": "float32", "quantization": {"dtype": "uint8", "min": 3.0, "scale": 1.0, "original_dtype": "float32"}}, {"name": "ConstantFolding/StatefulPartitionedCall/functional_24_1/MobileNetV3Small_1/activation_146_1/truediv_recip", "shape": [], "dtype": "float32", "quantization": {"dtype": "uint8", "min": 0.1666666716337204, "scale": 1.0, "original_dtype": "float32"}}, {"name": "ConstantFolding/StatefulPartitionedCall/functional_24_1/MobileNetV3Small_1/activation_145_1/truediv_recip", "shape": [], "dtype": "float32", "quantization": {"dtype": "uint8", "min": 0.1666666716337204, "scale": 1.0, "original_dtype": "float32"}}, {"name": "StatefulPartitionedCall/functional_24_1/MobileNetV3Small_1/expanded_conv_2_project_bn_1/batchnorm/sub", "shape": [24], "dtype": "float32", "quantization": {"dtype": "uint8", "min": -34.461680393592985, "scale": 0.2461548599542356, "original_dtype": "float32"}}, {"name": "StatefulPartitionedCall/functional_24_1/MobileNetV3Small_1/Const_1", "shape": [], "dtype": "float32", "quantization": {"dtype": "uint8", "min": 0.1666666716337204, "scale": 1.0, "original_dtype": "float32"}}, {"name": "StatefulPartitionedCall/functional_24_1/MobileNetV3Small_1/expanded_conv_squeeze_excite_avg_pool_1/Mean/reduction_indices", "shape": [2], "dtype": "int32"}, {"name": "StatefulPartitionedCall/functional_24_1/MobileNetV3Small_1/expanded_conv_squeeze_excite_conv_1/convolution/ReadVariableOp", "shape": [1, 1, 16, 8], "dtype": "float32", "quantization": {"dtype": "uint8", "min": -0.044838710041607124, "scale": 0.0005468135370927698, "original_dtype": "float32"}}, {"name": "StatefulPartitionedCall/functional_24_1/MobileNetV3Small_1/expanded_conv_squeeze_excite_conv_1/Squeeze", "shape": [8], "dtype": "float32", "quantization": {"dtype": "uint8", "min": -2.245196996950636, "scale": 0.020410881790460324, "original_dtype": "float32"}}, {"name": "StatefulPartitionedCall/functional_24_1/MobileNetV3Small_1/expanded_conv_squeeze_excite_conv_1_2/convolution/ReadVariableOp", "shape": [1, 1, 8, 16], "dtype": "float32", "quantization": {"dtype": "uint8", "min": -0.0, "scale": 0.0005952052041596061, "original_dtype": "float32"}}, {"name": "StatefulPartitionedCall/functional_24_1/MobileNetV3Small_1/expanded_conv_squeeze_excite_conv_1_2/Squeeze", "shape": [16], "dtype": "float32", "quantization": {"dtype": "uint8", "min": -0.785699478785197, "scale": 0.011554404099782308, "original_dtype": "float32"}}, {"name": "StatefulPartitionedCall/functional_24_1/MobileNetV3Small_1/Const", "shape": [], "dtype": "float32", "quantization": {"dtype": "uint8", "min": 3.0, "scale": 1.0, "original_dtype": "float32"}}, {"name": "ConstantFolding/StatefulPartitionedCall/functional_24_1/MobileNetV3Small_1/activation_144_1/truediv_recip", "shape": [], "dtype": "float32", "quantization": {"dtype": "uint8", "min": 0.1666666716337204, "scale": 1.0, "original_dtype": "float32"}}, {"name": "StatefulPartitionedCall/functional_24_1/MobileNetV3Small_1/rescaling_8_1/Cast/x", "shape": [], "dtype": "float32", "quantization": {"dtype": "uint8", "min": 0.007843137718737125, "scale": 1.0, "original_dtype": "float32"}}, {"name": "StatefulPartitionedCall/functional_24_1/MobileNetV3Small_1/rescaling_8_1/Cast_1/x", "shape": [], "dtype": "float32", "quantization": {"dtype": "uint8", "min": -1.0, "scale": 1.0, "original_dtype": "float32"}}, {"name": "StatefulPartitionedCall/functional_24_1/MobileNetV3Small_1/conv_1/convolution/merged_input", "shape": [3, 3, 3, 16], "dtype": "float32", "quantization": {"dtype": "uint8", "min": -1.9802602010614732, "scale": 0.01609967643139409, "original_dtype": "float32"}}, {"name": "StatefulPartitionedCall/functional_24_1/MobileNetV3Small_1/conv_bn_1/batchnorm/sub", "shape": [16], "dtype": "float32", "quantization": {"dtype": "uint8", "min": -0.6588881551050672, "scale": 0.059898923191369746, "original_dtype": "float32"}}, {"name": "StatefulPartitionedCall/functional_24_1/MobileNetV3Small_1/activation_144_1/Const", "shape": [], "dtype": "float32", "quantization": {"dtype": "uint8", "min": 3.0, "scale": 1.0, "original_dtype": "float32"}}, {"name": "StatefulPartitionedCall/functional_24_1/MobileNetV3Small_1/expanded_conv_depthwise_pad_1/Const", "shape": [4, 2], "dtype": "int32"}, {"name": "StatefulPartitionedCall/functional_24_1/MobileNetV3Small_1/expanded_conv_depthwise_1/depthwise/ReadVariableOp", "shape": [3, 3, 16, 1], "dtype": "float32", "quantization": {"dtype": "uint8", "min": -31.169502407896754, "scale": 0.24935601926317402, "original_dtype": "float32"}}, {"name": "StatefulPartitionedCall/functional_24_1/MobileNetV3Small_1/expanded_conv_depthwise_bn_1/batchnorm/mul", "shape": [16], "dtype": "float32", "quantization": {"dtype": "uint8", "min": -2.500866029776779, "scale": 0.01786332878411985, "original_dtype": "float32"}}, {"name": "StatefulPartitionedCall/functional_24_1/MobileNetV3Small_1/expanded_conv_depthwise_bn_1/batchnorm/sub", "shape": [16], "dtype": "float32", "quantization": {"dtype": "uint8", "min": -23.9191790711646, "scale": 0.1616160748051662, "original_dtype": "float32"}}, {"name": "StatefulPartitionedCall/functional_24_1/MobileNetV3Small_1/expanded_conv_project_1/convolution/merged_input", "shape": [1, 1, 16, 16], "dtype": "float32", "quantization": {"dtype": "uint8", "min": -2.2872705459594727, "scale": 0.018445730209350586, "original_dtype": "float32"}}, {"name": "StatefulPartitionedCall/functional_24_1/MobileNetV3Small_1/expanded_conv_project_bn_1/batchnorm/sub", "shape": [16], "dtype": "float32", "quantization": {"dtype": "uint8", "min": -51.990179802389704, "scale": 0.33327038334865194, "original_dtype": "float32"}}, {"name": "StatefulPartitionedCall/functional_24_1/MobileNetV3Small_1/expanded_conv_1_expand_1/convolution/merged_input", "shape": [1, 1, 16, 72], "dtype": "float32", "quantization": {"dtype": "uint8", "min": -0.7586225533017925, "scale": 0.005973405931510177, "original_dtype": "float32"}}, {"name": "StatefulPartitionedCall/functional_24_1/MobileNetV3Small_1/expanded_conv_1_expand_bn_1/batchnorm/sub", "shape": [72], "dtype": "float32", "quantization": {"dtype": "uint8", "min": -5.57499880510218, "scale": 0.14294868731031232, "original_dtype": "float32"}}, {"name": "StatefulPartitionedCall/functional_24_1/MobileNetV3Small_1/expanded_conv_1_depthwise_pad_1/Const", "shape": [4, 2], "dtype": "int32"}, {"name": "StatefulPartitionedCall/functional_24_1/MobileNetV3Small_1/expanded_conv_1_depthwise_1/depthwise/ReadVariableOp", "shape": [3, 3, 72, 1], "dtype": "float32", "quantization": {"dtype": "uint8", "min": -16.447105968699738, "scale": 0.10964737312466491, "original_dtype": "float32"}}, {"name": "StatefulPartitionedCall/functional_24_1/MobileNetV3Small_1/expanded_conv_1_depthwise_bn_1/batchnorm/mul", "shape": [72], "dtype": "float32", "quantization": {"dtype": "uint8", "min": 0.0424809493124485, "scale": 0.008467548019161412, "original_dtype": "float32"}}, {"name": "StatefulPartitionedCall/functional_24_1/MobileNetV3Small_1/expanded_conv_1_depthwise_bn_1/batchnorm/sub", "shape": [72], "dtype": "float32", "quantization": {"dtype": "uint8", "min": -55.273538926068476, "scale": 0.37346985760857077, "original_dtype": "float32"}}, {"name": "StatefulPartitionedCall/functional_24_1/MobileNetV3Small_1/expanded_conv_1_project_1/convolution/merged_input", "shape": [1, 1, 72, 24], "dtype": "float32", "quantization": {"dtype": "uint8", "min": -2.4060550016515396, "scale": 0.016479828778435204, "original_dtype": "float32"}}, {"name": "StatefulPartitionedCall/functional_24_1/MobileNetV3Small_1/expanded_conv_1_project_bn_1/batchnorm/sub", "shape": [24], "dtype": "float32", "quantization": {"dtype": "uint8", "min": -67.29810306324678, "scale": 0.7159372666302849, "original_dtype": "float32"}}, {"name": "StatefulPartitionedCall/functional_24_1/MobileNetV3Small_1/expanded_conv_2_expand_1/convolution/merged_input", "shape": [1, 1, 24, 88], "dtype": "float32", "quantization": {"dtype": "uint8", "min": -0.6059371490104526, "scale": 0.006059371490104526, "original_dtype": "float32"}}, {"name": "StatefulPartitionedCall/functional_24_1/MobileNetV3Small_1/expanded_conv_2_expand_bn_1/batchnorm/sub", "shape": [88], "dtype": "float32", "quantization": {"dtype": "uint8", "min": -4.392357768264471, "scale": 0.05291997311162014, "original_dtype": "float32"}}, {"name": "StatefulPartitionedCall/functional_24_1/MobileNetV3Small_1/expanded_conv_2_depthwise_1/depthwise/ReadVariableOp", "shape": [3, 3, 88, 1], "dtype": "float32", "quantization": {"dtype": "uint8", "min": -10.779321165645824, "scale": 0.10266020157757927, "original_dtype": "float32"}}, {"name": "StatefulPartitionedCall/functional_24_1/MobileNetV3Small_1/expanded_conv_2_depthwise_bn_1/batchnorm/mul", "shape": [88], "dtype": "float32", "quantization": {"dtype": "uint8", "min": 0.11479061096906662, "scale": 0.00577110709512935, "original_dtype": "float32"}}, {"name": "StatefulPartitionedCall/functional_24_1/MobileNetV3Small_1/expanded_conv_2_depthwise_bn_1/batchnorm/sub", "shape": [88], "dtype": "float32", "quantization": {"dtype": "uint8", "min": -27.42009501737707, "scale": 0.24052714927523744, "original_dtype": "float32"}}, {"name": "StatefulPartitionedCall/functional_24_1/MobileNetV3Small_1/expanded_conv_2_project_1/convolution/merged_input", "shape": [1, 1, 88, 24], "dtype": "float32", "quantization": {"dtype": "uint8", "min": -2.3828098446715114, "scale": 0.017020070319082224, "original_dtype": "float32"}}, {"name": "StatefulPartitionedCall/functional_24_1/MobileNetV3Small_1/expanded_conv_3_expand_1/convolution/merged_input", "shape": [1, 1, 24, 96], "dtype": "float32", "quantization": {"dtype": "uint8", "min": -0.4148407597167819, "scale": 0.003095826565050611, "original_dtype": "float32"}}, {"name": "StatefulPartitionedCall/functional_24_1/MobileNetV3Small_1/expanded_conv_3_expand_bn_1/batchnorm/sub", "shape": [96], "dtype": "float32", "quantization": {"dtype": "uint8", "min": -2.6140229169060203, "scale": 0.04586005117378983, "original_dtype": "float32"}}, {"name": "StatefulPartitionedCall/functional_24_1/MobileNetV3Small_1/activation_145_1/Const", "shape": [], "dtype": "float32", "quantization": {"dtype": "uint8", "min": 3.0, "scale": 1.0, "original_dtype": "float32"}}, {"name": "StatefulPartitionedCall/functional_24_1/MobileNetV3Small_1/expanded_conv_3_depthwise_pad_1/Const", "shape": [4, 2], "dtype": "int32"}, {"name": "StatefulPartitionedCall/functional_24_1/MobileNetV3Small_1/expanded_conv_3_depthwise_1/depthwise/ReadVariableOp", "shape": [5, 5, 96, 1], "dtype": "float32", "quantization": {"dtype": "uint8", "min": -4.660074884751264, "scale": 0.040173059351304, "original_dtype": "float32"}}, {"name": "StatefulPartitionedCall/functional_24_1/MobileNetV3Small_1/expanded_conv_3_depthwise_bn_1/batchnorm/mul", "shape": [96], "dtype": "float32", "quantization": {"dtype": "uint8", "min": -0.21815279278100705, "scale": 0.02726909909762588, "original_dtype": "float32"}}, {"name": "StatefulPartitionedCall/functional_24_1/MobileNetV3Small_1/expanded_conv_3_depthwise_bn_1/batchnorm/sub", "shape": [96], "dtype": "float32", "quantization": {"dtype": "uint8", "min": -3.080942789713542, "scale": 0.06287638346354167, "original_dtype": "float32"}}, {"name": "StatefulPartitionedCall/functional_24_1/MobileNetV3Small_1/activation_146_1/Const", "shape": [], "dtype": "float32", "quantization": {"dtype": "uint8", "min": 3.0, "scale": 1.0, "original_dtype": "float32"}}, {"name": "StatefulPartitionedCall/functional_24_1/MobileNetV3Small_1/expanded_conv_3_project_1/convolution/merged_input", "shape": [1, 1, 96, 40], "dtype": "float32", "quantization": {"dtype": "uint8", "min": -4.819865918626972, "scale": 0.03707589168174594, "original_dtype": "float32"}}, {"name": "StatefulPartitionedCall/functional_24_1/MobileNetV3Small_1/expanded_conv_3_project_bn_1/batchnorm/sub", "shape": [40], "dtype": "float32", "quantization": {"dtype": "uint8", "min": -20.9925864500158, "scale": 0.21204632777793736, "original_dtype": "float32"}}, {"name": "StatefulPartitionedCall/functional_24_1/MobileNetV3Small_1/expanded_conv_4_expand_1/convolution/merged_input", "shape": [1, 1, 40, 240], "dtype": "float32", "quantization": {"dtype": "uint8", "min": -0.44539643327395123, "scale": 0.003071699539820353, "original_dtype": "float32"}}, {"name": "StatefulPartitionedCall/functional_24_1/MobileNetV3Small_1/expanded_conv_4_expand_bn_1/batchnorm/sub", "shape": [240], "dtype": "float32", "quantization": {"dtype": "uint8", "min": -5.3093513488769535, "scale": 0.043878936767578126, "original_dtype": "float32"}}, {"name": "StatefulPartitionedCall/functional_24_1/MobileNetV3Small_1/activation_147_1/Const", "shape": [], "dtype": "float32", "quantization": {"dtype": "uint8", "min": 3.0, "scale": 1.0, "original_dtype": "float32"}}, {"name": "StatefulPartitionedCall/functional_24_1/MobileNetV3Small_1/expanded_conv_4_depthwise_1/depthwise/ReadVariableOp", "shape": [5, 5, 240, 1], "dtype": "float32", "quantization": {"dtype": "uint8", "min": -8.980103720870671, "scale": 0.07242019129734413, "original_dtype": "float32"}}, {"name": "StatefulPartitionedCall/functional_24_1/MobileNetV3Small_1/expanded_conv_4_depthwise_bn_1/batchnorm/mul", "shape": [240], "dtype": "float32", "quantization": {"dtype": "uint8", "min": -0.6115005175272624, "scale": 0.0764375646909078, "original_dtype": "float32"}}, {"name": "StatefulPartitionedCall/functional_24_1/MobileNetV3Small_1/expanded_conv_4_depthwise_bn_1/batchnorm/sub", "shape": [240], "dtype": "float32", "quantization": {"dtype": "uint8", "min": -5.6966693691178865, "scale": 0.04251245797849169, "original_dtype": "float32"}}, {"name": "StatefulPartitionedCall/functional_24_1/MobileNetV3Small_1/activation_148_1/Const", "shape": [], "dtype": "float32", "quantization": {"dtype": "uint8", "min": 3.0, "scale": 1.0, "original_dtype": "float32"}}, {"name": "StatefulPartitionedCall/functional_24_1/MobileNetV3Small_1/expanded_conv_4_project_1/convolution/merged_input", "shape": [1, 1, 240, 40], "dtype": "float32", "quantization": {"dtype": "uint8", "min": -16.797469913258272, "scale": 0.13226354262408088, "original_dtype": "float32"}}, {"name": "StatefulPartitionedCall/functional_24_1/MobileNetV3Small_1/expanded_conv_5_expand_1/convolution/merged_input", "shape": [1, 1, 40, 240], "dtype": "float32", "quantization": {"dtype": "uint8", "min": -0.15651496157926673, "scale": 0.0011857194059035358, "original_dtype": "float32"}}, {"name": "StatefulPartitionedCall/functional_24_1/MobileNetV3Small_1/expanded_conv_5_expand_bn_1/batchnorm/sub", "shape": [240], "dtype": "float32", "quantization": {"dtype": "uint8", "min": -2.179186372195973, "scale": 0.02594269490709492, "original_dtype": "float32"}}, {"name": "StatefulPartitionedCall/functional_24_1/MobileNetV3Small_1/activation_149_1/Const", "shape": [], "dtype": "float32", "quantization": {"dtype": "uint8", "min": 3.0, "scale": 1.0, "original_dtype": "float32"}}, {"name": "StatefulPartitionedCall/functional_24_1/MobileNetV3Small_1/expanded_conv_5_depthwise_1/depthwise/ReadVariableOp", "shape": [5, 5, 240, 1], "dtype": "float32", "quantization": {"dtype": "uint8", "min": -8.897985952040727, "scale": 0.07061893612730737, "original_dtype": "float32"}}, {"name": "StatefulPartitionedCall/functional_24_1/MobileNetV3Small_1/expanded_conv_5_depthwise_bn_1/batchnorm/mul", "shape": [240], "dtype": "float32", "quantization": {"dtype": "uint8", "min": 0.015071672387421131, "scale": 0.04957407860121891, "original_dtype": "float32"}}, {"name": "StatefulPartitionedCall/functional_24_1/MobileNetV3Small_1/expanded_conv_5_depthwise_bn_1/batchnorm/sub", "shape": [240], "dtype": "float32", "quantization": {"dtype": "uint8", "min": -14.383092409021714, "scale": 0.0831392624798943, "original_dtype": "float32"}}, {"name": "StatefulPartitionedCall/functional_24_1/MobileNetV3Small_1/activation_150_1/Const", "shape": [], "dtype": "float32", "quantization": {"dtype": "uint8", "min": 3.0, "scale": 1.0, "original_dtype": "float32"}}, {"name": "StatefulPartitionedCall/functional_24_1/MobileNetV3Small_1/expanded_conv_5_project_1/convolution/merged_input", "shape": [1, 1, 240, 40], "dtype": "float32", "quantization": {"dtype": "uint8", "min": -30.937468846639, "scale": 0.24360211690266928, "original_dtype": "float32"}}, {"name": "StatefulPartitionedCall/functional_24_1/MobileNetV3Small_1/expanded_conv_6_expand_1/convolution/merged_input", "shape": [1, 1, 40, 120], "dtype": "float32", "quantization": {"dtype": "uint8", "min": -0.14613830435509775, "scale": 0.0016992826087802065, "original_dtype": "float32"}}, {"name": "StatefulPartitionedCall/functional_24_1/MobileNetV3Small_1/expanded_conv_6_expand_bn_1/batchnorm/sub", "shape": [120], "dtype": "float32", "quantization": {"dtype": "uint8", "min": -1.3936392615823185, "scale": 0.02903415128296497, "original_dtype": "float32"}}, {"name": "StatefulPartitionedCall/functional_24_1/MobileNetV3Small_1/activation_151_1/Const", "shape": [], "dtype": "float32", "quantization": {"dtype": "uint8", "min": 3.0, "scale": 1.0, "original_dtype": "float32"}}, {"name": "StatefulPartitionedCall/functional_24_1/MobileNetV3Small_1/expanded_conv_6_depthwise_1/depthwise/ReadVariableOp", "shape": [5, 5, 120, 1], "dtype": "float32", "quantization": {"dtype": "uint8", "min": -11.212405036477483, "scale": 0.09749917423023897, "original_dtype": "float32"}}, {"name": "StatefulPartitionedCall/functional_24_1/MobileNetV3Small_1/expanded_conv_6_depthwise_bn_1/batchnorm/mul", "shape": [120], "dtype": "float32", "quantization": {"dtype": "uint8", "min": 0.026290936395525932, "scale": 0.015165958984517584, "original_dtype": "float32"}}, {"name": "StatefulPartitionedCall/functional_24_1/MobileNetV3Small_1/expanded_conv_6_depthwise_bn_1/batchnorm/sub", "shape": [120], "dtype": "float32", "quantization": {"dtype": "uint8", "min": -4.64629981845033, "scale": 0.05402674207500383, "original_dtype": "float32"}}, {"name": "StatefulPartitionedCall/functional_24_1/MobileNetV3Small_1/activation_152_1/Const", "shape": [], "dtype": "float32", "quantization": {"dtype": "uint8", "min": 3.0, "scale": 1.0, "original_dtype": "float32"}}, {"name": "StatefulPartitionedCall/functional_24_1/MobileNetV3Small_1/expanded_conv_6_project_1/convolution/merged_input", "shape": [1, 1, 120, 48], "dtype": "float32", "quantization": {"dtype": "uint8", "min": -3.926554691090303, "scale": 0.04090161136552399, "original_dtype": "float32"}}, {"name": "StatefulPartitionedCall/functional_24_1/MobileNetV3Small_1/expanded_conv_6_project_bn_1/batchnorm/sub", "shape": [48], "dtype": "float32", "quantization": {"dtype": "uint8", "min": -56.48129330803366, "scale": 0.3246051339542165, "original_dtype": "float32"}}, {"name": "StatefulPartitionedCall/functional_24_1/MobileNetV3Small_1/expanded_conv_7_expand_1/convolution/merged_input", "shape": [1, 1, 48, 144], "dtype": "float32", "quantization": {"dtype": "uint8", "min": -0.2490932804112341, "scale": 0.0017178846924912697, "original_dtype": "float32"}}, {"name": "StatefulPartitionedCall/functional_24_1/MobileNetV3Small_1/expanded_conv_7_expand_bn_1/batchnorm/sub", "shape": [144], "dtype": "float32", "quantization": {"dtype": "uint8", "min": -2.5302239025340363, "scale": 0.033736318700453814, "original_dtype": "float32"}}, {"name": "StatefulPartitionedCall/functional_24_1/MobileNetV3Small_1/activation_153_1/Const", "shape": [], "dtype": "float32", "quantization": {"dtype": "uint8", "min": 3.0, "scale": 1.0, "original_dtype": "float32"}}, {"name": "StatefulPartitionedCall/functional_24_1/MobileNetV3Small_1/expanded_conv_7_depthwise_1/depthwise/ReadVariableOp", "shape": [5, 5, 144, 1], "dtype": "float32", "quantization": {"dtype": "uint8", "min": -8.191298709196202, "scale": 0.060676286734786686, "original_dtype": "float32"}}, {"name": "StatefulPartitionedCall/functional_24_1/MobileNetV3Small_1/expanded_conv_7_depthwise_bn_1/batchnorm/mul", "shape": [144], "dtype": "float32", "quantization": {"dtype": "uint8", "min": 0.038558974862098694, "scale": 0.05106920722652884, "original_dtype": "float32"}}, {"name": "StatefulPartitionedCall/functional_24_1/MobileNetV3Small_1/expanded_conv_7_depthwise_bn_1/batchnorm/sub", "shape": [144], "dtype": "float32", "quantization": {"dtype": "uint8", "min": -5.9087862351361435, "scale": 0.06422593733843635, "original_dtype": "float32"}}, {"name": "StatefulPartitionedCall/functional_24_1/MobileNetV3Small_1/activation_154_1/Const", "shape": [], "dtype": "float32", "quantization": {"dtype": "uint8", "min": 3.0, "scale": 1.0, "original_dtype": "float32"}}, {"name": "StatefulPartitionedCall/functional_24_1/MobileNetV3Small_1/expanded_conv_7_project_1/convolution/merged_input", "shape": [1, 1, 144, 48], "dtype": "float32", "quantization": {"dtype": "uint8", "min": -18.158915919883576, "scale": 0.14298358992034313, "original_dtype": "float32"}}, {"name": "StatefulPartitionedCall/functional_24_1/MobileNetV3Small_1/expanded_conv_8_expand_1/convolution/merged_input", "shape": [1, 1, 48, 288], "dtype": "float32", "quantization": {"dtype": "uint8", "min": -0.23885643686733996, "scale": 0.0017434776413674448, "original_dtype": "float32"}}, {"name": "StatefulPartitionedCall/functional_24_1/MobileNetV3Small_1/expanded_conv_8_expand_bn_1/batchnorm/sub", "shape": [288], "dtype": "float32", "quantization": {"dtype": "uint8", "min": -2.6815400123596187, "scale": 0.03154752955717199, "original_dtype": "float32"}}, {"name": "StatefulPartitionedCall/functional_24_1/MobileNetV3Small_1/activation_155_1/Const", "shape": [], "dtype": "float32", "quantization": {"dtype": "uint8", "min": 3.0, "scale": 1.0, "original_dtype": "float32"}}, {"name": "StatefulPartitionedCall/functional_24_1/MobileNetV3Small_1/expanded_conv_8_depthwise_pad_1/Const", "shape": [4, 2], "dtype": "int32"}, {"name": "StatefulPartitionedCall/functional_24_1/MobileNetV3Small_1/expanded_conv_8_depthwise_1/depthwise/ReadVariableOp", "shape": [5, 5, 288, 1], "dtype": "float32", "quantization": {"dtype": "uint8", "min": -3.0605221187367158, "scale": 0.02283971730400534, "original_dtype": "float32"}}, {"name": "StatefulPartitionedCall/functional_24_1/MobileNetV3Small_1/expanded_conv_8_depthwise_bn_1/batchnorm/mul", "shape": [288], "dtype": "float32", "quantization": {"dtype": "uint8", "min": 0.04543915390968323, "scale": 0.03548090165736629, "original_dtype": "float32"}}, {"name": "StatefulPartitionedCall/functional_24_1/MobileNetV3Small_1/expanded_conv_8_depthwise_bn_1/batchnorm/sub", "shape": [288], "dtype": "float32", "quantization": {"dtype": "uint8", "min": -2.2682317294326486, "scale": 0.04629044345780915, "original_dtype": "float32"}}, {"name": "StatefulPartitionedCall/functional_24_1/MobileNetV3Small_1/activation_156_1/Const", "shape": [], "dtype": "float32", "quantization": {"dtype": "uint8", "min": 3.0, "scale": 1.0, "original_dtype": "float32"}}, {"name": "StatefulPartitionedCall/functional_24_1/MobileNetV3Small_1/expanded_conv_8_project_1/convolution/merged_input", "shape": [1, 1, 288, 96], "dtype": "float32", "quantization": {"dtype": "uint8", "min": -2.3838872404659495, "scale": 0.01891974000369801, "original_dtype": "float32"}}, {"name": "StatefulPartitionedCall/functional_24_1/MobileNetV3Small_1/expanded_conv_8_project_bn_1/batchnorm/sub", "shape": [96], "dtype": "float32", "quantization": {"dtype": "uint8", "min": -6.963331259933172, "scale": 0.06695510826858819, "original_dtype": "float32"}}, {"name": "StatefulPartitionedCall/functional_24_1/MobileNetV3Small_1/expanded_conv_9_expand_1/convolution/merged_input", "shape": [1, 1, 96, 576], "dtype": "float32", "quantization": {"dtype": "uint8", "min": -0.27058371515835034, "scale": 0.001905519120833453, "original_dtype": "float32"}}, {"name": "StatefulPartitionedCall/functional_24_1/MobileNetV3Small_1/expanded_conv_9_expand_bn_1/batchnorm/sub", "shape": [576], "dtype": "float32", "quantization": {"dtype": "uint8", "min": -3.180880372664508, "scale": 0.028656579933914485, "original_dtype": "float32"}}, {"name": "StatefulPartitionedCall/functional_24_1/MobileNetV3Small_1/activation_157_1/Const", "shape": [], "dtype": "float32", "quantization": {"dtype": "uint8", "min": 3.0, "scale": 1.0, "original_dtype": "float32"}}, {"name": "StatefulPartitionedCall/functional_24_1/MobileNetV3Small_1/expanded_conv_9_depthwise_1/depthwise/ReadVariableOp", "shape": [5, 5, 576, 1], "dtype": "float32", "quantization": {"dtype": "uint8", "min": -6.437090810139973, "scale": 0.04733155007455863, "original_dtype": "float32"}}, {"name": "StatefulPartitionedCall/functional_24_1/MobileNetV3Small_1/expanded_conv_9_depthwise_bn_1/batchnorm/mul", "shape": [576], "dtype": "float32", "quantization": {"dtype": "uint8", "min": 0.06141868606209755, "scale": 0.07046831108483614, "original_dtype": "float32"}}, {"name": "StatefulPartitionedCall/functional_24_1/MobileNetV3Small_1/expanded_conv_9_depthwise_bn_1/batchnorm/sub", "shape": [576], "dtype": "float32", "quantization": {"dtype": "uint8", "min": -10.382593828089096, "scale": 0.07578535640940946, "original_dtype": "float32"}}, {"name": "StatefulPartitionedCall/functional_24_1/MobileNetV3Small_1/activation_158_1/Const", "shape": [], "dtype": "float32", "quantization": {"dtype": "uint8", "min": 3.0, "scale": 1.0, "original_dtype": "float32"}}, {"name": "StatefulPartitionedCall/functional_24_1/MobileNetV3Small_1/expanded_conv_9_project_1/convolution/merged_input", "shape": [1, 1, 576, 96], "dtype": "float32", "quantization": {"dtype": "uint8", "min": -12.784433185352999, "scale": 0.10146375543930951, "original_dtype": "float32"}}, {"name": "StatefulPartitionedCall/functional_24_1/MobileNetV3Small_1/expanded_conv_10_expand_1/convolution/merged_input", "shape": [1, 1, 96, 576], "dtype": "float32", "quantization": {"dtype": "uint8", "min": -0.4167597406050738, "scale": 0.003019998120326622, "original_dtype": "float32"}}, {"name": "StatefulPartitionedCall/functional_24_1/MobileNetV3Small_1/expanded_conv_10_expand_bn_1/batchnorm/sub", "shape": [576], "dtype": "float32", "quantization": {"dtype": "uint8", "min": -20.81296535940731, "scale": 0.09375209621354645, "original_dtype": "float32"}}, {"name": "StatefulPartitionedCall/functional_24_1/MobileNetV3Small_1/activation_159_1/Const", "shape": [], "dtype": "float32", "quantization": {"dtype": "uint8", "min": 3.0, "scale": 1.0, "original_dtype": "float32"}}, {"name": "StatefulPartitionedCall/functional_24_1/MobileNetV3Small_1/expanded_conv_10_depthwise_1/depthwise/ReadVariableOp", "shape": [5, 5, 576, 1], "dtype": "float32", "quantization": {"dtype": "uint8", "min": -7.781739730460971, "scale": 0.07272653953701842, "original_dtype": "float32"}}, {"name": "StatefulPartitionedCall/functional_24_1/MobileNetV3Small_1/expanded_conv_10_depthwise_bn_1/batchnorm/mul", "shape": [576], "dtype": "float32", "quantization": {"dtype": "uint8", "min": 0.07592851668596268, "scale": 0.10473372208721497, "original_dtype": "float32"}}, {"name": "StatefulPartitionedCall/functional_24_1/MobileNetV3Small_1/expanded_conv_10_depthwise_bn_1/batchnorm/sub", "shape": [576], "dtype": "float32", "quantization": {"dtype": "uint8", "min": -20.328891813988776, "scale": 0.14625102024452358, "original_dtype": "float32"}}, {"name": "StatefulPartitionedCall/functional_24_1/MobileNetV3Small_1/activation_160_1/Const", "shape": [], "dtype": "float32", "quantization": {"dtype": "uint8", "min": 3.0, "scale": 1.0, "original_dtype": "float32"}}, {"name": "StatefulPartitionedCall/functional_24_1/MobileNetV3Small_1/expanded_conv_10_project_1/convolution/merged_input", "shape": [1, 1, 576, 96], "dtype": "float32", "quantization": {"dtype": "uint8", "min": -4.71174783706665, "scale": 0.035967540740966794, "original_dtype": "float32"}}, {"name": "StatefulPartitionedCall/functional_24_1/MobileNetV3Small_1/conv_1_2/convolution/merged_input", "shape": [1, 1, 96, 576], "dtype": "float32", "quantization": {"dtype": "uint8", "min": -0.4969977343783659, "scale": 0.0033809369685603124, "original_dtype": "float32"}}, {"name": "StatefulPartitionedCall/functional_24_1/MobileNetV3Small_1/conv_1_bn_1/batchnorm/sub", "shape": [576], "dtype": "float32", "quantization": {"dtype": "uint8", "min": -14.294096573193867, "scale": 0.0600592292991339, "original_dtype": "float32"}}, {"name": "StatefulPartitionedCall/functional_24_1/MobileNetV3Small_1/activation_161_1/Const", "shape": [], "dtype": "float32", "quantization": {"dtype": "uint8", "min": 3.0, "scale": 1.0, "original_dtype": "float32"}}, {"name": "StatefulPartitionedCall/functional_24_1/global_average_pooling2d_8_1/Mean/reduction_indices", "shape": [2], "dtype": "int32"}, {"name": "StatefulPartitionedCall/functional_24_1/dense_8_1/Cast/ReadVariableOp", "shape": [576, 1], "dtype": "float32", "quantization": {"dtype": "uint8", "min": -0.44370721204608093, "scale": 0.0034937575751659918, "original_dtype": "float32"}}, {"name": "StatefulPartitionedCall/functional_24_1/dense_8_1/Add/ReadVariableOp", "shape": [1], "dtype": "float32", "quantization": {"dtype": "uint8", "min": 0.04769451543688774, "scale": 1.0, "original_dtype": "float32"}}]}]}